Model/output_dir/1DCNN_0809_3e-3.pt (torch, 848869 bytes, 6 tensors)

conv.weight f4 [32, 1, 1, 71]
000000 2b 9e 97 3c 2d 35 66 bc 66 04 b5 b8 7e 95 c8 bd
       0.018508038 -0.014050764 -8.631572e-05 -0.09794138
000010 dd e7 dd bd 65 3e b3 3d 66 32 95 bc 78 e1 9f 3d
       -0.1083524 0.08752135 -0.018212508 0.078066766
000020 85 f6 55 3c fe 59 ed 3d ec 3d c2 bd ea ed 19 3d
       0.013059263 0.1158943 -0.09484467 0.03758041
000030 d3 85 6d 3d e7 d8 e0 3d 5e dd 30 3c 0a 93 c3 bd
       0.057988953 0.10978871 0.010794966 -0.0954953
000040 f7 53 94 3d e2 56 1b bd 80 a8 99 3c 49 54 e6 bd
       0.072425775 -0.037924655 0.018757105 -0.11246545
000050 5c f0 87 bc 8f 6c e6 bc 24 18 ef 3d a7 5b 78 3d
       -0.016594104 -0.028127937 0.11674526 0.06063428
000060 e4 7f 98 bc 35 bf a2 bc e3 6b 1a 3d bb 2f fc 3c
       -0.01861567 -0.019866565 0.037700545 0.030784478
000070 a3 ac 9d bc cb d6 d4 3d 7c 68 18 bc 8e 2b d9 bd
       -0.019247359 0.10392531 -0.009302255 -0.106040105
000080 04 3f d3 bd 70 40 18 3d ad 28 03 be 76 e1 d1 3d
       -0.10314754 0.037170827 -0.12808485 0.102480814
000090 ca 1b 10 be 0d a7 9b 3d 93 da de 3d 95 74 e1 bd
       -0.140731 0.07600222 0.108815335 -0.110085644
0000a0 b1 a6 78 bd a5 80 8c 3c eb b4 07 3d 73 ba 9e 3d
       -0.060705844 0.017151186 0.03313152 0.07750406
0000b0 e3 f5 8a bd 1d 7d 1c 3c 99 e5 3d 3d 62 32 06 be
       -0.067851804 0.009551314 0.04636154 -0.13105157
0000c0 8e 58 07 bd b8 18 1b 3b 97 7c 8b bd 4a f9 ce ba
       -0.033043437 0.0023665857 -0.06810873 -0.0015790847
0000d0 84 d4 a8 3d 5a 00 b8 bc ae c0 7e bd 13 7d bc 3d
       0.08243659 -0.022461105 -0.062195472 0.092035435
0000e0 46 7b 5f 3d 8d 15 77 3d b2 76 a9 bd 17 52 52 3d
       0.054560922 0.060323287 -0.082745925 0.05134782
0000f0 6e 69 fd bd 24 b7 b3 bd eb 7d 86 3d dc 35 9a 3d
       -0.12373625 -0.08775166 0.06566986 0.07529804
000100 6d f4 a9 bc 4d 80 83 3c 94 5b d5 3c 58 f1 79 bd
       -0.020746434 0.01605239 0.026044644 -0.06102118
000110 e5 52 01 3d 56 86 2f 3d 97 36 db 3b 5e db 99 3d
       0.031573195 0.042852722 0.006689857 0.07512544
000120 15 f5 3b 3d 57 bc 0d bd 4f 90 1d 3d d9 e2 c0 bb
       0.045888025 -0.034603443 0.0384677 -0.0058864173
000130 6d 81 c9 bd ec d7 02 3e fe a8 9c bd 3e 18 cb 3d
       -0.09839139 0.1277768 -0.0764942 0.09916733
000140 7e 7f 75 3d 14 53 f2 bc 17 b3 ab bb e7 9c 00 3c
       0.05993604 -0.02958063 -0.005239855 0.007849908
000150 c0 9e c2 bd 04 1c f1 3d a6 e2 08 3e f7 9f 1e 3d
       -0.095029354 0.11772922 0.1336771 0.038726773
000160 00 5d 3a 3d 8e d3 5e bc 71 db be bd e4 04 03 3e
       0.045498848 -0.013600243 -0.09319199 0.12794834
000170 bb 87 d7 3d 03 96 bb bc 83 e1 c2 3d 31 75 c4 bc
       0.105239354 -0.02289868 0.09515669 -0.023981662
000180 a7 26 de 3b 5d 46 01 3e 49 0e b6 3d 95 46 a1 bc
       0.00677951 0.12624498 0.088894434 -0.019686976
000190 a8 ea 95 3d 9c 7c 72 ba ec 60 02 3e 8d 06 ed bb
       0.07320148 -0.00092501356 0.12732285 -0.007233447
0001a0 a4 1a 03 3e 15 59 2b 3d 8a 2d 5d 3d 39 90 a1 bc
       0.12803131 0.041833002 0.053998508 -0.019722091
0001b0 a1 df 73 bc 9a b5 98 3d ce 44 b8 3d f6 9c 2f bd
       -0.01488486 0.07456513 0.089974985 -0.0428743
0001c0 06 44 b3 bd 1f 4f f7 3c 19 a2 ec 3d 9a 29 b5 bc
       -0.08753209 0.030189095 0.11554355 -0.022114564
0001d0 5d f4 96 3d 15 2c 0d 3e 7c c2 97 bd 19 b4 a2 3c
       0.07370827 0.13786347 -0.07410142 0.019861268
0001e0 be 3d cd bb 03 a5 45 3d 20 65 c5 bd fd cc b6 3d
       -0.0062634638 0.04825307 -0.09638429 0.08925817
0001f0 16 86 98 bd 8a d5 da 3d 09 8d 8b 3c 6c 5b 15 3d
       -0.0744745 0.106852606 0.017035024 0.03646414
000200 08 30 04 3d e7 27 aa 3d 0c 02 97 3d e1 8c b8 b9
       0.03227237 0.08308392 0.07373437 -0.00035200178
000210 33 b0 bd 3d c8 27 c9 3d b9 2f 52 3d ff d9 c4 bd
       0.09262123 0.09822041 0.051315043 -0.09611892
000220 a0 72 15 bd 96 e7 a4 3d 3d de 96 bd e9 67 a7 bd
       -0.036486268 0.08051984 -0.07366607 -0.08174116
000230 c7 7e fd 3d 34 ab 10 bd 2a d5 a5 3c 42 1c b2 bd
       0.123776965 -0.035319522 0.020243246 -0.08696796
000240 fa a3 9e bd 40 76 46 3c eb ac 0c 3e 8d 73 b4 3d
       -0.0774612 0.012113154 0.13737838 0.08811102
000250 27 2a 0b 3d 97 b1 83 3d d3 59 5e bd 31 f7 24 bd
       0.033975746 0.06430357 -0.05428488 -0.040274803
000260 14 fa 9d ba 75 98 e5 bc 3d 18 a5 bc 2c 89 29 bd
       -0.0012052679 -0.028026799 -0.02015316 -0.041390583
000270 cb cb 07 3d d0 45 9d bd b2 e4 70 3b dc 03 93 bd
       0.033153336 -0.07679331 0.0036757407 -0.071784705
000280 77 fb 9a 3d 51 e2 c4 3b e6 b7 de bc 2c 73 29 bd
       0.07567494 0.0060084243 -0.027187299 -0.041369602
000290 e6 c8 6f bd fa 4e 2f 3d ba 62 5f bc 6d 49 91 bd
       -0.0585412 0.042799927 -0.013634378 -0.07094083
0002a0 50 f2 96 bd 20 74 96 3d 9c 01 ea 3d 31 d5 12 3e
       -0.07370436 0.07346368 0.11426088 0.14339139
0002b0 4a 13 63 3d 05 e4 58 bb 5c 56 96 3d 2f c7 4d 3d
       0.055438317 -0.0033094895 0.073406905 0.050238784
0002c0 1f 8d 58 bd 34 45 94 3d 71 7c bf 3d a0 ef f7 3c
       -0.05286896 0.07239762 0.09349907 0.03026563
0002d0 15 cc 6d bd 28 c4 a9 3d c2 af c0 3c 3f dc 06 3d
       -0.058055956 0.08289367 0.023521308 0.032924887
0002e0 c5 00 96 3d 57 0c bc 3c e5 a7 0d 3e 41 f5 4e bd
       0.073243655 0.022955103 0.13833578 -0.05052686
0002f0 fe 5b ae 3d 55 00 18 3d db 3f ad 3d d7 06 90 3d
       0.0851364 0.03710969 0.08459445 0.070325546
000300 73 41 72 bd cd 40 80 3d 9d 4c e2 3d 80 ed aa 3d
       -0.05914445 0.0626236 0.11049769 0.08346081
000310 79 b7 4c bd 71 d4 bb bd 1b c5 eb bc 41 03 99 bd
       -0.04997966 -0.09171379 -0.02878051 -0.07471324
000320 01 60 81 3d 80 4f 3a bd 31 84 9d 3d bd d2 48 bd
       0.063171394 -0.045485973 0.07691229 -0.0490291
000330 34 5f 82 3d 49 fe 0e 3e 28 7e 86 bd 24 5f 7b bb
       0.06365815 0.1396419 -0.06567031 -0.0038356269
000340 de fc 79 bc f0 30 f7 3b 46 fd b9 bd ff bc dd 3d
       -0.015258042 0.0075436756 -0.09081511 0.10827064
000350 65 e8 06 3e 29 b3 bd bc a4 2f f4 3d 7e 3d 14 bd
       0.13174589 -0.02315672 0.11923149 -0.036191456
000360 15 68 c5 3d 20 cf 8f 3d fc 25 9a 3c 73 83 51 bb
       0.09638993 0.07021928 0.01881694 -0.003196922
000370 70 aa 51 3d 86 7d 8c bc dd c0 be 3d a8 ed 80 bd
       0.051187932 -0.017149698 0.093141295 -0.06295329
000380 34 2f 91 3d 59 36 45 3d 53 15 e1 3d b6 24 54 3d
       0.070890814 0.048147533 0.109903954 0.051792823
000390 f6 4d 86 bd ba 92 bb bd 05 5d d7 bd 1a 1e c1 3c
       -0.065578386 -0.09158845 -0.10515789 0.023573924
0003a0 92 63 b2 bd 33 97 34 bd da c0 4c 3d 9d 64 b7 ba
       -0.08710398 -0.044089507 0.049988605 -0.0013991777
0003b0 9d 63 76 3c 80 53 f7 3d 15 44 fa 3d 8b 31 72 bd
       0.015038398 0.12076473 0.12220017 -0.05912928
0003c0 06 41 51 3d 22 3b af 3d 08 a6 08 bd c2 c1 a4 bd
       0.0510874 0.085562006 -0.033361465 -0.08044769
0003d0 a8 45 23 bc b1 f2 da bd cc 69 8a 3d 65 a8 83 bd
       -0.009965338 -0.10690821 0.067584604 -0.06428603
0003e0 73 f0 bb bb 2a aa 02 3d 5e 34 ac bc 0c a6 91 3d
       -0.005735451 0.031900562 -0.021021064 0.07111749
0003f0 aa a7 d2 bc 65 30 bd 3d 04 72 c6 bd ea 13 22 3c
       -0.025714714 0.09237746 -0.096897155 0.009892443

conv.bias f4 [32]
000000 5e 07 eb 3b 2f 33 57 3c 12 ea a6 3d 69 d3 6b ba
       0.007172509 0.013134762 0.08150114 -0.0008996041
000010 b3 63 dd ba 2a d7 8c bd 92 53 a1 3d 14 22 4f bb
       -0.0016890675 -0.06876977 0.07877268 -0.0031606006
000020 0b c6 bf bd 2c 16 e6 3d 8d 73 8f 3b 29 79 37 bc
       -0.093639456 0.11234698 0.0043777884 -0.01119832
000030 ed 06 5e 3d f6 a6 0a bd ad 4d fa 3d 2f 06 01 be
       0.054205824 -0.033850633 0.12221847 -0.12600015
000040 28 52 9a 3d 12 30 18 bc eb 1a a8 bc 3a 64 82 3d
       0.07535201 -0.009288805 -0.020520648 0.06366773
000050 77 2d ad 3d 92 57 02 3c 4c 9b 7b bd 75 6c b1 bd
       0.08455937 0.007955449 -0.0614274 -0.08663265
000060 6f 0b 95 bd 17 42 88 bd 34 ed 79 3b c1 6f 9c 3d
       -0.072775714 -0.06653231 0.003813577 0.07638503
000070 a6 6a 7d 3d b6 57 04 3d 34 41 82 3d fb ec f4 3d
       0.061869286 0.03231021 0.06360093 0.11959263

hidden1.weight f4 [128, 1600]
000000 8a ef ca bc bd b7 26 bd f7 b1 7f bc b7 22 bf bc
       -0.024772424 -0.04070257 -0.015606395 -0.023331983
000010 22 4f e0 3b ba f5 f0 39 95 2d 4f bc 56 85 ed bc
       0.006845371 0.00045959448 -0.012645145 -0.028994244
000020 36 af 98 bc 3c 8d 34 bc 02 29 d4 3c cf e0 3d bb
       -0.018638235 -0.011020001 0.02589846 -0.0028973108
000030 22 eb 17 bd c9 68 89 bc e7 6d 8d 3b c6 72 cb ba
       -0.037089474 -0.016773598 0.00431608 -0.0015521876
000040 68 68 2b bd 36 b2 03 bd 5a ba ef bc 9e 6a 00 bd
       -0.041847616 -0.032152377 -0.029263664 -0.031351678
000050 22 fd 68 ba d1 dd 07 3d 49 f8 d8 3b 19 03 c6 bc
       -0.00088878174 0.033170525 0.006621395 -0.024171399
000060 1b 26 d2 3c 7c 56 41 bc b7 e3 d0 3a d6 96 92 bc
       0.025652936 -0.011800405 0.0015937005 -0.01789419
000070 06 a6 2c 3d 84 44 2e bd 41 dd 0c bb b6 7f d7 bc
       0.04215052 -0.04254581 -0.0021494182 -0.026306015
000080 b4 a5 2c 3b da 8b 22 3d c4 63 99 3b 8c ca 1b bb
       0.0026343884 0.039684154 0.0046810824 -0.002377185
000090 77 44 8b bc 74 54 86 3b b3 b1 8e bc 2b fd 0c 3d
       -0.01700042 0.004099423 -0.017418718 0.034421127
0000a0 33 ad dc 3c 5e 32 21 bd f9 50 3e bc c9 bc 2f bd
       0.026938057 -0.039354675 -0.011615985 -0.04290465
0000b0 d8 32 cd ba f1 ab 44 bb 88 11 58 bc bb b7 41 bc
       -0.0015655411 -0.0030009712 -0.0131877735 -0.01182359
0000c0 62 e4 5b bc 0d d3 3e 3c f5 f7 d7 bc 1c ee ee bc
       -0.01342115 0.011646998 -0.026363352 -0.029166274
0000d0 51 2a 2a bd d1 02 0a bd 72 a8 07 bd e4 7b e0 bb
       -0.041544262 -0.033694092 -0.033119626 -0.0068507064
0000e0 34 de 94 bc 5a 24 32 bc 95 52 ab bc ff 0a 24 bd
       -0.018172361 -0.010872925 -0.020913402 -0.04004955
0000f0 c9 8c 1e bd a7 0e 72 bc 88 4e 09 b9 7e 73 8b 3b
       -0.038708482 -0.014774001 -0.00013094593 0.004255711
000100 cc 38 9f bc 35 23 f1 b9 f7 d1 e5 3c ca c9 d5 3b
       -0.019436263 -0.00045993333 0.02805422 0.0065242993
000110 ee cf 84 3b fb 62 36 bc 0b d2 2c bc 6c 5e 73 36
       0.0040531075 -0.011131997 -0.010548125 3.6264782e-06
000120 cc bf a1 3b f2 37 15 bc 73 57 8d bc c8 b3 e9 bc
       0.004936194 -0.009107577 -0.017253613 -0.02852811
000130 15 84 c9 bc 29 f5 99 ba 98 a9 93 bc 6e 03 d1 3c
       -0.024599114 -0.0011746037 -0.018025205 0.02551433
000140 37 ee 29 bd 52 62 46 bc 40 53 6a bc 88 af 51 bb
       -0.041486945 -0.012108402 -0.014302075 -0.0031995494
000150 45 2e b2 3b de 76 28 3d 7c 6b a3 bc 07 de b5 bc
       0.0054376447 0.041128986 -0.019948713 -0.022200597
000160 7c 08 bc bc 8e 67 ae bc 27 87 a8 ba d2 36 95 bc
       -0.022953264 -0.021289613 -0.0012857661 -0.018214617
000170 ba 9c c2 bc a5 5c f8 bc 41 95 73 bc 13 54 1f bd
       -0.023756374 -0.030317614 -0.014867128 -0.03889854
000180 73 98 26 bd 9c f8 1d 3d f7 d7 1d bd 50 ec 65 bc
       -0.04067273 0.03856717 -0.03853604 -0.014033392
000190 a9 10 56 bc d3 9a ac 3b 5a 89 17 3b 3f 01 9a 3c
       -0.0130654955 0.00526748 0.002312264 0.018799422
0001a0 83 10 66 3c 21 c8 bd bc ed bb b7 b9 61 df 77 bc
       0.014042023 -0.023166718 -0.00035044496 -0.015128941
0001b0 42 0d ea 3b 74 b6 79 bc 89 60 03 bd e6 d1 05 3d
       0.0071426937 -0.015241254 -0.032074485 0.032670878
0001c0 a9 af f7 3c 40 49 2d 3d c3 b5 95 3a 3b c4 25 bd
       0.030235128 0.042306185 0.0011421967 -0.040470343
0001d0 a2 0e 3c bb 5f 53 a6 bc 9d 47 55 3c 5f de bf bc
       -0.0028695245 -0.020303426 0.013017562 -0.023421464
0001e0 ac ea a5 3a d1 48 17 bb ed e8 23 bd 71 75 24 3b
       0.0012658439 -0.0023084173 -0.040017057 0.0025094415
0001f0 15 68 87 3c 26 30 90 bc a8 04 a0 bc f8 28 8e bc
       0.016529122 -0.017601084 -0.01953347 -0.01735352
000200 7a ef 11 bc eb 03 b4 3b 07 80 2f bd f5 83 ff 3c
       -0.008907193 0.005493631 -0.042846706 0.031190852
000210 24 20 e4 3c 47 56 42 bc 27 ae 72 bb a2 00 14 bd
       0.027847357 -0.01186139 -0.0037030072 -0.036133416
000220 41 f0 65 3c 70 2c 2f bc 27 99 65 3b 17 3a 7b bc
       0.014034332 -0.010691747 0.0035033913 -0.015333674
000230 00 93 74 3b 44 af a8 3b 49 03 ed 3c 15 9b 91 3a
       0.0037319064 0.0051478464 0.02893223 0.001110884
000240 a4 63 96 bc dc 4f 51 3c 21 98 2b bb 08 14 b9 3c
       -0.01835806 0.012775388 -0.0026183205 0.02259256
000250 73 13 bb 3b f1 09 97 bb 58 fb 89 bc c6 a0 1e bb
       0.0057091056 -0.0046093394 -0.016843483 -0.0024204715
000260 ca b0 c1 bc e9 e9 7f 3c a7 6f 02 3d f8 12 2d 3d
       -0.02364387 0.015619733 0.03184476 0.042254418
000270 e4 2f c1 bc c9 61 5b bc c5 c3 38 bc 8e 40 16 bd
       -0.023582406 -0.013390013 -0.011277144 -0.036682658
000280 e6 00 d2 ba f7 e7 77 3c 7e 57 8c 3c b3 55 0d bd
       -0.0016021996 0.015130988 0.017131563 -0.034505557
000290 58 aa d2 bc 0f 9e 2f bd 82 07 2b bd 53 18 40 bc
       -0.025715992 -0.042875346 -0.041755207 -0.011724549
0002a0 d9 42 fd 3a 47 d0 bc 3c 75 98 de 3b ff 3b 18 3d
       0.001932229 0.023048533 0.0067930766 0.03716659
0002b0 aa 4e c4 bb 14 65 0e 3a 52 04 1a bd 56 2e 2e bd
       -0.005990823 0.0005431932 -0.037601776 -0.04252466
0002c0 6e 3c 0d bd 49 35 8f bc 61 ec 95 bb 07 91 0d 3d
       -0.03448146 -0.017481463 -0.0045752977 0.034562137
0002d0 56 88 df 3c 43 7d 29 3d 97 89 cc bc 6e 6c 82 bc
       0.02728669 0.041379225 -0.024967952 -0.015920844
0002e0 a8 92 27 3c 6e eb 8a 3c dd d2 d8 bc eb 3d 1f 3d
       0.010227837 0.016957965 -0.026467735 0.03887741
0002f0 3a 49 2b bd 94 59 0d 3d 70 56 55 bc 3a 93 2c bd
       -0.04181788 0.034509256 -0.013021097 -0.042132594
000300 f2 99 f8 bb fd 66 5c bb 1b 03 38 bc 16 a8 03 bc
       -0.007586711 -0.0033630722 -0.011231209 -0.00803568
000310 6c c5 ab bc 96 ef 31 bc bd 16 08 3b e5 8e e7 3a
       -0.020968162 -0.010860344 0.0020765506 0.0017666487
000320 bc c0 03 bd 96 cc 07 bc 64 31 09 bd 45 ea a8 bc
       -0.032166228 -0.008288523 -0.03349437 -0.02061952
000330 a0 d6 b9 3c 54 d7 c6 bb 5f 51 28 bd 12 ad ee bc
       0.022685349 -0.0060681496 -0.041093227 -0.02913526
000340 e4 78 c3 bc 1f 17 33 bc 85 c4 b8 3b 3f 2c 29 bb
       -0.023861356 -0.0109308055 0.0056386613 -0.0025813726
000350 a8 f5 10 bd 01 10 95 3b bf b4 09 bd 7f 53 44 3c
       -0.035390526 0.004549027 -0.03361964 0.011982798
000360 e9 7a 4e bb 1c 36 2b 3d a8 b1 e6 3c c9 82 93 bc
       -0.0031506366 0.04179965 0.028160885 -0.0180067
000370 57 b3 86 3c 68 41 bc bc ff 3a 8d bc 51 14 fe bc
       0.016442938 -0.022980407 -0.017240046 -0.031015547
000380 16 be 5e 3b a6 45 18 bd d8 0f a1 bc 3d e9 9a 3c
       0.0033987812 -0.037175797 -0.019660875 0.018910045
000390 fc c9 1f bd 10 b2 04 bb 6c d2 c9 bc 54 cc 8d 3c
       -0.039010987 -0.0020247735 -0.02463647 0.017309345
0003a0 72 09 a1 bc 4a e7 91 3b e2 e6 89 bb 48 2a d9 bc
       -0.019657824 0.0044526206 -0.0042084316 -0.02650942
0003b0 f0 32 11 bd 6a fd 2c bd 18 28 22 3a 85 28 a3 3b
       -0.03544897 -0.042233862 0.0006185784 0.0049791955
0003c0 24 23 ca 3b be 4b 8d 3b 70 c7 24 3d 7b 66 d1 bc
       0.00616874 0.0043120077 0.04022926 -0.025561562
0003d0 d6 0c 90 bc e2 14 be ba af 4f 70 3c 02 65 77 3b
       -0.017584246 -0.0014502073 0.014667436 0.0037749414
0003e0 62 30 37 3c 27 09 6c bc 54 13 6a bc 69 3d f1 3c
       0.011180969 -0.014406479 -0.014286835 0.029448228
0003f0 0b 9c 8b bc 5b 25 27 bd e3 70 22 3c 9c 0c 43 bc
       -0.01704218 -0.04080711 0.00991461 -0.011904862

hidden1.bias f4 [128]
000000 f8 f0 0c bd e3 8e ea bc dd ff 04 bd 92 69 a6 3c
       -0.034409493 -0.028632587 -0.032470573 0.020314012
000010 ec 9e 15 bd 92 dc f3 3a 0a 16 fa 3c 81 d9 25 bd
       -0.036528513 0.0018605164 0.030528087 -0.04049063
000020 33 4b 68 bc f8 86 81 bc e7 ca 3e 3b c4 4b db 3c
       -0.014178085 -0.015811428 0.0029112638 0.026769526
000030 df 2c 1d 3d 1a 3e ce bb 13 d1 2d bd 50 9e 2a bc
       0.03837287 -0.006294024 -0.042435717 -0.010413721
000040 76 ce 1a 3c cf 4c e2 bc 62 02 f4 bc eb db 0c bd
       0.009448638 -0.027624516 -0.029786292 -0.034389418
000050 65 ff 56 3c ab a9 15 bb 37 47 d4 bc 96 78 45 3c
       0.013122414 -0.0022836726 -0.025912864 0.012052676
000060 73 11 cf bb 55 72 b5 bc bb 79 95 3c 90 e4 da 3b
       -0.006319219 -0.022149244 0.018246522 0.006680079
000070 0a 73 c7 3c 65 37 e8 bc 71 4d 04 3d ee f1 35 3b
       0.024346847 -0.028346727 0.032300416 0.002776261
000080 6f d4 2f 3d 08 cb be bc e3 85 0e 3c 71 14 6f bc
       0.0429272 -0.023290172 0.008698913 -0.014592276
000090 e6 8c 17 bc 67 5b 71 ba e2 40 a3 3c 93 f0 da bc
       -0.009249901 -0.00092070404 0.0199284 -0.026726043
0000a0 66 dc 74 bc 69 ac 8c ba be 4c 9d 3b 35 ca 03 bc
       -0.014945125 -0.0010732535 0.004800408 -0.008043815
0000b0 0d 28 e5 3b e8 b2 db bb 6e 9d 19 3b 57 94 a9 bc
       0.0069933 -0.006704677 0.0023439783 -0.020700617
0000c0 6b bf 24 bb 41 67 16 bd cd 5a 2f bb 48 e7 d2 3c
       -0.0025138508 -0.036719564 -0.0026757002 0.02574505
0000d0 73 07 fe bb 5a d8 d5 bb f0 95 c3 3c 3d 1f 80 3c
       -0.007752353 -0.0065260353 0.023875207 0.015639896
0000e0 33 b7 a7 bc 40 50 c5 b9 ff e9 38 39 eb 09 93 bc
       -0.020473098 -0.0003763456 0.00017634778 -0.017949065
0000f0 70 3d 27 bc eb ad 94 bc c5 70 63 3b 95 b0 14 3d
       -0.010207519 -0.018149337 0.0034704667 0.036301214
000100 39 c2 37 3b a8 13 9a 3b 72 d4 08 3b a1 2b 0e bc
       0.002803935 0.0047020502 0.002087858 -0.008677394
000110 61 d0 3e 3d a3 0e 1e bd d0 dc 7c 3a e2 c5 79 bc
       0.046585444 -0.038588177 0.0009645941 -0.015244933
000120 22 52 10 bd 4a 79 08 bd 72 8e 27 bc ee d7 60 3c
       -0.035234578 -0.033318795 -0.010226833 0.013723357
000130 22 67 9e bc 40 5d b3 bc 56 08 56 bc a1 b0 0c bd
       -0.019336287 -0.021895051 -0.013063511 -0.034348134
000140 72 5b ad bc 5a 20 cf bc d5 2d 76 bc 04 05 af 3b
       -0.021161769 -0.025283981 -0.015025576 0.005341174
000150 d0 0d 58 bc 44 09 1b bd 2a d5 1f 3c 1b e6 91 bc
       -0.013186887 -0.037850633 0.009755412 -0.017809918
000160 86 13 0d 3d 73 ee 9c bc f7 f2 8c bb 3c a1 61 bc
       0.034442447 -0.01915667 -0.0043014246 -0.013771351
000170 e0 03 b6 bc 44 50 3c bc ca 92 e1 3b b8 f2 87 3c
       -0.022218645 -0.011493746 0.0068839537 0.01659523
000180 d2 fa e3 bc 89 c8 9d bc 0d 44 14 3b 1a 5c 40 3c
       -0.027829561 -0.019260662 0.002262357 0.011740709
000190 fc 5d 0d 3c 6b d6 ec bb 67 95 e6 ba 8b d5 cb bb
       0.008628365 -0.007227709 -0.0017592133 -0.0062205247
0001a0 30 c1 2b bc a6 55 75 3c 8a 0c 84 3b 52 c6 23 bd
       -0.010483071 0.014974033 0.004029815 -0.039984055
0001b0 f6 d0 9c bc f7 aa 15 3d 74 8c b2 3a 3b e6 a4 3c
       -0.01914261 0.036539998 0.001362218 0.020129314
0001c0 b2 13 e2 3c 13 05 1c bd b3 2a 11 bd 89 99 41 3c
       0.027597282 -0.038090777 -0.03544111 0.011816391
0001d0 50 0b 3c bd b8 3c 68 bc f4 e2 9a bc ad fd ad 3a
       -0.045909226 -0.014174633 -0.018907048 0.0013274454
0001e0 fe 7f 8e bc 7f ef 8e 3c e8 5b 5d bc 15 86 04 3d
       -0.017395016 0.017448185 -0.013510682 0.032354433
0001f0 fd 21 1e bc ca 02 9a bb cf fc c7 bc 7e 1a 87 ba
       -0.009651658 -0.0047000395 -0.02441254 -0.0010307578

hidden2.weight f4 [34, 128]
000000 2b 43 8a bd 1e f9 39 3d ef 01 46 bd e5 88 28 bd
       -0.067510925 0.045403592 -0.048341688 -0.041146178
000010 57 1e 8d 3c c1 33 80 bd f9 01 70 bc 14 50 55 3d
       0.017226381 -0.06259871 -0.014648908 0.05207832
000020 38 9e 8f bd 0d 14 a1 3d 8f e3 4e bd 9b 44 34 bd
       -0.070126 0.078651525 -0.050509986 -0.04401074
000030 9e 73 a9 3d f1 f3 e9 3c 14 d2 c1 bd 1b 91 d8 bc
       0.08274005 0.028558703 -0.09463897 -0.02643638
000040 b1 4f 73 bd d3 b8 7f 3d 75 b3 46 bd 64 ae 86 3b
       -0.05940217 0.06243212 -0.048510987 0.0041101445
000050 fe cc 35 bd 37 8c eb 3b 14 82 10 bd 1f be ca bc
       -0.04438495 0.007188346 -0.035280302 -0.02474886
000060 c7 27 5c bd a7 37 13 bd f6 7d 84 3c 3b c4 ba bc
       -0.053748872 -0.035941746 0.016173344 -0.022798648
000070 58 9e 54 3d 2f 21 70 bd 86 45 a1 bd 28 31 b2 3c
       0.05190882 -0.058625396 -0.07874589 0.021751955
000080 87 5f 17 3a 42 cf 0c bd 53 d4 61 3d 4a 24 f6 3c
       0.00057744276 -0.034377344 0.05513413 0.0300466
000090 24 f1 30 3d cf 9b 87 bd 88 ea a1 bd 49 ae 4d bd
       0.04319872 -0.06621515 -0.079060614 -0.05021504
0000a0 f1 7b ab 3d 70 aa 7a bc 9c 12 ac 3d 84 c3 46 bd
       0.08373249 -0.0152994245 0.08401987 -0.048526302
0000b0 65 f7 14 3d a2 fa 05 bd bb a8 a3 3c 41 f0 8c bc
       0.036368746 -0.032709725 0.019977918 -0.017204406
0000c0 16 88 19 3d 8c 4f b5 3d 0c 2f 45 bd 2f 49 60 bd
       0.037483297 0.08853063 -0.04814057 -0.054757293
0000d0 ea ad 34 3c 65 98 84 3b 16 b4 19 bd d1 41 9e bc
       0.0110277925 0.004046487 -0.03752526 -0.019318493
0000e0 83 bb b2 3b e5 fb a1 3d cc 24 c6 bc 26 7e 60 3c
       0.005454482 0.07909373 -0.024187468 0.013701951
0000f0 ac cf ee 3c ab 0f 1f 3d 0c 61 89 3d b0 5e b1 3d
       0.02915176 0.0388333 0.06707963 0.08660638
000100 ef 74 58 3d d2 dc 7e bd 8b 5e 6b 3d 27 08 24 3d
       0.05284589 -0.06222231 0.05746321 0.040046837
000110 a7 b7 0c 3d 91 1d 8c bc 9b a2 59 3c 40 01 a3 3d
       0.034354832 -0.017103942 0.013283397 0.07959223
000120 f8 5c 1e bd 88 fb fa 3c 0f ec 3d bd 1c 93 47 ba
       -0.03866288 0.030637518 -0.0463677 -0.00076131686
000130 36 e7 67 bd 67 51 2b 3d ee ce b6 3d af 56 db 3c
       -0.056616984 0.04182568 0.089261875 0.026774732
000140 a5 55 98 bb b5 78 97 3c 49 28 50 bd d2 b6 b9 bd
       -0.0046488815 0.018490175 -0.05081967 -0.09068073
000150 fe 33 bd bc e4 80 2f 3d ec f7 4d bd 30 19 34 bc
       -0.02309608 0.04284753 -0.050285265 -0.010992333
000160 08 79 24 3d a2 a0 22 bd 0d 6a a0 bc df 61 25 3d
       0.040154487 -0.039703973 -0.019581819 0.04037654
000170 0e 5d 4e bb 12 4b cc bc ce e8 1c bd 6e 63 24 3d
       -0.003148857 -0.02493814 -0.038307957 0.040133886
000180 ad 1c a7 bd 55 9d 72 bd 5d c8 a1 3d 49 79 9f 3d
       -0.08159766 -0.059232075 0.078995444 0.07786805
000190 1d 90 26 ba 10 b7 69 3d 41 b9 b0 bd 62 c3 a7 3c
       -0.0006353872 0.057059348 -0.086290844 0.020478908
0001a0 27 6a f0 3c 27 10 a9 3d 67 db db 3c 84 12 58 3d
       0.029347492 0.08255034 0.026838018 0.052752033
0001b0 29 03 6b bd 2d b7 ae 3d 6e 1c 1f 3d cf af 8d bb
       -0.05737606 0.08531032 0.038845472 -0.0043239365
0001c0 34 ce 9b 3d 64 ba f9 bc d2 cb 15 3d 53 b6 84 3d
       0.076076895 -0.030484386 0.03657133 0.06480088
0001d0 62 0a 8b 3d 01 4b 0b bd 24 87 5d bd fe c3 06 3d
       0.0678909 -0.034007076 -0.05408396 0.032901756
0001e0 55 07 c5 bc 4c 8a 9d 3d aa 5f 80 3d 83 49 56 3d
       -0.024051348 0.07692394 0.062682465 0.0523162
0001f0 4b 24 c6 3c c1 45 24 bd cf 1f f6 3c af 28 8b 3d
       0.024187228 -0.040105585 0.030044464 0.06794869
000200 4f c5 ae bc 0c 39 58 bd 9b ec 9b bc b4 cb 11 bc
       -0.021334318 -0.05278878 -0.01903372 -0.008898664
000210 d3 00 1f bd b4 d3 46 bc 36 d5 d3 bb 7b 13 63 3d
       -0.038819145 -0.012135435 -0.0064646257 0.0554385
000220 0b 4f 77 3d 03 da 2e 3d 09 a2 5e 3d e7 7e 33 bd
       0.060378116 0.04268838 0.054353748 -0.043822195
000230 e0 d2 0b 3d b5 a0 60 3d c3 a5 a1 bd 3e 54 83 bd
       0.034136653 0.054840762 -0.07892945 -0.06412552
000240 18 bb 8c 3d 09 bd 72 bd 36 a0 03 3c ed eb 49 3c
       0.06871623 -0.05926231 0.008033803 0.0123243155
000250 31 26 87 bd ec 14 3d 3d 9d 9b 24 bc 07 5a 96 bd
       -0.06599081 0.04616253 -0.010046867 -0.0734139
000260 f4 f0 40 3d 86 24 93 3d 08 61 4b 3c 62 26 55 3c
       0.04710479 0.07184701 0.012413271 0.013009639
000270 78 10 04 bd 2d dd 5c bd 27 4a b5 bd 85 bb 95 3d
       -0.03224227 -0.053921867 -0.08852034 0.07311157
000280 5c 8c 3a bd 2b 52 a6 bd 4c 55 59 3c 87 a2 d1 3d
       -0.045544013 -0.08121141 0.013264965 0.10236078
000290 f1 3e d2 3c 62 11 19 bc 66 8d 86 bd 5c 97 79 3c
       0.025664778 -0.009342523 -0.06569938 0.015233841
0002a0 9a 12 76 bd ff 1f af 3c cb 61 34 3d da 70 87 bd
       -0.060076334 0.021377562 0.044038575 -0.066133216
0002b0 a8 a2 8f 3c 31 d6 3a bc 03 37 bb bc 58 29 0e 3d
       0.017533615 -0.011403606 -0.02285338 0.034707397
0002c0 b8 15 00 bd 35 79 6a 3d 29 fb 48 3d 6f 07 f8 3c
       -0.031270713 0.0572445 0.04906765 0.030276982
0002d0 c9 ad 95 3c cd 0c 8b bd c4 13 a9 bc 95 28 22 3d
       0.018271344 -0.06789551 -0.020639308 0.039589483
0002e0 46 b0 86 bd 23 3e 9b bd d4 49 94 3b 56 08 91 bd
       -0.0657659 -0.07580211 0.0045254026 -0.07081668
0002f0 d7 fa 4d 3d c6 f1 02 3d b7 d5 cb bd d5 2d 0e bb
       0.050288048 0.031968854 -0.09952872 -0.0021694798
000300 76 28 30 3c 4e 9f bc 3c 80 54 99 3c 6b d6 8c bc
       0.010751834 0.023025181 0.01871705 -0.017192086
000310 0f 92 4b bc 88 67 e7 bc ac bb 91 3d 11 77 7c 3c
       -0.01242496 -0.02824761 0.07115874 0.015409247
000320 f7 33 97 3b 61 f3 19 bd 57 ff 40 3d 05 45 2a bd
       0.004614349 -0.03758562 0.04711851 -0.04156973
000330 f8 54 41 bc 88 e4 7e bd 4f 32 96 3d d1 d5 49 3d
       -0.011800043 -0.062229663 0.07333814 0.049276177
000340 84 8f 49 bd e3 90 2e bc 57 7e d5 bc 2e 0c 2e bd
       -0.049209133 -0.010654661 -0.02606122 -0.042492084
000350 65 a6 c8 bd 2a 28 78 bd a8 97 d8 bd 9e 0c d8 bd
       -0.09797362 -0.06058518 -0.10575801 -0.105492815
000360 61 1f fd bc 63 18 26 3d e2 6a 44 bd 5d 6b 1b 3c
       -0.030898752 0.0405506 -0.047953494 0.009486047
000370 5c 14 b3 bd a1 7e 74 3d 83 44 dc bc ea b3 77 3d
       -0.087441176 0.059691075 -0.026888138 0.060474314
000380 e9 6c 1b bd 32 74 ba bd 0c 12 8a bd 76 84 70 3d
       -0.03794566 -0.09104194 -0.067417234 0.058720075
000390 bc 49 61 3d 3a d3 90 3c cb eb 16 3d 2a 80 83 3c
       0.05500196 0.017678846 0.036845963 0.016052324
0003a0 75 64 96 3d 1d 7f a1 bd 7d 5b fb bc ab 0d 99 3a
       0.073433794 -0.07885573 -0.030683273 0.0011677047
0003b0 10 2f 48 bd 04 e1 94 3d 52 7a 9d bd 99 37 ca bc
       -0.048873007 0.07269481 -0.076893464 -0.024684714
0003c0 42 60 26 3d 1a 04 55 bc e8 a4 a9 3c be 30 a9 bd
       0.040619142 -0.013001466 0.020708516 -0.0826125
0003d0 1b 7a 71 3d e9 71 12 3c 9e 15 4c 3d 51 a8 ab bd
       0.05895434 0.008938291 0.049825303 -0.08381713
0003e0 ec 1e 08 3d bf 81 7d 3c 10 9c 19 bd ad 3f c5 3c
       0.033232614 0.015472828 -0.03750235 0.024078215
0003f0 1b 26 90 bd 55 df 77 bd 23 0f 82 bc be 71 ee bc
       -0.07038518 -0.06051572 -0.015876358 -0.02910697

hidden2.bias f4 [34]
000000 bf 56 b0 3c 02 dd 3d 3d 18 23 32 3d a3 d7 d6 bb
       0.021525739 0.046353348 0.0434905 -0.0065564676
000010 0d 25 25 bd 9d c8 bd 3d 62 06 a7 bd 3b 1c 95 bd
       -0.040318538 0.092667796 -0.08155514 -0.07280775
000020 ab 56 42 3d 13 52 30 bd d8 2a 9e 3d 28 a4 44 3d
       0.047445934 -0.043047022 0.077230155 0.048008114
000030 c0 15 86 ba c0 d2 0c bc 55 49 53 3c 05 ba 3e 3d
       -0.0010229871 -0.008595169 0.012895902 0.04656412
000040 b1 a7 b4 bd 59 07 a9 bd f4 47 16 bd b3 ac b2 3c
       -0.08821047 -0.082533546 -0.036689714 0.021810865
000050 db b2 1a bd e3 99 01 bd 2e 7c e9 bb c7 cc ce bd
       -0.037768226 -0.0316409 -0.007125399 -0.10097652
000060 c5 46 99 bd c7 1f b5 3c ab cc bd 3c 7e e1 b7 bd
       -0.07484201 0.02210988 0.023168882 -0.08978556
000070 e3 b7 18 3d 36 a5 b4 bd 8f c3 4c bd 34 6c 9d bd
       0.037284743 -0.08820574 -0.049991187 -0.07686654
000080 3a d4 46 3d 9b 6e cd bd
       0.04854224 -0.10030862
