Model/output_dir/1DCNN_0809_25e-4.pt (torch, 848869 bytes, 6 tensors)

conv.weight f4 [32, 1, 1, 71]
0	0x3e3c139f	0.1836686
1	0x3e540258	0.20704019
2	0x3dc81f9f	0.09771656
3	0x3d6f5c84	0.05843784
4	0xbe45cbe0	-0.19316053
5	0xbdc7f5bd	-0.09763668
6	0x3e09c6b0	0.134547
7	0xbdf856a6	-0.12125902
8	0xbc51f3cc	-0.012814473
9	0x3dadc75b	0.0848529
10	0x3db2b529	0.0872596
11	0xbcae62b5	-0.021287302
12	0xbe57b0b4	-0.210635
13	0x3e6416b1	0.22274281
14	0xbe27628d	-0.16346188
15	0xbdc7b200	-0.09750748
16	0xbdf7ef31	-0.12106169
17	0x3e01b8ca	0.12668148
18	0xbdf588b3	-0.11988964
19	0xbd4645c5	-0.04840638
20	0x3db99755	0.090620674
21	0x3e31556f	0.17317747
22	0x3a2feeea	0.0006711321
23	0x3cf95d11	0.030439885
24	0x3cd48d25	0.02594621
25	0xbdd1fb24	-0.102529794
26	0xbe23ffd8	-0.16015565
27	0x3e1aca4c	0.15116233
28	0xbddace0a	-0.1068383
29	0x3dbb451d	0.09144042
30	0x3d43b0f7	0.04777619
31	0x3dca1e4b	0.09869059
32	0xbd33206f	-0.043732103
33	0xbe3a2962	-0.18179849
34	0xbd8d0e10	-0.06887448
35	0x3c3fd1e1	0.011707754
36	0x3e0a21e7	0.13489495
37	0x3d9f764f	0.077862374
38	0xbcdc99aa	-0.026928741
39	0xbe0239fd	-0.12717433
40	0xbcc27a70	-0.023740023
41	0x3e21a4bd	0.15785499
42	0xbd3ca50d	-0.046055842
43	0xbddae395	-0.10687939
44	0x3c814029	0.015777664
45	0xbe429582	-0.19002345
46	0xbaa39b9e	-0.0012482291
47	0xbc9a2c8b	-0.018820068
48	0x3cdb29ea	0.026753385
49	0xbd992173	-0.07477083
50	0xbdd56e22	-0.10421397
51	0xbe366b18	-0.1781429
52	0x3e461bf2	0.19346598
53	0xbdd5009b	-0.10400506
54	0xbc7e7685	-0.015531187
55	0x3d9b124d	0.0757185
56	0x3c6463e8	0.013939835
57	0x3e25df98	0.16198575
58	0xbe4c52f2	-0.19953516
59	0xbdfdd0b0	-0.123933196
60	0x3e5ff3dd	0.2187037
61	0x3e3a223b	0.1817712
62	0x3e139bb0	0.14414859
63	0x3e2ba3dc	0.16761726
64	0xbdf52fef	-0.11972033
65	0xbb5552df	-0.0032550616
66	0xbe1be440	-0.15223789
67	0x3df807d1	0.12110866
68	0x3d9d27a0	0.076735735
69	0x3d908cf7	0.07058137
70	0x3d8a5f48	0.06756455
71	0x3de964e2	0.11396195
72	0xbc4786eb	-0.012178163
73	0x3dac66df	0.084180586
74	0x3dbbac44	0.091637164
75	0x3e2ad099	0.16681136
76	0x3d21912e	0.039445095
77	0x3c0a31f0	0.008434758
78	0xbdd88033	-0.10571327
79	0xbecce2f4	-0.40016901
80	0x3e98f5bb	0.29874977
81	0x3e03ceb0	0.12871814
82	0x3dbbe3f0	0.09174335
83	0x3e701ef4	0.23449308
84	0xbe3b8ed1	-0.18316199
85	0x3d6638e2	0.05620659
86	0x3db374d0	0.087625146
87	0xbe89b0b4	-0.26892626
88	0x3d9ebcb3	0.07750835
89	0x3a9949bc	0.0011694948
90	0x3e1b1d60	0.15147924
91	0x3dfca756	0.12336604
92	0xbddd3914	-0.108019024
93	0x3d36a818	0.0445939
94	0x3e5050b2	0.20343283
95	0xbdcadc3c	-0.099052876
96	0x3e3c5bef	0.18394445
97	0x3d2bc590	0.041936457
98	0xbe0301c1	-0.12793638
99	0x3d7c47ad	0.061591793
100	0x3e2b55ca	0.16731945
101	0xbd85cffe	-0.06533812
102	0xbd5a35b7	-0.053273883
103	0x3e04e939	0.12979592
104	0xbe92a488	-0.28641152
105	0xbd3b16d5	-0.04567607
106	0x3dc2211a	0.0947897
107	0x3d9cd24f	0.07657301
108	0x3e02c12f	0.12769006
109	0xbe1a49c3	-0.150672
110	0xbd79cbcb	-0.060985368
111	0xbe32e876	-0.1747149
112	0x3d216d8e	0.03941112
113	0x3de5a9b8	0.11214012
114	0x3df05eb5	0.11736814
115	0x3d8592f3	0.06522169
116	0xbe0a61fb	-0.13513939
117	0xbe93bcb6	-0.28854913
118	0xbd1bc51e	-0.038029782
119	0xbdeeaafd	-0.11653707
120	0x3a371154	0.0006983478
121	0x3d54a23a	0.051912524
122	0xbe5b9ddd	-0.21446939
123	0xbe03b009	-0.12860121
124	0x3de4838a	0.111579016
125	0x3e246085	0.16052444
126	0xbe31b562	-0.17354348
127	0x3de9487f	0.11390781
128	0xbe108c07	-0.14115916
129	0x3e1a7cac	0.15086621
130	0xbe051317	-0.12995563
131	0x3e23472e	0.15945122
132	0xbe22a143	-0.15881829
133	0x3ca61ad0	0.020276457
134	0xba17957f	-0.00057824695
135	0xbd6027a2	-0.054725297
136	0x3c8e59c3	0.017376786
137	0xbe5ba0d7	-0.21448074
138	0xbdc55eed	-0.09637246
139	0x3da976af	0.0827459
140	0xbd6c1056	-0.057632767
141	0xbe2c14e4	-0.16804844
142	0x3d6c94e2	0.057759173
143	0x3dae239c	0.08502886
144	0xbd3d9589	-0.046285186
145	0x3dd7eb18	0.105428874
146	0xbe2063c2	-0.15663055
147	0x3e0461dc	0.12927955
148	0xbe118678	-0.14211452
149	0xbde4173f	-0.11137246
150	0x3e6079ab	0.21921413
151	0xbe16294a	-0.14664188
152	0x3d667985	0.056268234
153	0x3c78a8c0	0.015176952
154	0xbe1a31d6	-0.15058073
155	0x3e534087	0.20630084
156	0x3d49ca59	0.04926524
157	0x3d97ef10	0.074186444
158	0xbe4c268e	-0.19936582
159	0xbd825bb7	-0.063651495
160	0x3e1210ef	0.14264272
161	0x3df6a27f	0.120427124
162	0xbde58e0d	-0.11208735
163	0xbe63f7fd	-0.22262569
164	0xbc8593aa	-0.016305763
165	0xbde6c747	-0.11268478
166	0xbe0bd086	-0.13653764
167	0x3da7c5b5	0.081920065
168	0xbd9069fa	-0.070514634
169	0x3d870f60	0.065947294
170	0x3d0fade5	0.035077948
171	0xbe0ac90e	-0.13553259
172	0xbe162576	-0.14662728
173	0xbcde0dde	-0.027106222
174	0x3d98de4f	0.07464277
175	0x3e4c47c1	0.19949247
176	0x3d1d4d36	0.038403712
177	0x3dfc0e53	0.1230742
178	0xbbcf132b	-0.0063194237
179	0x3dadb090	0.08480942
180	0xbd98b7f6	-0.07456963
181	0xbd7793c2	-0.060443647
182	0x3dc54fc0	0.09634352
183	0x3e4b22ee	0.19837543
184	0xbd2c057c	-0.041997418
185	0x3d9b525b	0.075840674
186	0xbe4edfa4	-0.202025
187	0x3d676eb3	0.056502055
188	0x3c45bf90	0.012069598
189	0xbb609016	-0.003426557
190	0xbe282858	-0.1642164
191	0xbc031857	-0.008001409
192	0xbd887cea	-0.066644505
193	0x3dbf3aa3	0.09337356
194	0xbe175cf5	-0.14781554
195	0x3d63f334	0.05565186
196	0xbd4f6fe3	-0.050643813
197	0xbcad04f1	-0.02112052
198	0xbe6b1f14	-0.22961074
199	0xbd4e1760	-0.05031526
200	0x3d4ceb3c	0.050029024
201	0xbe24dc73	-0.1609972
202	0xbde27b24	-0.110586435
203	0x3cbcda47	0.023053301
204	0xbe2cc535	-0.16872104
205	0x3d81b291	0.06332887
206	0x3c99575c	0.018718414
207	0xbcfe70c6	-0.031059634
208	0x3c272ee9	0.010204055
209	0x3c306cb1	0.010768102
210	0x3d7bba75	0.061457116
211	0x3d555cb4	0.05209036
212	0xbd88d206	-0.06680684
213	0x3e096922	0.13419011
214	0x3df10158	0.117678344
215	0xbcdc0e06	-0.026862156
216	0x3e5747f9	0.21023549
217	0xbc1ff594	-0.00976314
218	0xbcceaa77	-0.025227768
219	0xba8a993e	-0.0010574234
220	0x3e58c163	0.21167521
221	0xbcc56ab4	-0.024098732
222	0x3ec7f6d0	0.3905549
223	0xbda74e28	-0.08169204
224	0x3d85ce65	0.06533507
225	0x3e44a8ac	0.19204968
226	0x3d9651bc	0.07339808
227	0x3d60cd65	0.05488338
228	0x3e2c0441	0.16798498
229	0xbe60b441	-0.21943761
230	0x3d67d66a	0.056600966
231	0xbe5aa346	-0.21351346
232	0x3ea460d6	0.3210513
233	0x3d82e890	0.06392014
234	0x3e96b41b	0.29434285
235	0xbd1bb79a	-0.038016893
236	0x3de0472d	0.10951076
237	0xbe87c8bb	-0.26520333
238	0xbab2a2b8	-0.0013628816
239	0xbe45822a	-0.19287935
240	0xbc0451ae	-0.008076115
241	0xbe4f04d0	-0.2021668
242	0xbd4d7a04	-0.05016519
243	0x3da94d20	0.082666636
244	0x3cbc12f0	0.022958249
245	0x3dcc947a	0.09989257
246	0xbdaaf577	-0.083476
247	0x3d2303ea	0.039798655
248	0x3e1eac90	0.15495515
249	0xbdf24b6e	-0.11830793
250	0xbde1f1c0	-0.11032438
251	0xbdd62631	-0.10456503
252	0xbe0b0cae	-0.13579056
253	0xbe381f6e	-0.1798074
254	0x3e18d87a	0.1492633
255	0x3d148cd4	0.036267117

conv.bias f4 [32]
0	0xbdc0b3f5	-0.09409324
1	0x3cf4bbd3	0.029874718
2	0xbdd664fb	-0.10468479
3	0xbe078d15	-0.13237412
4	0x3dc22c8f	0.09481155
5	0xbcc6cb3f	-0.024266837
6	0x3d67063b	0.056402426
7	0xbc73c46c	-0.014878374
8	0xbc470176	-0.012146344
9	0x3dee8daa	0.11648114
10	0xbb31748b	-0.0027077522
11	0x3d537e93	0.051634382
12	0xbd84a235	-0.06476251
13	0xbd387b6b	-0.045039576
14	0x3c91cf78	0.017799124
15	0x3d9eb107	0.07748609
16	0xbd7ab060	-0.06120336
17	0x3c0f6f39	0.008754545
18	0x3df2d9ca	0.11857946
19	0xbdb09417	-0.08621996
20	0xbafc250b	-0.0019237114
21	0xbcd56c49	-0.026052611
22	0x3dc68303	0.09692957
23	0xbcec795a	-0.028866459
24	0x3d6ec91f	0.058297273
25	0xbd47118f	-0.04860073
26	0x3d3a0d90	0.04542309
27	0xbc904711	-0.017612012
28	0xbd4ee525	-0.050511498
29	0x3dab0e31	0.08352316
30	0xbddba121	-0.10724092
31	0x3c4036fb	0.011731858

hidden1.weight f4 [128, 1600]
0	0xbd6299c2	-0.055322416
1	0x3cc4b999	0.024014281
2	0x3dc6c17f	0.09704875
3	0x3d0565d7	0.032567825
4	0x3d0c0867	0.0341877
5	0x3d7cbe87	0.06170514
6	0xbc03d49c	-0.0080462955
7	0x3d3d60c5	0.046234865
8	0xbc875f72	-0.016525004
9	0x3cfa71a6	0.03057177
10	0xbcd0b798	-0.02547817
11	0xbd990751	-0.074720986
12	0xbd4af1b0	-0.049546897
13	0xbd6bbfa4	-0.05755581
14	0x3d28c1b7	0.041200366
15	0xbc73b7ba	-0.014875347
16	0xbc818703	-0.015811449
17	0x3de0bdf8	0.10973734
18	0xbb8f2efd	-0.004369615
19	0x3d79cd5a	0.060986854
20	0x3d730154	0.05932744
21	0xbd8221ba	-0.06354089
22	0x3cd229c3	0.02565468
23	0x3d7b844a	0.061405458
24	0xbd83cbd8	-0.064353645
25	0x3af72f1f	0.0018858648
26	0xbd103cc4	-0.0352142
27	0xbdb11cdc	-0.086480826
28	0x38a6c8c7	7.9528945e-05
29	0xbd91f29a	-0.07126351
30	0x3d8438c4	0.0645614
31	0xbd400449	-0.046879087
32	0x3e0a3151	0.13495375
33	0xbd2c7aab	-0.042109173
34	0xbd28469d	-0.041082967
35	0x3c58da00	0.013235569
36	0xbd48167f	-0.04884958
37	0x3d91b3be	0.07114361
38	0xbd5bb9a3	-0.053643834
39	0xbd517171	-0.051133577
40	0xbc382b3e	-0.0112407785
41	0xbe83f9dd	-0.25776568
42	0xbd20b8e3	-0.03923882
43	0x3a27c5d4	0.0006400023
44	0xbd6d658e	-0.05795818
45	0x3d5f3dd5	0.054502327
46	0x3e22bba1	0.15891887
47	0x3b46481c	0.0030255383
48	0xbdc25dc9	-0.09490544
49	0x3b965b3e	0.0045885136
50	0x3d687732	0.0567543
51	0xbd08d688	-0.033407718
52	0xbdb975da	-0.090556815
53	0x3d061aba	0.032740332
54	0xbd07b183	-0.033128273
55	0xbe49a010	-0.19689965
56	0xbb952641	-0.0045516794
57	0xbd90bf2a	-0.07067712
58	0x3b49249e	0.0030691992
59	0xbcc06be9	-0.023488956
60	0xbd6f5157	-0.05842718
61	0x3d825fe1	0.06365944
62	0x3d8ee798	0.06977767
63	0x3cf6e733	0.030139541
64	0x3b15d084	0.002285988
65	0x3cb2b669	0.021815496
66	0xbd7fa206	-0.062410377
67	0x3d92b0be	0.07162617
68	0x3d7cf840	0.061760187
69	0x3e15a669	0.14614262
70	0x3d460c7d	0.048351754
71	0x3c73162f	0.014836832
72	0x3c8f2c6a	0.017477233
73	0xbd49a5b4	-0.049230292
74	0x3df4ec92	0.11959185
75	0x3c3bdb69	0.011465886
76	0x3da2c9a4	0.07948616
77	0x3cca040b	0.024660131
78	0x3cff195f	0.031140028
79	0x3c1470a5	0.00906006
80	0xbc7fa252	-0.015602665
81	0xbe0a9d45	-0.13536556
82	0xbb067d7b	-0.002052157
83	0x3d4eae4f	0.050459202
84	0xba4e03c5	-0.0007858838
85	0x3c972030	0.018447965
86	0xbd0b3fbb	-0.033996325
87	0x3d9bf397	0.076148205
88	0x3d14f854	0.036369637
89	0xbd525a0d	-0.05135541
90	0x3d077c5d	0.033077586
91	0xbd4cf872	-0.050041623
92	0xbdab8751	-0.08375419
93	0xbdf3d68b	-0.11906155
94	0x3d0e415e	0.034730308
95	0x3e301eaa	0.17199197
96	0x3d4f5dd6	0.0506266
97	0x3d3e1132	0.046403117
98	0x3dce8fc6	0.10086016
99	0xbcec819d	-0.028870398
100	0x3cd6eecc	0.026236914
101	0x3d01d6de	0.031699054
102	0xbd0dee0f	-0.03465086
103	0x3d4136ab	0.047171276
104	0x3c911785	0.01771141
105	0x3d30e59a	0.043187715
106	0xbc08e9d3	-0.008356529
107	0x3d38b8be	0.04509806
108	0xbd1b8a1c	-0.03797351
109	0x3cc5d33e	0.02414858
110	0xbbcaa057	-0.006183665
111	0x3cc2503f	0.023719905
112	0x3d9ab52b	0.07554086
113	0xbcace852	-0.021106873
114	0xbcb8a1c3	-0.022538071
115	0x3d4e97ea	0.050437845
116	0xbd2fab4a	-0.042887963
117	0xbd8b04be	-0.06788014
118	0x3c070d17	0.008242867
119	0xbd16cc37	-0.03681585
120	0x3ba06040	0.0048942864
121	0x3d849c2a	0.064750984
122	0x3cf95f37	0.03044091
123	0x3cfbf6ea	0.030757386
124	0x3d0512ae	0.032488517
125	0xbce70256	-0.028199356
126	0xbd6af9ae	-0.05736702
127	0x3a8ad1b3	0.001059106
128	0x3c031cb1	0.008002446
129	0x3a922d20	0.0011152364
130	0x3bb3e02c	0.00548937
131	0xbcf89c0a	-0.030347843
132	0x3c97f2a5	0.01854832
133	0xbd988b01	-0.07448388
134	0xbd23b509	-0.03996757
135	0x3a97b884	0.0011575376
136	0x3c528464	0.012848947
137	0xbb8523f7	-0.0040631252
138	0xbd8ba300	-0.06818199
139	0x3b921c5f	0.0044589485
140	0x3d0adfb9	0.033904765
141	0x3bedb8a7	0.0072546783
142	0xbb2a181a	-0.0025954307
143	0x3d79f286	0.061022304
144	0x3d97c06c	0.074097484
145	0xbcb574fd	-0.02215051
146	0x3c8520a7	0.016250921
147	0xbd427558	-0.04747519
148	0x3d6a32d7	0.05717739
149	0x3d58d8d3	0.052941155
150	0x3daa8a73	0.08327188
151	0x3cdb0ddf	0.026740013
152	0xbbff3935	-0.007788802
153	0x3dc2eb86	0.09517579
154	0x3ae7b965	0.0017679153
155	0x3c8201a2	0.01586992
156	0x3b75b744	0.0037493268
157	0x3daa0500	0.08301735
158	0xbcbb6b6d	-0.022878373
159	0x3e26de31	0.16295697
160	0xbd6091d3	-0.05482657
161	0xbcd51d14	-0.026014842
162	0x3e08fdf3	0.13378124
163	0xbd87bd21	-0.0662787
164	0xbd99d0cc	-0.07510528
165	0x3ca12760	0.019672096
166	0xbdaa9f9d	-0.08331225
167	0xbd8b54b1	-0.06803263
168	0xbc43070b	-0.011903535
169	0x3dd89d55	0.10576884
170	0xbc4aaa1a	-0.012369657
171	0x3c880cc8	0.016607657
172	0x3d4158c8	0.04720381
173	0xbdb1a752	-0.08674492
174	0x3da3c4b5	0.07996503
175	0x3d445b56	0.047938667
176	0xbdab382e	-0.08360325
177	0x3da49e59	0.08038015
178	0xbc0b786c	-0.0085125975
179	0xbd1fdd85	-0.039029617
180	0xbd813f48	-0.06310898
181	0xbde90dd7	-0.11379593
182	0x3ce852ba	0.02835976
183	0xbb0afd36	-0.0021208054
184	0x3b535ac8	0.0032250155
185	0x3d431d86	0.047635578
186	0xbc221a4f	-0.009893968
187	0x3dab5561	0.08365894
188	0x3d3248dd	0.04352652
189	0x3cab4fa2	0.020911995
190	0x3de73550	0.112894654
191	0xbe312fc9	-0.17303385
192	0xbd8dfa91	-0.069325574
193	0xbad8c1df	-0.001653727
194	0x3ce41e4f	0.027846484
195	0x3d8caa42	0.068684116
196	0x3da9c3c2	0.08289291
197	0xbce4e42c	-0.027940832
198	0xbd6d200a	-0.057891883
199	0xbcb8f181	-0.022576096
200	0x3d1c435a	0.03815017
201	0x3d8d4a84	0.06898978
202	0xbca19b22	-0.019727293
203	0xbc8e8bdd	-0.017400676
204	0x3d96a966	0.07356529
205	0xbc01c1cb	-0.007919739
206	0x3d6864ae	0.05673664
207	0x3dc27d10	0.0949651
208	0x3d1e8d81	0.038709167
209	0x3c7acb69	0.015307286
210	0x3c9d30f6	0.019188385
211	0xbdb1c47a	-0.08680053
212	0x396cc505	0.0002258011
213	0x3a7b8262	0.00095943187
214	0x3d666ab2	0.056254096
215	0x3cc619f9	0.024182307
216	0x3be44137	0.006965782
217	0xbd3c3ebe	-0.045958273
218	0x3d908699	0.070569225
219	0x3cc0f87a	0.023555983
220	0xbe16758c	-0.14693278
221	0xbd36553d	-0.044514883
222	0xbc4c317d	-0.012462971
223	0x3dd18aed	0.10231576
224	0xbd839006	-0.06423955
225	0x3c925e19	0.017867135
226	0x3de7daac	0.11321005
227	0xbca4cd92	-0.020117555
228	0x385c6218	5.2543444e-05
229	0xbcfe4504	-0.031038769
230	0x3d072d03	0.03300191
231	0x3aabd1d8	0.0013108803
232	0x3d5a47df	0.053291198
233	0xbd6a6852	-0.057228394
234	0x3d1d8c43	0.038463842
235	0xbce8d5b8	-0.028422222
236	0xbc530876	-0.012880435
237	0x3d3f2900	0.04666996
238	0x3d7fa0b1	0.062409107
239	0x3d9cd201	0.076572426
240	0x3c2c530b	0.010517846
241	0x3cdb39f5	0.026761035
242	0xbb914e44	-0.004434379
243	0x3c92fa2b	0.017941555
244	0x3dc2d1c5	0.095126666
245	0x3c5be182	0.0134204645
246	0xbe848108	-0.25879693
247	0x3d0d7215	0.034532625
248	0xbcb4445e	-0.022005256
249	0x3d76d23f	0.0602591
250	0xbdad00f5	-0.08447448
251	0xbd65b8f6	-0.056084596
252	0x3d337016	0.043808065
253	0x3d14a29a	0.03628788
254	0x3db43357	0.08798855
255	0x3dbdf2af	0.09274804

hidden1.bias f4 [128]
0	0xbc55f667	-0.013059235
1	0x3bc88049	0.0061188084
2	0xbcafde6b	-0.021468362
3	0xbc9520e8	-0.018204167
4	0xbbd9d4b4	-0.0066476706
5	0x3b3aa07d	0.0028477006
6	0xbc09e8f6	-0.008417359
7	0x3cae3474	0.021265246
8	0x3c2f5109	0.010700473
9	0x39d986f0	0.00041490002
10	0x3b1ebe23	0.0024222217
11	0xbc9fbc4d	-0.019498968
12	0xbc7c2b19	-0.015391135
13	0xbbc6fd68	-0.006072689
14	0xbcf37998	-0.029721066
15	0x3cf537bc	0.029933803
16	0x3cc49fc9	0.024001973
17	0xbdc78c31	-0.09743536
18	0xbc4650ca	-0.012104223
19	0xbd172961	-0.036904696
20	0x3c1a6604	0.0094237365
21	0x3be01fcd	0.0068397284
22	0x3c89f678	0.016841158
23	0x3bcdba97	0.0062783468
24	0x3cb6aea5	0.022300074
25	0xbca78861	-0.020450773
26	0x3ccd2190	0.025040418
27	0x3ce69e13	0.028151548
28	0x3c2059db	0.009787048
29	0xbb3efb3c	-0.0029141447
30	0xbcccf79b	-0.025020411
31	0x3c80d6cc	0.015727423
32	0x3cf097a9	0.029369192
33	0x3baa0328	0.0051883645
34	0x3d03b9ba	0.032159545
35	0x3c69b3a2	0.014264019
36	0x3cd916ac	0.026500069
37	0xbd0e94bf	-0.034809824
38	0xbbd2998a	-0.0064269947
39	0xbae21f32	-0.0017251729
40	0xbbd0f053	-0.006376305
41	0xbca8bc1e	-0.020597514
42	0x394c727f	0.00019497609
43	0xbbf3d3fe	-0.007441043
44	0x3cc80abc	0.024419181
45	0xbd0d6bdf	-0.034526702
46	0xb74a6450	-1.2063494e-05
47	0x3d05453c	0.03253673
48	0xbc08a719	-0.00834062
49	0x3cecf3a9	0.02892478
50	0x3c61b514	0.013776083
51	0x3ce0b8e2	0.027431909
52	0x3c58de3d	0.0132365795
53	0x3b2c09cd	0.002625096
54	0xbd00edc9	-0.03147677
55	0xbca4bef8	-0.020110592
56	0xbd69903c	-0.05702232
57	0xbcc35f1a	-0.023849059
58	0x3b439805	0.002984525
59	0xbcfa5a32	-0.030560587
60	0xbbcd60f9	-0.0062676636
61	0xbb840b76	-0.0040296866
62	0x3ac934d3	0.0015350826
63	0xbd1a54f3	-0.03767867
64	0xbbb8183e	-0.0056181243
65	0xbbf92f19	-0.0076044914
66	0x3ba9aa36	0.0051777614
67	0xbca11ecc	-0.019668005
68	0x3bc28a6e	0.0059369123
69	0xbcd02fed	-0.025413478
70	0xbcff0121	-0.031128468
71	0xbbdc8b31	-0.00673046
72	0x3c09fd18	0.008422159
73	0xbcc41d8e	-0.023939874
74	0x3bb51990	0.005526729
75	0x3c011fb2	0.007881092
76	0xbbfa1fa8	-0.0076331683
77	0xbd26eaff	-0.040751453
78	0xbcd2b13c	-0.025719278
79	0xbcb631bf	-0.022240518
80	0xbdc9db62	-0.09856297
81	0x3cd1b511	0.025599035
82	0xbc925801	-0.01786423
83	0xbc9db77b	-0.01925253
84	0x3c9dde34	0.019270994
85	0xbc553c3e	-0.013014851
86	0x3b88d24b	0.0041754595
87	0x3d0b61fa	0.034028985
88	0x3b820002	0.003967286
89	0xbd1a2363	-0.037631404
90	0x3d2df48b	0.042469542
91	0x3c9efd9a	0.019408036
92	0xbd0e17b7	-0.034690585
93	0xbc416a53	-0.011805135
94	0x3d026ad5	0.031840164
95	0xbb9a65fb	-0.004711864
96	0xbc41a24e	-0.011818482
97	0xbbbfb779	-0.005850729
98	0x3cf6706f	0.03008291
99	0x3ab79dc6	0.0014008812
100	0x3ba1778c	0.004927581
101	0xbc0ff2d0	-0.008785918
102	0xbb6f7e72	-0.0036543873
103	0x3c1fbede	0.009750096
104	0xbc8a4991	-0.016880782
105	0xbd14f1b0	-0.036363304
106	0x3d02ce81	0.03193522
107	0x3d02a204	0.03189279
108	0xbc91f8ce	-0.017818835
109	0x3ce10697	0.027468963
110	0xbc9353f8	-0.017984375
111	0xb9d3ab4a	-0.00040372676
112	0x3bdecd2d	0.006799361
113	0xbcc1fd24	-0.023680277
114	0xbd74a419	-0.05972681
115	0xbb5e90c0	-0.003396079
116	0x3c16422e	0.009171052
117	0x3aa861fd	0.0012846586
118	0xbc944836	-0.01810084
119	0xbc6539d8	-0.013990842
120	0xbb86a0b4	-0.004108513
121	0xbcc58128	-0.024109438
122	0x3c35fe1f	0.0111079505
123	0x3d231b1d	0.03982078
124	0x3b7732ed	0.0037719563
125	0x3c064c14	0.008196849
126	0xbc427e40	-0.011870921
127	0x3c0a87b8	0.008455209

hidden2.weight f4 [34, 128]
0	0xbdfca5d8	-0.1233632
1	0x3c7f8f6e	0.015598161
2	0xbce67e15	-0.028136292
3	0x3df7ddf9	0.12102885
4	0xbdbd24ba	-0.09235521
5	0x3c933ad1	0.017972382
6	0xbd871de8	-0.06597501
7	0xbd9658c1	-0.07341147
8	0xbd82e32a	-0.06390984
9	0xbd615e90	-0.055021822
10	0xbca7fa70	-0.02050516
11	0x3d92fe98	0.07177466
12	0xbd1696ff	-0.036765095
13	0x3b0b3068	0.002123857
14	0xbced5fcb	-0.028976342
15	0x3d97e26d	0.07416234
16	0x3dda341e	0.10654472
17	0x3d0ddc57	0.03463396
18	0x3d88fc26	0.066887185
19	0x3d8219b7	0.06352561
20	0x3d3a9d98	0.04556045
21	0xbd4bcdfd	-0.049756993
22	0x3d955222	0.07291056
23	0xbdf2829e	-0.118413195
24	0x3da024a1	0.078194864
25	0xbd5ffa2c	-0.054681942
26	0x3d4a3bb2	0.049373336
27	0x3e07c0b9	0.13257112
28	0x3ddbf06b	0.107392155
29	0xb88463a8	-6.312813e-05
30	0x3c9e71ec	0.019341432
31	0x3dc24035	0.09484903
32	0xbddabffe	-0.10681151
33	0xbe0d891d	-0.13821836
34	0xbbcd362f	-0.0062625627
35	0x3e19aef4	0.15008146
36	0x3dbdd45a	0.092690185
37	0x3ce1c2c6	0.027558696
38	0xbd050cbf	-0.03248286
39	0xbd238614	-0.03992279
40	0x3d75b324	0.059985295
41	0x3c26df57	0.010185084
42	0xbc239a5c	-0.009985533
43	0x3dae2073	0.08502283
44	0x3c663772	0.014051305
45	0x3d089925	0.033349175
46	0xbdbeba2e	-0.09312855
47	0xbd0bd3a4	-0.034137383
48	0xbd6916b8	-0.056906432
49	0x3e01dbdf	0.1268153
50	0xbd92ba86	-0.07164483
51	0xbcf4a261	-0.029862585
52	0xbc506127	-0.012718475
53	0xbd459ca4	-0.048245087
54	0xbd557399	-0.052112196
55	0x3d6755e4	0.056478396
56	0xbd7a6e2d	-0.061140228
57	0xbcc29938	-0.023754701
58	0xbc0eab68	-0.008707859
59	0x3b9e64c1	0.004833788
60	0xbd8fdfa8	-0.07025081
61	0xbd3625d9	-0.044469688
62	0x3d2c5a9f	0.04207861
63	0xbc2aae06	-0.010417467
64	0x3d7531e2	0.059862025
65	0x3e05bf32	0.13061216
66	0xbcd7d7cc	-0.026348017
67	0xbd3d29bc	-0.04618238
68	0xbd90698a	-0.0705138
69	0x3beddbd9	0.007258874
70	0x3d7ae031	0.06124896
71	0x3dd216b7	0.10258239
72	0x3d4068ba	0.046974875
73	0xbd1277d7	-0.03575882
74	0xbdb7a05f	-0.08966135
75	0x3c628973	0.013826716
76	0xbd37e573	-0.044896554
77	0xbc93cde0	-0.018042505
78	0x3d214247	0.039369848
79	0x39987b81	0.00029083717
80	0xbe24afbf	-0.16082667
81	0xbd57e09b	-0.052704435
82	0xbdc8e389	-0.09809024
83	0xbd0addea	-0.03390304
84	0x3e0149f4	0.12625867
85	0xbd5192c7	-0.05116537
86	0x3dae068a	0.08497341
87	0x3e08fad8	0.1337694
88	0xbbec3a5b	-0.007209105
89	0xbd10a8db	-0.035317283
90	0x3dc4fbeb	0.09618362
91	0xbcd54e3e	-0.026038285
92	0x3d832fef	0.06405627
93	0xbd0df7f8	-0.03466031
94	0x3da11804	0.07865909
95	0x3d91de37	0.07122462
96	0x3de0d14d	0.10977421
97	0x3d36c214	0.04461868
98	0xbd15fc04	-0.036617294
99	0xbdc178e3	-0.094468854
100	0xbdfaec69	-0.12252123
101	0xbd0c925e	-0.034319274
102	0xbdd838b7	-0.105576925
103	0x3d92b18f	0.07162773
104	0xbd8f0387	-0.06983095
105	0xbcbc0547	-0.022951735
106	0x3cfaf51b	0.030634454
107	0x3d0d19a2	0.034448273
108	0xbcb73ce0	-0.022367895
109	0xbd509886	-0.050926708
110	0x3db45bdb	0.088065825
111	0x3c6aae42	0.014323773
112	0xbd34199a	-0.043969728
113	0x3c9d1a44	0.019177563
114	0x3d6d3cd5	0.057919342
115	0xbe158493	-0.14601354
116	0x3d20270f	0.03909975
117	0xbdc021a0	-0.093814135
118	0xbcace36d	-0.021104539
119	0x3dc748c3	0.09730675
120	0x3dd1f5e7	0.1025198
121	0xbd8221a3	-0.06354072
122	0x3d67de50	0.056608498
123	0x3dafd48c	0.08585462
124	0x3de476a6	0.11155443
125	0x3c9a0db3	0.01880536
126	0x3e18d6d8	0.14925706
127	0xbd57e7d7	-0.052711334
128	0x3e32f505	0.1747628
129	0xbd225e75	-0.039640862
130	0x3db25301	0.08707238
131	0xbc2bb2e1	-0.01047966
132	0x3dc1c3aa	0.09461148
133	0xbd41b20f	-0.04728895
134	0xbb022250	-0.0019856878
135	0x3d3f4515	0.04669674
136	0x3dd5f37d	0.10446832
137	0x3d32fc0e	0.04369741
138	0xbd95900f	-0.073028676
139	0xbd141f0b	-0.036162417
140	0xbbe05222	-0.0068457285
141	0x3d075630	0.03304118
142	0x3d572314	0.052523687
143	0x3dc71d7d	0.09722421
144	0x3df9c260	0.12195277
145	0xbd88cee7	-0.066800885
146	0xbd09bc77	-0.033627
147	0x3d783a97	0.06060275
148	0xbc537fd0	-0.012908891
149	0x3c3c48f7	0.011492006
150	0xbe4f39d9	-0.20236911
151	0xbe14de35	-0.1453789
152	0xbcc9d530	-0.024637789
153	0xbd44e194	-0.04806669
154	0x3d57e28c	0.052706286
155	0xbc840dfc	-0.01611995
156	0x3db4c0bb	0.08825823
157	0xbcfd578b	-0.030925533
158	0x3c6659f2	0.014059531
159	0xbe008873	-0.12552051
160	0xbd84659b	-0.06464692
161	0x39b9b76e	0.00035422615
162	0xbe4bfdfe	-0.19921109
163	0xbe208e0b	-0.15679185
164	0xbdd54a7e	-0.10414599
165	0x3d8e4ce0	0.069482565
166	0xbd833b35	-0.06407777
167	0xbcc3485b	-0.023838213
168	0x3b2452ff	0.0025073884
169	0xbc6155e5	-0.013753389
170	0x3c9cbc8d	0.019132877
171	0x3d2bd156	0.041947685
172	0x3c823cec	0.01589819
173	0x3d368bd7	0.044566955
174	0xbd16fd27	-0.03686252
175	0xbdef8c43	-0.11696675
176	0xbd396bba	-0.04526875
177	0x3d62ca54	0.055368736
178	0xbd8fd635	-0.070232786
179	0x3e0621ae	0.13098785
180	0x3d965e3f	0.07342195
181	0xbdccf3f5	-0.100074686
182	0xbbd16e5c	-0.0063913297
183	0xbce5245f	-0.027971445
184	0x3c58b7b6	0.013227394
185	0x3dff13da	0.12454958
186	0xbd470627	-0.04858985
187	0xbd429f68	-0.047515303
188	0x3bb6dca0	0.0055805
189	0xbcbc8f43	-0.023017531
190	0x3d8262fd	0.06366537
191	0xbd1ae6d2	-0.037817784
192	0x3becbc68	0.007224608
193	0x3e187aeb	0.1489064
194	0x3d5bf84b	0.053703588
195	0xbcd7239d	-0.026262099
196	0xbd3329a8	-0.0437409
197	0x3c9aff85	0.01892067
198	0xbc841a89	-0.016125934
199	0x3d65eb35	0.056132514
200	0xbca2261d	-0.019793564
201	0xbd7299e0	-0.059228778
202	0x3da7cec8	0.08193737
203	0x3d93821c	0.07202551
204	0x3e379e6f	0.17931531
205	0xbd79109f	-0.060806867
206	0xbd6e6413	-0.058200907
207	0xbd4a89df	-0.04944789
208	0xbd8ea4fc	-0.06965062
209	0x3b890afe	0.0041822186
210	0x3d8cd711	0.06876958
211	0x3dbca689	0.092114516
212	0xb8855558	-6.357831e-05
213	0x3e136e83	0.14397626
214	0x3de4d98e	0.11174308
215	0x3c3ff550	0.011716202
216	0x3e005366	0.12531814
217	0xbcbd63e3	-0.023118919
218	0xbd0de52e	-0.03464239
219	0x3bd90988	0.0066234507
220	0x3d79f829	0.06102768
221	0xbcd0d7f2	-0.025493596
222	0xbdede48d	-0.11615858
223	0x3c61fb65	0.013792847
224	0x3da3ddd4	0.08001295
225	0x3d28cc0a	0.04121021
226	0xbbc49505	-0.00599921
227	0xbd86ef4b	-0.0658861
228	0x3e137af6	0.14402375
229	0x3e76b378	0.240919
230	0xbe1e008e	-0.15429899
231	0x3bdb27f3	0.006688112
232	0xbd406590	-0.046971858
233	0x3c962c5f	0.018331705
234	0x3ce3e3be	0.027818557
235	0x3cee227f	0.029069183
236	0x3d411048	0.047134668
237	0xbd58cd0a	-0.052929915
238	0x3d6b1b1c	0.0573989
239	0xbca91203	-0.020638471
240	0x3dd29a80	0.10283375
241	0x3d3546fe	0.044257157
242	0xbd9c4e74	-0.07632151
243	0x3d2070e3	0.039170157
244	0xbe975577	-0.29557392
245	0xbce3a446	-0.027788293
246	0x3df4d106	0.119539306
247	0x3c27ec76	0.010249248
248	0x3d239995	0.03994139
249	0xbca23736	-0.019801717
250	0x3ca70b93	0.020391261
251	0x3dd5ab2c	0.10433039
252	0xbe1519b7	-0.1456059
253	0xbd79392f	-0.06084555
254	0x3b0087d8	0.001961222
255	0x3cc74f21	0.024329724

hidden2.bias f4 [34]
0	0x3d566adf	0.052348014
1	0x3d57f57a	0.05272434
2	0xbcaf3394	-0.021386899
3	0x3c4aab8a	0.01237
4	0x3d53a443	0.051670324
5	0x3d674fd9	0.056472633
6	0x3d8fdab5	0.07024137
7	0x3ca3bc14	0.019987144
8	0x3d7d3848	0.061821252
9	0x3d48d64b	0.04903249
10	0xbbc3ce2d	-0.005975506
11	0xbcae0b93	-0.021245753
12	0xbc96b7c8	-0.01839818
13	0x3ce46bf5	0.02788351
14	0xbd80226a	-0.06256564
15	0x3d991b85	0.07475952
16	0x3d46dce8	0.048550516
17	0xbd0dce45	-0.034620542
18	0xbdb839f5	-0.089954294
19	0xbd0a2fdf	-0.03373706
20	0x3ccf6b8c	0.025319837
21	0xbd80db29	-0.062918015
22	0xbdd09f9c	-0.10186693
23	0xbd84ff82	-0.06494047
24	0x3d0e4fc2	0.03474403
25	0x3d1c85b5	0.03821345
26	0xbd2a9444	-0.041645303
27	0x3d806245	0.062687434
28	0xbcbc8599	-0.023012923
29	0x3cabdefd	0.020980353
30	0xbd267b53	-0.040644955
31	0xbddb98ce	-0.107225046
32	0xbcfc440b	-0.030794164
33	0xbdc2b3e5	-0.095069684
