Model/output_dir/1DCNN_0809_16e-4.pt (torch, 848869 bytes, 6 tensors)

conv.weight f4 [32, 1, 1, 71]
00000000: 9489 49be a058 c13a 34b3 f8bd f48e cfbc
00000010: a60a 44bd 7a72 a5bd 32b6 4cbc 464f 5c3e
00000020: a9b9 74be 1da0 6c3e ea76 f73c 5ef4 90bc
00000030: fe12 b53b 339a 243e 54db e7bd f71f 59bc
00000040: 7802 343d 02f4 a23d 4a12 0e3e eed7 5abd
00000050: 7926 bdbd 9bf5 27bc c8ef 17be 8579 69be
00000060: 7392 093e 7a95 58bd 1f48 0bbd e030 193c
00000070: 4c7a 213e 30e8 c53d 7952 e43d 83fd 033d
00000080: c7da 9dbe 95b3 2c3c becd 81bd d81a 973d
00000090: 6af8 27be b664 9cbd f5b2 c33d be9f efbb
000000a0: ebfa 9cbc 3144 a03e 15d1 923c 7859 cdbd
000000b0: 194e 593d 6bb1 003e 643f 3e3c b00e e33d
000000c0: beaf 173e d7ad 01be c874 60bd c9ab 5d3d
000000d0: ee00 e8bc c276 fabb f799 2e3d 1b29 773e
000000e0: 8aa2 b53c 29ea 3cbe 65da 623e 18c3 a63d
000000f0: 9062 2dbe 99b4 31be 4900 d7bd 166c 713c
00000100: 13aa 233d 85d8 6e3d e08b e5bd 11dd cebd
00000110: 4fe3 c3bd e0b6 8f3d 1cf5 96bb c87f 473d
00000120: e386 0dbd df3a 0c3e 1270 96bb 0aa0 f6bd
00000130: 0260 0fbe 97c4 babc 6636 d43c 07aa 3dbe
00000140: 390d 9cbe 2cdd 133e 591f a13d 011c e53c
00000150: 9794 2b3e 9bad 19be 0ba1 913d 7a37 7abd
00000160: f153 0bbe 2e8f 99be fcfa 8abe 4454 00be
00000170: e263 3cbe 74f3 47be 77ec 803d faf1 f83b
00000180: 6fd9 6a3d 0849 a8bd 755e 28be 0587 1b3e
00000190: d257 2cbe e3ed f43d de78 bf3d 5978 c83d
000001a0: cf6f 203e 42aa 4ebd ae82 313e ed80 33be
000001b0: 1157 2e3d 55ad 50bd dfa6 ed3c 906e e03c
000001c0: becd 9e3c 4503 4d3e 5c5e d83d 0c82 0bbd
000001d0: 79b2 0c3e 0297 9dbe 835f 373e d8b8 c13d
000001e0: 03bc 9ebd b6d8 00be a7d6 cf3d 50a8 02be
000001f0: c4ce aebd 6f38 d0bd 7e98 6a3e 20bd 173b
00000200: f8ce 3b3e 7d02 59bd 3045 f4bd 8374 543d
00000210: ef0c 4abe fc40 f5bc 09e1 f53d 2fee d13d
00000220: 93e8 4bbc 8972 683d 3abd 17bd fd97 133e
00000230: 6d2e caba 7c23 f93d 7be0 aa3c 935b 27be
00000240: 32b6 dbbd 30f2 2e3e 8ba2 913d 54dd cc3d
00000250: 6e52 7a3c 910a f9bd 2241 dbbd 5926 cfbd
00000260: 8917 91bd e826 7bbc 0e54 27be 729e 2e3d
00000270: 08f8 b73d 2708 6fbe 1dc7 f8bb 402b 523d
00000280: fdd6 6d3e f7ee 17be 2b9d 043e 6c14 983e
00000290: 60c3 f83d e748 51be e59d 4e3e f5a5 583e
000002a0: 7926 97bd 3bc4 b93d fa9d 07be a855 f0bd
000002b0: f9ae fbbd 227f cebd 643a 8f3d 1f55 763e
000002c0: 9708 f7bb b885 303c aea5 7b3d f381 a13c
000002d0: ebb3 8bbd 5875 373e cc33 9dbd 7a69 413e
000002e0: 3c17 e7bd de23 a6bc 0cbd 1fbd aaab 4d3d
000002f0: 214c 10be d765 1dbe 2023 273c 45dd 06be
00000300: e2ed c53d 3f4b b5bd 1f17 0f3e 89ee 2ebe
00000310: 4cfa 4b3e 8214 223e 3774 a03c 19c2 1c3e
00000320: 0308 10bd 5bfb 25be 9b02 76be 1c95 95bd
00000330: 886a 423d a74e 713e 82b1 893d 5c9c cabd
00000340: 11a9 633e 2c89 ffbd 6ace 013e b128 27be
00000350: 7741 5fbd b0db 80bd bc70 383d 03b4 273e
00000360: bea2 8b3e 95e3 86bd 2ad5 893d c1fb c5bd
00000370: ad62 c13d ffce 7a3e 4c97 823c 8e06 dbbc
00000380: f38e 0dbe cb8f 253e 8def 80bd dd52 44be
00000390: 1a76 3c3e 4285 15be c520 753c 12fb 71bd
000003a0: 0ae0 243e d106 44be ac16 503e eeab 6ebe
000003b0: 2327 d73c 5e67 44be cde3 4bbe e99d 2fbe
000003c0: b781 87be 3df1 1dbe 947a cdbb 2036 a33d
000003d0: 5a9c fb3d 3734 5e3e 0a44 eebd 2a49 f43c
000003e0: 75d2 b73d e474 28be 40e3 00bd 16f6 3fbe
000003f0: d39e 623d 1e19 dcbd dda6 c3bd 3a39 a2bc
-0.19681388 0.0014751144 -0.12143555 -0.02533672 -0.047861718 -0.08078475 -0.012494611 0.21514615
-0.23898949 0.23107953 0.03020807 -0.017694648 0.0055259457 0.16074447 -0.113211304 -0.01325225
0.043947667 0.07956697 0.13874164 -0.053428583 -0.09235854 -0.010251428 -0.14837563 -0.22800262
0.13434772 -0.052876927 -0.034004327 0.009350032 0.15769309 0.09663427 0.11148543 0.03222419
-0.30830976 0.010540863 -0.0633807 0.07378167 -0.16403356 -0.076363966 0.09555618 -0.007312744
-0.019162616 0.31302026 0.017921964 -0.100268304 0.053052995 0.1256768 0.011611793 0.11086786
0.14813134 -0.12663971 -0.05479887 0.054118905 -0.028320756 -0.0076435516 0.0426273 0.24136774
0.022172231 -0.184487 0.22153623 0.0814268 -0.1693213 -0.17354049 -0.10498101 0.014735242
0.039957117 0.058311958 -0.1120832 -0.10100759 -0.0956484 0.070173025 -0.004606856 0.048705846
-0.034552466 0.13694333 -0.0045909965 -0.12042244 -0.14001468 -0.02279882 0.025904845 -0.18521892
-0.30478838 0.14439839 0.07867307 0.027967455 0.16755901 -0.15007631 0.07110795 -0.061088063
-0.1360624 -0.2999205 -0.2714461 -0.12532145 -0.18397477 -0.19526464 0.06295102 0.007597205
0.057336267 -0.082170546 -0.16442282 0.15188225 -0.16830376 0.11959436 0.093492255 0.097885795
0.15667652 -0.05045534 0.17335007 -0.1752965 0.0425635 -0.050946552 0.029010234 0.02739647
0.019385215 0.20020778 0.105648726 -0.03405957 0.13739957 -0.30779272 0.17907529 0.09459084
-0.07750704 -0.12582669 0.101483636 -0.12759519 -0.08535531 -0.10167014 0.22909734 0.0023153499
0.18340671 -0.05298089 -0.11927259 0.051868927 -0.19731496 -0.029938214 0.12005813 0.10250508
-0.012445587 0.056749854 -0.037045695 0.14413448 -0.0015425213 0.12164971 0.020858994 -0.16343527
-0.107281104 0.17084575 0.07111081 0.100031525 0.015278442 -0.121602185 -0.107057825 -0.10114736
-0.07084567 -0.0153291 -0.16340658 0.042631574 0.08982855 -0.23342954 -0.0075920955 0.051310778
0.23226543 -0.14837252 0.1295058 0.2970308 0.1214664 -0.20437966 0.2017742 0.21157058
-0.07380385 0.09070631 -0.13243857 -0.11735088 -0.12289233 -0.100828424 0.06993559 0.24055909
-0.007538866 0.010774069 0.0614373 0.019715285 -0.06821426 0.17915857 -0.07675895 0.18887892
-0.112837285 -0.020280775 -0.03899865 0.05021254 -0.14091541 -0.1537088 0.010201246 -0.13170345
0.09664513 -0.08852243 0.13973664 -0.17083181 0.199197 0.15828136 0.019586666 0.15308417
-0.03516389 -0.16209166 -0.24024431 -0.07303831 0.047464877 0.2356516 0.0672331 -0.098931044
0.22232462 -0.12477335 0.12676397 -0.16324116 -0.05450579 -0.06291902 0.045029387 0.16377263
0.272726 -0.065863766 0.06730111 -0.09667159 0.09442649 0.24493025 0.015941285 -0.026736524
-0.13824062 0.16168134 -0.06295691 -0.19172235 0.18404427 -0.14601615 0.014961426 -0.05907733
0.16101089 -0.19143225 0.20321149 -0.23307773 0.026263779 -0.19180056 -0.19911118 -0.17150082
-0.26466152 -0.15424056 -0.006270716 0.07969308 0.12285681 0.21699606 -0.11634071 0.029820044
0.08975688 -0.1645084 -0.031466722 -0.18746218 0.055327248 -0.10746978 -0.09553311 -0.019802678

conv.bias f4 [32]
00000000: 8fde 2b3d 69cc ac3d 061c b43c f4a8 b9bd
00000010: a000 a9bd 253b 8c3d 2ecc 7cbd fb10 c2bc
00000020: 9c9a 743d 9d7d 223c d7c9 653d 3760 403d
00000030: 3aac db3d 662d b0bc 3500 833d 04cb de3d
00000040: a76c 873d 07da 6d3d 0863 6a3d 1a2c ecbd
00000050: dddf a5bd ce94 8a3d 0f40 5ebd b6fd 9c3d
00000060: add8 0e3e b4e9 43bd 0014 61bd ec94 39bb
00000070: 4c55 8b3d 222c be3d c3f7 723d 4300 4bbc
0.041960295 0.08437426 0.021986019 -0.090654284 -0.08252072 0.068472184 -0.06171816 -0.023689738
0.05971776 0.009917644 0.056100693 0.046966758 0.10726209 -0.021506023 0.06396524 0.10878566
0.06612521 0.058069255 0.05722335 -0.11531849 -0.08099339 0.067666635 -0.05426031 0.07665579
0.13949843 -0.0478303 -0.054950714 -0.0028317524 0.068033785 0.092857614 0.059318315 -0.012390199

hidden1.weight f4 [128, 1600]
00000000: 2018 a8bc b72c d4bc c58e f23b 4da7 96bc
00000010: cd38 aa3c 4c3f 5a3d 06dd 3cbc d72b c83c
00000020: d3da 843b 0c67 acbb 801f 4bbd f787 bb3c
00000030: 8bad 0fbd 7170 563b c946 673d 86be bfbd
00000040: 09b5 cf3c b0d5 ddbb a085 d03d a427 c5bc
00000050: bb58 2a3d 8bd8 1abe 4b6f c63d a9f5 3b3e
00000060: b12b 723d 75ee 59bd 03ab 393c d70f cfbc
00000070: 3911 47bd a076 9fbc 5497 8dbc 797f 9bbc
00000080: a4eb 30ba e5e9 cc3b a6a7 ae3d 45ba 093e
00000090: 846b 7d3c 7935 bdbb d6c6 3d3d f127 af3d
000000a0: 5a20 213c 4402 67bd f587 d2bd 5ad1 4a3c
000000b0: 97bb 023d 2232 ce3c 36c4 46bd 3567 55bd
000000c0: e53d 1a3d 3d48 ae3d a518 e4bc 1d33 b9bb
000000d0: 65cb 9dbd 3a24 693d fe5f 813c 08c8 1f3d
000000e0: c39c 13bd 3ec3 223d 7dad fb3c a7e2 51bc
000000f0: a805 583d 8458 b0bd 16c4 f33b db2b d63b
00000100: 672a d9bd 36cd 84bd 6bee 11bd 74e1 c73a
00000110: f03f fcbd 403c 023e 21d5 a5bd b809 dcbb
00000120: 9c28 6b3d 6e37 963c 01d6 e9bc ec67 3d3d
00000130: 4ef2 073c 6cf4 25bd a6e1 7e3c 4e19 733c
00000140: 2cd8 933c 93f9 753d a159 ecbc 80d2 d43c
00000150: e08b 453c 786a bdbc 4fea 043c 2cb1 6c3d
00000160: 81ad ad3c 376f c13c d83c 1ebd 7e34 a7bc
00000170: 1e75 f8bc 9841 423c 2cff 2b3e f2d1 633d
00000180: 88cb 48bd d65b 503c cb8b 1bbc c45f a9bd
00000190: 8ce6 23be e348 6abd 626c 8fbd d125 15bd
000001a0: a41c b1bd 6b79 3b3d e64b 823c 727d af3b
000001b0: 133f d03b a4a9 8b3b 324d 2a3d 80f6 9a3d
000001c0: e016 2cbd 8fbb adbd b90c fe3d 47d3 04bd
000001d0: a6aa 1e3d 58e6 f03c 2029 f6bd 2524 fbbc
000001e0: 15ba 123e f9d8 aa3c a142 a73c 3f8f 973d
000001f0: 66e6 3b3d 5beb ae3d 168f 393b fea9 a83d
00000200: 3e94 0b3e 5915 26bd 1956 903b b644 d5bd
00000210: feae 923d 05cb 33bc 752d 0ebd 1627 acbb
00000220: 580c 743c 9044 12bc 6ca4 403b c9f3 4f3d
00000230: f6fc e03c 3fa4 0d3d 8d5a 68bc 81b8 c83d
00000240: d042 c53c 42c0 e03c b7c9 09bc ac96 ebbc
00000250: 104f 783e eec8 8d3d e66f 6e3d a91d 5e3c
00000260: e0f5 4abc cd3e b8bb bdb2 9ebc 6112 b23b
00000270: a33e 983c b10d 60bd ec4a 333b 5e02 75bd
00000280: cbdd 8d3b 3956 71bd 29e0 283d 628d 013e
00000290: b00d 813d 128e 203c 2774 ad3d 8d7c ca3d
000002a0: 7c20 b53d e5ca aaba 1d0f 29bd daa8 be3c
000002b0: 0788 2abc 79f9 18bd 1089 923b ecee 3abc
000002c0: d19b c9bc 37b5 fdbb b7c6 873d fa28 893d
000002d0: 994c d1bc 2891 773d 319d a0bd 5027 4abc
000002e0: c350 153d 777f 733d ad82 073d 5882 00be
000002f0: bb99 fe3c 2e01 0f3c 0cc3 dfbc ca82 ca3b
00000300: 7488 413c 1b7b 553d 8270 29bc d821 40bd
00000310: fcd3 fe3b 64c1 9b3d a628 e0bc f6e4 fbbc
00000320: 4945 503d ae83 a1bd a232 f2bc 93b3 9b3c
00000330: d6db 40bd 8386 2abc 43ec 7c3d 8679 96bd
00000340: 3cd9 073d 8e83 c8bd 169d b53d 838c 0dbd
00000350: af25 1b3d 7ab3 0f3d d71e fa3d d48c 93ba
00000360: b773 513d 6dcb 6d3c 1ae8 ed3a c766 88bc
00000370: 8953 473d d501 a53b fd1a 6ebc 14a4 d63a
00000380: cca3 17bc 8407 31bd c052 703d 4d0a b8bd
00000390: c178 bebc 92f9 84bc 1793 933d 5266 2b3d
000003a0: 55c0 39bd 6dab 95bd d9ff 9cbd df96 ec3c
000003b0: 45fe 89bc 8bcc d13b 1ecf 14bd 0bae 753c
000003c0: 3bc1 f2bc 8e7f 813d face 1b3d c9b3 573c
000003d0: 57f5 2e3c 8019 90bd 4e2a 17bb ec32 ff3d
000003e0: c5c1 923c 01f3 e5bb 7d83 113d 3436 f93d
000003f0: 522c 053c 940e 183d 69fd 9cbc 9b9d 743d
-0.020519316 -0.025900228 0.0074022734 -0.018390322 0.020779038 0.05328302 -0.0115273055 0.024434967
0.004054406 -0.0052613076 -0.049590588 0.022891982 -0.035077613 0.003272083 0.05646399 -0.09362511
0.025354879 -0.0067698583 0.10181737 -0.024066754 0.041588526 -0.15121667 0.09689196 0.1835543
0.0591237 -0.053205926 0.011332276 -0.025276108 -0.04860041 -0.019465744 -0.017284073 -0.018981682
-0.00067489804 0.0062534683 0.0852807 0.13449962 0.015467528 -0.0057741967 0.046332203 0.0855254
0.009834373 -0.056398645 -0.10279838 0.012379015 0.03191718 0.02517039 -0.048526965 -0.05210038
0.037656683 0.08509872 -0.027843783 -0.005651845 -0.0770481 0.056919314 0.015792843 0.039009124
-0.03603817 0.03973698 0.030722374 -0.012810386 0.05273977 -0.08610633 0.0074391467 0.0065359897
-0.10603791 -0.064844534 -0.035627764 0.0015249685 -0.123168826 0.12718296 -0.08097292 -0.0067150258
0.057411775 0.018336978 -0.028544428 0.046241686 0.008297516 -0.040516302 0.0155567285 0.014837576
0.018047415 0.060052466 -0.028851332 0.02597928 0.012057275 -0.023122057 0.008112504 0.05778615
0.021200897 0.023612602 -0.038632244 -0.020410772 -0.030329283 0.011856459 0.16796559 0.05562014
-0.049022228 0.012717208 -0.009493778 -0.08270219 -0.16005915 -0.057198416 -0.07003094 -0.036413018
-0.08648041 0.04577009 0.015905332 0.0053555304 0.0063551753 0.004262166 0.041577525 0.075665474
-0.042014003 -0.084830396 0.124047704 -0.032428052 0.03873696 0.029406711 -0.12019563 -0.030656883
0.14328797 0.020855414 0.020417513 0.07400369 0.045874022 0.08540984 0.0028314046 0.082355484
0.13630769 -0.040547702 0.004404795 -0.10413496 0.07162283 -0.010973697 -0.03471132 -0.005253683
0.014895521 -0.008927479 0.0029394878 0.0507696 0.027464371 0.034580465 -0.014181745 0.09800816
0.02407971 0.027435426 -0.008409909 -0.02875837 0.2424891 0.0692309 0.058212183 0.013556876
-0.012387723 -0.005622721 -0.019372338 0.00543432 0.018584555 -0.054700557 0.002735789 -0.05981671
0.0043294183 -0.05892012 0.0412294 0.1265159 0.06301439 0.009799497 0.0846942 0.098870374
0.088440865 -0.0013030438 -0.04127418 0.023273874 -0.010408408 -0.03734729 0.0044719055 -0.0114095025
-0.024610432 -0.0077425498 0.06629699 0.06697269 -0.02554922 0.060441166 -0.07842482 -0.012338474
0.036453974 0.05944773 0.033083607 -0.12549722 0.031079164 0.008728309 -0.027314685 0.006180142
0.011812318 0.052119356 -0.010341765 -0.046907276 0.0077767354 0.07605246 -0.027363133 -0.030748826
0.050847325 -0.07886444 -0.02956516 0.019006526 -0.047084652 -0.010408047 0.061748754 -0.073473975
0.033166155 -0.09790717 0.088678524 -0.03455783 0.037877735 0.03508327 0.122129135 -0.001125718
0.051135745 0.0145138325 0.0018150837 -0.01665057 0.04866365 0.005035619 -0.014532802 0.0016375803
-0.009255361 -0.043220058 0.058672667 -0.0898634 -0.02325094 -0.016232286 0.072057895 0.041845627
-0.045349438 -0.073080875 -0.076659866 0.028880535 -0.016844878 0.0064025573 -0.036330335 0.014995108
-0.029633155 0.06323157 0.038039185 0.013165423 0.010678611 -0.07036114 -0.0023065987 0.124608845
0.017914662 -0.0070174937 0.035525788 0.121685416 0.008128243 0.037123278 -0.019163804 0.059720617

hidden1.bias f4 [128]
00000000: 1087 8fb9 88a2 c33a cf45 81bc fc32 65bc
00000010: 4212 18bb 90ce 513a cf8c 30bb 3ea4 e63c
00000020: 9e7b ac3c 4ea5 cb3c 9c1f 023d 1ce3 073c
00000030: 3c33 9c3b 2348 aabc cd2b 8cbc 1696 fe3c
00000040: 922f 9e3b f740 993c 4df6 ccbb e5f4 d7bc
00000050: 0392 b43b fd87 73bc 8a00 ffbb a390 f23b
00000060: 57c1 4cbc 1183 2e38 f9ed cfbb 3b9f bd3c
00000070: 355d d13c 38b8 473c fad1 55bc 5288 243d
00000080: 0961 163c bccf 883c 7219 1a3c c09a 7ebc
00000090: c315 06bd 239c c23c 4327 4b3c 7d2b 363c
000000a0: 5329 ec3c 4237 a6bc 1fdd ec3b 1a26 713c
000000b0: 9c76 ea3c ad10 0f3c 398a d7bc da82 89bc
000000c0: 7f9b 193c cff6 02bb 7b59 b03c b6d2 cd3b
000000d0: 4207 7fbc deef 1a3c 6d5a 673c 5109 213d
000000e0: c9b2 68bd e505 bfbc 148f 81bb b03b aabd
000000f0: 768b 803c eab2 65bc 4047 2ebb e32b 353c
00000100: ab12 9ebc 80ea 5f3c d5d3 813b 282c 38ba
00000110: 02e9 6cbc 60b2 b13c adf0 c33b cdc0 19bc
00000120: 2873 d23a d6ca 2e3c 7cc9 0dbc 726a 06bb
00000130: bc6a 243c df6e 7abb 5e35 90bc 6a90 613c
00000140: 3452 e73b d719 04bd fd4b f0bc 4f46 01bc
00000150: 8369 dcbc b449 0c3c d28a 1e3c 3935 7b3c
00000160: 9b3a 18bd 6c90 a63c f6e5 173c 4ed1 0abd
00000170: 7d8f 03bd a604 a0ba d80d 16bc 6adf 34bd
00000180: be85 c9bc 48c9 27bc 7849 52b9 5cf6 dbbc
00000190: 3993 713c 5043 873c 4315 08bd e365 a3bc
000001a0: d3c6 da3c d894 1b3b b0b9 58bc 5efc 9639
000001b0: e71a d6bc a0ce c5bb 1b32 153c bad2 0abb
000001c0: 1c78 a3bc 98e7 583c cd6c d4ba 34e4 94bc
000001d0: d7b3 2fbc 94c5 013d d5f6 323b 2721 f73c
000001e0: 4dd2 06bd 7da9 bfba 36b8 b63c d572 993b
000001f0: a184 2abb ebbd 20bd 416a f83a 48ec b0bc
-0.00027375715 0.0014925757 -0.015780358 -0.013989206 -0.0023204242 0.00080034975 -0.0026939397 0.028154489
0.021055039 0.024859097 0.031768426 0.008293893 0.00476685 -0.02078635 -0.01711073 0.031077426
0.004827448 0.018707735 -0.0062549473 -0.026361892 0.00551057 -0.014863965 -0.0077820467 0.007402496
-0.012497268 4.1606898e-05 -0.006345507 0.023147216 0.02555714 0.012189917 -0.013050551 0.040169068
0.009178408 0.016700618 0.009405481 -0.015539825 -0.032735597 0.023756092 0.012399497 0.011118767
0.028828299 -0.02029002 0.007228508 0.014718557 0.02862101 0.008732003 -0.026311027 -0.016786028
0.009375452 -0.0019983535 0.021527043 0.006281222 -0.015565695 0.009456603 0.01412068 0.039315525
-0.056811128 -0.02331824 -0.003953824 -0.08312166 0.0156915 -0.014019707 -0.0026592761 0.011057827
-0.019296011 0.013666749 0.00396202 -0.0007025623 -0.01445985 0.021691501 0.0059796185 -0.009384346
0.0016056048 0.010668477 -0.008653995 -0.0020510224 0.010035213 -0.0038213057 -0.017603572 0.013767341
0.00705936 -0.032251205 -0.029333109 -0.007890298 -0.02690578 0.008562494 0.009676652 0.0153325135
-0.037165266 0.020332538 0.009271136 -0.033891015 -0.032119263 -0.0012208417 -0.009158574 -0.044158377
-0.024599906 -0.01024086 -0.0002005453 -0.026850872 0.014744573 0.01651159 -0.0332234 -0.019946044
0.026706135 0.002373984 -0.013227865 0.00028798258 -0.026135875 -0.0060365945 0.009106184 -0.0021182732
-0.019954734 0.01323881 -0.0016206742 -0.018175222 -0.0107240295 0.031682566 0.0027307768 0.030167175
-0.032915402 -0.0014622655 0.022304635 0.0046828785 -0.0026018994 -0.03924362 0.0018952565 -0.021597043

hidden2.weight f4 [34, 128]
00000000: f5fa 023e f523 0dbc 351d 8ebd dc30 21be
00000010: 1749 963c 773c 8ebd d83e 0cbe 884d 92bd
00000020: cb88 f2bc 869c f3bc c582 663d 7b1f 383d
00000030: d78b 753c 4635 72bc 500a 91bd 5538 5a3d
00000040: 1ff0 b7bd 41a4 6cbd 8b27 53be 32b4 753d
00000050: 462c b6bc d136 c4bd 244f 2abe fb58 22bc
00000060: fbec b23c d551 5ebd 23d5 943d 72be e03c
00000070: 931a ae3d 55d4 b1bb 6be4 debc ba1b 9fbd
00000080: 109a a93a 8523 6a3d f121 35bd f6f9 11bc
00000090: 4f4f 113d c604 293e f29f c3bd e353 873d
000000a0: 05dd eabc ee69 28bd 7b4e a2bd f8d4 17be
000000b0: 1791 8cbc a9ee b1bd 0c2b ccbc a680 d73d
000000c0: 0242 9d3d 6b25 233e eeff fcbc 06ba ba3c
000000d0: 4eff db3c df9c abbc 4650 973d 9997 0abe
000000e0: 06c5 633b 439c 14bd a678 003e b3c6 503d
000000f0: 58a3 9b3d 9090 d33c 5b4d 8f3d 062a 8e3d
00000100: c1e4 bf3d 1e3e 54bd a068 e03d a2d4 4ebc
00000110: 5c2d 053d 4f00 903d a45f 3abc ecf3 c53c
00000120: bd9f 7dbd 0f85 88bd 97ac 743d cfe0 8b3d
00000130: ba49 973d 9812 62bd 1573 843c 4905 083d
00000140: 03c9 0abd 86be 9dbd 836b 43bd ed43 133d
00000150: 5172 1cbd ae9b ff3d 2c73 66bd 3f8c 8f3c
00000160: 2fde 5f3b 1b8f f9bd 0e83 8a3d becf bd3c
00000170: a205 24bd a1ca 7ebd 3404 a03b 3b81 15bd
00000180: c2bd 52bd 753e 0ebe ef33 433d af5a ec3c
00000190: 74ec ca3d b36a cc3d b1be 1dbc cf44 453d
000001a0: 8ab8 613c 52f4 ddbd 350c 743d c43a 7abd
000001b0: ba30 1bbd 8dcf 8d3c bb73 e6bc b8ca e73d
000001c0: 1b2e 25be 19d9 58be 3cbf eb3d 383d 633c
000001d0: e426 0ebe 0ee6 0f3e 0af9 703d 35cb 0a3e
000001e0: f78f 993d 58a8 00bd 3708 8b3d 3989 783d
000001f0: 6b05 9fbb 7af3 b5bd adc0 2e3e 503d b7bc
00000200: c687 5bbe 2972 60bd 4b77 003d 223b acbd
00000210: cb71 97bd 1dbd d13d 963c 9d3d 1c5f 39be
00000220: e3b3 243d 9837 323d 8095 8abc 5e1d 50be
00000230: de35 f0bc 5b33 583d d86f 203e c223 81bd
00000240: 8666 273d 3d0b 88bd b742 093e 9d14 033c
00000250: 0fd8 4f3d 0522 36bd 55b6 f7bd 7545 86bd
00000260: 292a 0dbd 6206 4fbc c16d d33d b219 8e3d
00000270: e228 2abe 22c1 33be d805 02be aad6 a73d
00000280: 025c c2bc b9f7 c73c 81cd 8d3d 849d 6ebd
00000290: 5a82 60bd 6057 13be b368 5dbd 9a22 a13d
000002a0: 5e78 0abe f150 30bd 1810 b03b c7db 24be
000002b0: b2d3 fe3d 9ffd c1bd 18c8 77bc 38a8 ed3d
000002c0: 5d9d 97bc ef8c 1ebd c78f 033e 9937 6abd
000002d0: f5dd 1cbd 384d 11bd 7f60 cf3c 8ad6 d73d
000002e0: 995f 0d3d 77e9 5a3d 598b e7bd e078 92bd
000002f0: db1b 52bd 83a6 25bc 7a79 cebd 037f cf3c
00000300: b228 b6bd 4d13 8c3c 05f8 3a3d 320e 913d
00000310: 34e7 193e e054 cb3d 9c28 99bd b822 b6ba
00000320: 0a38 ec3c a717 883d 50ac 92bd 15ff 74bd
00000330: 8aea 84bc cf5f 233e 8e89 a13d 5527 e63d
00000340: f2cf b7bd fe76 bcbc ee05 9dbd 4096 6e3c
00000350: 22d7 0abd 7ee7 3fbe e86f c1bd 225f a13b
00000360: ce5b ad3d 4bd5 df3d 0097 0ebc 3492 1f3d
00000370: 442b 60bd 74be 403c f02c a0bd 8aec dfbb
00000380: 2d34 8c3c bf02 1d3e d9b6 0fbe 5c6b 0d3d
00000390: 0d04 253d 79e8 093e 50bc 96bd 3a6d 8e3a
000003a0: 08cb 313e 430c 8abb d04f 973c f646 ab3c
000003b0: dada b2bd ca3a cf3c dde6 abbb eddd 38bd
000003c0: cbb3 0fbe 6c97 91bc 50a9 9ebd a52c 69bd
000003d0: ac62 a9bc bef0 913d a23f d8bb 80af 923d
000003e0: 127f 82bd c7a5 d43c c454 51bd 49a5 45bb
000003f0: 041c 9f3d f30d 98bd 3131 173d ff71 9cba
0.12791045 -0.00861453 -0.069391645 -0.15741295 0.018345399 -0.069451265 -0.13695848 -0.07143694
-0.029606244 -0.029737722 0.056277055 0.044951897 0.014986954 -0.014783209 -0.07082045 0.05327638
-0.08981346 -0.057773832 -0.20620553 0.0599863 -0.022237908 -0.09580768 -0.16631752 -0.00990891
0.021841517 -0.05427726 0.07267215 0.027434561 0.085011624 -0.0054269233 -0.027208528 -0.0776896
0.0012939591 0.05716278 -0.044221822 -0.008909693 0.035476025 0.16505727 -0.095519915 0.06607797
-0.028669843 -0.041116647 -0.07925125 -0.14827335 -0.017159028 -0.08688099 -0.02492287 0.105225846
0.076786056 0.15932243 -0.030883756 0.022793781 0.026855137 -0.020948825 0.07388358 -0.13534392
0.0034754886 -0.036281835 0.12546024 0.050970744 0.07599515 0.025825769 0.06997176 0.06941609
0.09369803 -0.051817052 0.10957456 -0.012623938 0.03251396 0.07031309 -0.011375342 0.024164163
-0.061919916 -0.06666004 0.059734907 0.06829988 0.07387109 -0.055193514 0.016168157 0.033208165
-0.033883106 -0.07702355 -0.047709953 0.03595345 -0.038194958 0.124808654 -0.05626218 0.01752293
0.0034159531 -0.12185498 0.06763278 0.023170348 -0.040044434 -0.06220496 0.0048833136 -0.036500197
-0.0514505 -0.13891013 0.04765695 0.028851835 0.09908381 0.09981289 -0.009627984 0.048161324
0.013776908 -0.10837616 0.059581954 -0.0610912 -0.037888266 0.017310882 -0.028131356 0.113179624
-0.16130869 -0.21176566 0.115110844 0.013869576 -0.13882023 0.14052603 0.058831252 0.1355408
0.07498162 -0.031410545 0.06788676 0.06067774 -0.004852941 -0.0888433 0.17065687 -0.022368103
-0.21438512 -0.05479637 0.031363767 -0.08409716 -0.07394751 0.102411486 0.076775715 -0.18102688
0.040210616 0.04351005 -0.01691699 -0.20323703 -0.02932256 0.05278335 0.15667665 -0.063056484
0.04086926 -0.066427685 0.13404356 0.00800052 0.05074316 -0.044466037 -0.12095324 -0.065562166
-0.034464035 -0.012635799 0.10323668 0.06938495 -0.16617158 -0.17554143 -0.12697542 0.08195241
-0.023725513 0.024410116 0.069239624 -0.058255687 -0.054811813 -0.143888 -0.054054927 0.07867928
-0.13522479 -0.04304594 0.0053730123 -0.16099463 0.124427214 -0.094722025 -0.01512339 0.11604351
-0.018507654 -0.038708623 0.12847815 -0.05718193 -0.038297612 -0.035474032 0.025314568 0.10538967
0.034514997 0.053445306 -0.11305875 -0.07151961 -0.051296096 -0.0101105 -0.100817636 0.025329119
-0.08894481 0.017099047 0.045646686 0.07082786 0.15029603 0.09928298 -0.07478449 -0.0013895845
0.028835315 0.06645136 -0.07161772 -0.059813578 -0.016225118 0.15954517 0.078875646 0.11237971
-0.08975209 -0.023005959 -0.076671466 0.01456219 -0.033896573 -0.18740651 -0.094451725 0.004924671
0.08464776 0.10929354 -0.008702993 0.03895779 -0.05472876 0.011764158 -0.07821071 -0.0068336176
0.017114723 0.15333079 -0.14034595 0.034526214 0.040287066 0.13467588 -0.073601365 0.0010866292
0.17362607 -0.0042128875 0.018470675 0.02090786 -0.08733149 0.025296587 -0.005246027 -0.04513352
-0.1403343 -0.017772399 -0.077471375 -0.056927342 -0.020676933 0.07125996 -0.0065993825 0.0716238
-0.06371893 0.025957955 -0.05110623 -0.0030158332 0.077690154 -0.074245356 0.036912147 -0.0011935829

hidden2.bias f4 [34]
00000000: 069b ab3b 593d fcbc 9721 2ebd 2c94 5c3d
00000010: 6966 913d 6ac0 193c c5cc d83b ae1e 45bd
00000020: ecf1 15bb 6c38 053c 62b7 42bc a1a0 e43c
00000030: a6e1 a2bc fbe1 473d 798c 363d 94c0 573c
00000040: ae3e 8d3d 1b31 5ebd 6ac9 a2bd 33a0 1ebd
00000050: 4140 b73d daa5 97bd 50f9 2bbd 709d 8fbd
00000060: eafc 6c3d 20f8 63bd 2197 593d 0195 2e3c
00000070: 7cf2 973d a8b4 f53c 6ea2 9f3b cf67 08bd
00000080: b794 4a3d 8884 b4bd
0.005236986 -0.030790972 -0.042512503 0.053852245 0.07099611 0.009384254 0.0066162073 -0.04812496
-0.0022879792 0.008131128 -0.011884542 0.027908625 -0.019882988 0.048799496 0.04456756 0.013168473
0.06896721 -0.05424605 -0.07948573 -0.038726997 0.08947802 -0.074046806 -0.04198581 -0.07012451
0.057858385 -0.055656552 0.053122643 0.0106556425 0.07419297 0.02999337 0.004871658 -0.033302125
0.04945823 -0.08814341
