Model/output_dir/1DCNN_0809_15e-4_2.pt (torch, 848869 bytes, 6 tensors)

conv.weight f4 [32, 1, 1, 71]
0	0xbd92efcd	-0.071746446
1	0x3d35c095	0.044373114
2	0x3e36487e	0.17801091
3	0x3ddd175f	0.10795473
4	0xbda57b75	-0.08080188
5	0xbe013be4	-0.12620503
6	0x3d7a7b6a	0.061152853
7	0xbdc4d7ce	-0.09611474
8	0x3d5e1d1a	0.054226972
9	0x3e2ab2ec	0.16669816
10	0xbe68db55	-0.22739919
11	0x3d2441ce	0.04010182
12	0xbe316850	-0.17324948
13	0xbd442df5	-0.04789539
14	0x3c036c46	0.00802142
15	0xbd147db9	-0.03625271
16	0xbdac482f	-0.084122054
17	0xbdac799d	-0.084216334
18	0xbe42d890	-0.19027925
19	0x3e405c7c	0.1878528
20	0x3db1d94c	0.08684024
21	0xbd2f0ba4	-0.04273571
22	0x3cee2304	0.029069431
23	0x3e005269	0.12531437
24	0xbdfe13eb	-0.12406143
25	0x3b37c4d7	0.002804091
26	0xbe0aab7e	-0.13541982
27	0x3c4794cb	0.012181471
28	0x3d515631	0.05110759
29	0xbd48acff	-0.048993107
30	0xbdf38064	-0.11889723
31	0xbcb56668	-0.022143558
32	0xbdae51f5	-0.08511726
33	0x3e0ac205	0.13550575
34	0xbda175fc	-0.07883832
35	0xbe3fc3c9	-0.1872703
36	0xbdea1c4c	-0.114311785
37	0xba8aaf4e	-0.0010580809
38	0xbdaf6b8a	-0.08565433
39	0x3d943583	0.07236769
40	0x3e13994a	0.14413944
41	0x3e1a4751	0.15066268
42	0x3dd142be	0.10217808
43	0x3e314578	0.17311656
44	0xbc82c312	-0.015962157
45	0xbdb3c7e9	-0.08778364
46	0xbd3ead8a	-0.04655222
47	0x3e2afef5	0.16698821
48	0xbdaacc6f	-0.08339774
49	0x3e60e083	0.21960644
50	0x3d9b3fa0	0.07580495
51	0xbde40409	-0.11133582
52	0xbe17f077	-0.14837824
53	0x3ce7d2fa	0.028298844
54	0x3aa95350	0.0012918506
55	0x3df05fbe	0.117370114
56	0xbd97b1f6	-0.0740699
57	0xbdd501a1	-0.10400701
58	0xbcb4298b	-0.021992465
59	0xbe4dc4dc	-0.20094627
60	0x3e5133ce	0.20429918
61	0x3dc3d2ad	0.095616676
62	0x3d137c9c	0.03600751
63	0x3e156102	0.14587787
64	0x3e6fb696	0.23409495
65	0xbd77d34f	-0.060504254
66	0x3e810389	0.2519801
67	0x3e516db9	0.20452012
68	0xbd7c6eab	-0.06162898
69	0x3c8a3cbc	0.016874664
70	0x3d65dafa	0.056117035
71	0xbe4db005	-0.20086677
72	0xbdb87cac	-0.09008154
73	0xbd5276af	-0.051382717
74	0x3e0be166	0.13660201
75	0x3d96efc6	0.07369952
76	0x3e137a7d	0.14402194
77	0xbcae1063	-0.021248048
78	0xbda97cc9	-0.08275754
79	0x3e43c243	0.19117074
80	0x3e5d1f96	0.2159408
81	0xbdb30db2	-0.087428465
82	0xbe164ae0	-0.14677
83	0xbdc45f26	-0.095884606
84	0x3cea1c82	0.028578047
85	0xbcc760b7	-0.02433811
86	0xbde656f9	-0.112470575
87	0x3e0e16b1	0.13875844
88	0x3d067301	0.03282452
89	0xbd83cc63	-0.06435468
90	0x3e9be0ea	0.30445033
91	0x3d73aa5c	0.05948864
92	0x3e21553e	0.15755174
93	0xbe926b4d	-0.2859749
94	0x3cc2b4c1	0.02376783
95	0x3cbfb5da	0.023402143
96	0x3e29354c	0.16524237
97	0x3e5d22ce	0.21595308
98	0x3e0f21fa	0.13977805
99	0x3e57f073	0.21087818
100	0xbcc62008	-0.024185196
101	0xbe0d6efb	-0.13811867
102	0xbe430cbf	-0.19047831
103	0x3cb33fed	0.021881068
104	0xbe9dc082	-0.30810934
105	0x3e34a0d0	0.1763947
106	0xbdb7551e	-0.08951782
107	0x3ccb6b56	0.024831455
108	0xbd2e58d7	-0.042565193
109	0xbc76c4c3	-0.01506156
110	0xbd7b412d	-0.061341453
111	0xbe7d95a9	-0.24764122
112	0x3e274a46	0.16336927
113	0xbe1af442	-0.1513224
114	0xbe24b97a	-0.16086379
115	0xbdc5b5aa	-0.0965379
116	0xbd4847a5	-0.04889645
117	0xbdc2980f	-0.09501659
118	0xbe29e6bb	-0.16591923
119	0x3dac6649	0.08417947
120	0xbc1289cf	-0.008943989
121	0xbc4d0c03	-0.012515071
122	0x3ca17487	0.019708885
123	0x3e77822e	0.24170753
124	0xbe091983	-0.13388638
125	0xbda7330e	-0.08164035
126	0x3e296317	0.16541706
127	0x3cb7d3c4	0.022439845
128	0x3cd63681	0.026149036
129	0x3d51a59f	0.05118334
130	0x3daba28e	0.08380614
131	0xbe0f4839	-0.13992395
132	0x3d85c1e8	0.06531125
133	0xbe429fa6	-0.19006214
134	0x3e666ec3	0.2250319
135	0x3e19e797	0.15029751
136	0xbdd5757d	-0.104228
137	0xbded9e04	-0.11602405
138	0xbe0f4830	-0.13992381
139	0x3d417ee0	0.047240138
140	0x3df5c371	0.12000168
141	0x3ce7eae8	0.028310254
142	0x3e33a030	0.17541575
143	0x3db90f92	0.09036173
144	0x3e7ce42f	0.2469642
145	0x3e2437cf	0.16036914
146	0xbbe96cdd	-0.007123573
147	0x3e3fda55	0.18735631
148	0xbe16bd14	-0.14720565
149	0x3db79c1a	0.08965321
150	0x3c867d5b	0.016417196
151	0xbda749f4	-0.08168402
152	0xbd3cbf67	-0.046080973
153	0xbdf7106e	-0.120636806
154	0xbe522947	-0.20523559
155	0xbd0b3d7b	-0.03399418
156	0x3e2b441a	0.16725197
157	0x3d63976a	0.05556432
158	0xbdfd0ebf	-0.12356328
159	0xbcb27a73	-0.021786904
160	0xbdb12299	-0.08649177
161	0x3ea6c723	0.32573804
162	0x3e754977	0.23953806
163	0xb762f61c	-1.35279515e-05
164	0xbeaaff21	-0.33397773
165	0x3c46940e	0.01212026
166	0x3dd6661e	0.10468696
167	0x3e309d0b	0.17247407
168	0xbb578c9e	-0.003289021
169	0x3d3e1466	0.046406172
170	0xbdb8f935	-0.090319075
171	0xbe470d28	-0.19438612
172	0x3c90719b	0.017632296
173	0xbe08d3af	-0.13362001
174	0x3e10e385	0.14149292
175	0x3dbc04c5	0.09180597
176	0x3e32c78d	0.17458935
177	0xbcc9b30e	-0.024621513
178	0xbe1995c5	-0.14998539
179	0x3d8559cb	0.06511267
180	0x3d19381e	0.037407033
181	0xbd85cc54	-0.06533113
182	0xbe250146	-0.16113767
183	0xbe4bf1cf	-0.19916461
184	0xbd7860ee	-0.060639314
185	0xbe02cb63	-0.12772898
186	0xbe16c6e5	-0.1472431
187	0xbe5fb59c	-0.21846622
188	0xbd99b9a5	-0.07506112
189	0xbe76c4e7	-0.2409855
190	0xbe28165d	-0.16414781
191	0xbdd5c121	-0.10437227
192	0x3e29ab8c	0.16569346
193	0xbdb05bad	-0.08611236
194	0x3e434456	0.19069037
195	0xbe228faa	-0.15875116
196	0xbe324fbe	-0.17413232
197	0x3d7a19a9	0.061059628
198	0x3db5bdcf	0.08874094
199	0xbdd2f81d	-0.1030123
200	0x3e256286	0.16150865
201	0x3e426064	0.18982083
202	0x3e4b3f69	0.19848408
203	0x3e1aa9f2	0.15103891
204	0x3e4c6758	0.19961298
205	0x3e230c9a	0.15922776
206	0xbdbbcf8b	-0.09170445
207	0x3dce1165	0.100619115
208	0xbe43ff26	-0.191403
209	0xbdd66923	-0.10469272
210	0x3e27a5d7	0.16371857
211	0xbc994746	-0.018710744
212	0x3dee3224	0.11630657
213	0xbc94a9f9	-0.018147456
214	0x3e7892ac	0.24274701
215	0x3e2eb44e	0.17060968
216	0x3d57608c	0.05258231
217	0x3c847726	0.016170096
218	0x3de1b1e3	0.11020257
219	0xbbee63a7	-0.007275063
220	0xbe86f8e6	-0.2636177
221	0xbdb673a4	-0.089087754
222	0xbe476ad6	-0.19474348
223	0x3d4f7a79	0.05065391
224	0xbda0ca93	-0.07851138
225	0xbe3cf704	-0.18453604
226	0x3e675683	0.22591595
227	0xbe492bf7	-0.19645678
228	0x3db5304c	0.088471025
229	0x3d36b9cb	0.04461078
230	0xbd719c48	-0.058986932
231	0xbe694a7d	-0.22782321
232	0x3db6506d	0.08902059
233	0x3c8e6a96	0.017384809
234	0x3d5e1216	0.054216467
235	0xbdc7f1e4	-0.09762934
236	0x3e5de843	0.21670632
237	0xbd9a70c2	-0.07541038
238	0xbe28a9ee	-0.16471073
239	0xbd32098a	-0.04346613
240	0xbd4c49dc	-0.049875125
241	0xbded01be	-0.11572598
242	0xbe15b4cc	-0.1461975
243	0x3e091001	0.13385011
244	0xbdb91c60	-0.09038615
245	0x3df22eeb	0.11825355
246	0x3e3e787c	0.18600649
247	0xbcaddc3f	-0.021223186
248	0xbdf3d377	-0.11905568
249	0xbe259e54	-0.16173679
250	0xbdb793a9	-0.08963711
251	0xbcd3147c	-0.025766604
252	0x3de545ef	0.111949794
253	0x3e5ac6c6	0.21364889
254	0xbdc41fad	-0.09576354
255	0x3dd3a6dd	0.10334561

conv.bias f4 [32]
0	0xbbcd08de	-0.0062571606
1	0x3db90d76	0.090357706
2	0xbd551e96	-0.052031122
3	0x3c3ea84e	0.011636807
4	0x3e02ffc5	0.12792881
5	0xbd9474cf	-0.07248842
6	0xb8b1eae0	-8.4837666e-05
7	0x3d636244	0.055513635
8	0x3dd2ee3e	0.10299347
9	0xbd30e707	-0.043189075
10	0x3df08410	0.11743939
11	0xbcee41a2	-0.02908403
12	0x3d3b5896	0.04573878
13	0xbe091fe3	-0.1339107
14	0xbc840338	-0.016114816
15	0xbd0f6ead	-0.035017658
16	0x3d053cff	0.032528874
17	0x3c9a34db	0.018824032
18	0x3d5d2355	0.053988773
19	0xbdddbb8e	-0.10826789
20	0x3da421e7	0.08014279
21	0x3da170cf	0.07882845
22	0xbd61a621	-0.055090073
23	0x3d34f17a	0.044175602
24	0xbd82c7ad	-0.063857414
25	0x3d60124d	0.054704953
26	0xbc39a82d	-0.0113316
27	0x3d04d73c	0.032431826
28	0x3c3ae219	0.011406445
29	0xbd34cce3	-0.044140708
30	0xbde62afb	-0.112386666
31	0xbdf896fe	-0.121381745

hidden1.weight f4 [128, 1600]
0	0x3c78a98b	0.015177141
1	0x3d68c5d7	0.0568293
2	0x3d68d682	0.056845196
3	0x3cab4239	0.0209056
4	0x3adb54e8	0.0016733678
5	0x3d44bc46	0.048031114
6	0xbcb39564	-0.021921821
7	0xbd29e9c0	-0.041482687
8	0x3cc89aef	0.02448794
9	0x3bcbbb53	0.006217399
10	0xbc58cd54	-0.013232548
11	0x3be13d2e	0.0068737483
12	0xbcb1d8a8	-0.021709755
13	0xbd51f6b9	-0.051260684
14	0xbc47a5a5	-0.012185489
15	0x3c87d89c	0.01658278
16	0xbcb6551d	-0.022257382
17	0x3cf6debe	0.030135509
18	0x3c319edb	0.010841097
19	0x3d8cfa7a	0.06883712
20	0x3c6ec49f	0.014573245
21	0xbb8de7dd	-0.004330619
22	0xbb337af4	-0.0027386518
23	0xbcf0366b	-0.029322824
24	0xbc4ba179	-0.012428635
25	0x3b878565	0.004135775
26	0x3cf223cd	0.029558087
27	0x3d097089	0.033554588
28	0x3d358da9	0.04432455
29	0xbd2ff78e	-0.042960696
30	0xbb00fcd0	-0.0019681938
31	0xbc7df30c	-0.015499841
32	0xbb375d94	-0.002797936
33	0x3caf032b	0.021363815
34	0xbc72a4e4	-0.014809821
35	0xbc84b49e	-0.016199406
36	0xbcdf81a0	-0.02728349
37	0xbba58547	-0.0050512883
38	0x3d5de196	0.054170214
39	0x3cdbe728	0.026843622
40	0x3d2aba5b	0.04168163
41	0x3d88388b	0.0665141
42	0xbc3a986d	-0.01138888
43	0x3c8fae53	0.017539179
44	0x3c044c68	0.008074857
45	0x3d6453f1	0.055744115
46	0x3d5bcda4	0.05366291
47	0x3c99f25d	0.018792326
48	0x3dad993a	0.08476491
49	0xbc68044d	-0.014161182
50	0x3d1dfa9e	0.038569085
51	0xbe3ccd8e	-0.18437788
52	0x3d1b578c	0.037925288
53	0xbdb3e63e	-0.087841496
54	0x3d39977a	0.045310475
55	0xbc0aab68	-0.008463718
56	0xbd4e36ef	-0.050345358
57	0x3c70e5b5	0.014703204
58	0xbdb73e46	-0.089474246
59	0x3d7d387e	0.061821453
60	0xbca459ad	-0.020062292
61	0xbdb7ecc1	-0.08980704
62	0x3db79fe7	0.08966046
63	0xbcddd88e	-0.0270808
64	0x3dae1d29	0.085016556
65	0x3d936c2a	0.07198365
66	0x3da0b73a	0.07847448
67	0x3df4137c	0.11917779
68	0x3cb75e99	0.022383975
69	0xbd75a2ab	-0.059969585
70	0xbd83e157	-0.064394645
71	0x3d8a7c5a	0.067619994
72	0xbcdaa05f	-0.026687799
73	0x3ceb9415	0.028757134
74	0x3c8ac2b1	0.01693854
75	0xbd86ecbe	-0.06588124
76	0xbdb99002	-0.090606704
77	0x3c71baa4	0.014753971
78	0x3d1534a2	0.036427148
79	0xbce970d9	-0.028496193
80	0x3d88fd30	0.06688917
81	0xbd1c515a	-0.03816352
82	0x3d72ae24	0.059248105
83	0xbd0e260e	-0.03470426
84	0x3c1197ab	0.008886258
85	0x3add69fb	0.0016892547
86	0x3dddf176	0.10837071
87	0x3dd51489	0.104043074
88	0x3db0c467	0.08631211
89	0xbd1027d6	-0.03519424
90	0x3e2880ef	0.16455434
91	0xbd96f2dd	-0.07370541
92	0xbd8a0037	-0.06738322
93	0x3d80bc1c	0.06285879
94	0xbd7538ca	-0.05986861
95	0xbbff0b68	-0.007783342
96	0xbd245eac	-0.04012935
97	0x3d7a7e7e	0.06115579
98	0xbd3b02f4	-0.045657113
99	0x3cadd6b9	0.021220552
100	0x3d964be9	0.073386975
101	0x3b949a8b	0.0045350245
102	0x3d34b117	0.0441142
103	0x3d85b372	0.06528367
104	0x3c602078	0.013679616
105	0xbc3bfca4	-0.011473808
106	0x3d04db38	0.032435626
107	0xbcb0b251	-0.021569403
108	0x3cd32791	0.025775703
109	0x3d363d06	0.04449179
110	0x3d0ad93f	0.03389859
111	0xbe07d936	-0.13266453
112	0x3d9e1e54	0.077206284
113	0xbada7726	-0.0016667589
114	0xbd931cac	-0.07183203
115	0xbd8dace3	-0.06917741
116	0x3d7a059e	0.061040513
117	0x3cc85d20	0.024458468
118	0x3d368b1c	0.04456626
119	0x3c6eb509	0.014569529
120	0x3db3320e	0.087497815
121	0xbc98eb83	-0.018666988
122	0xbcd96861	-0.02653903
123	0xbcf050f7	-0.029335482
124	0xbcc907ad	-0.024539793
125	0x3d592f1b	0.05302344
126	0xbdc11d70	-0.09429443
127	0x3dad7f65	0.08471564
128	0x3dd0e78d	0.10200415
129	0x3b7040ce	0.003665972
130	0xbd8e3268	-0.06943208
131	0xbd938b80	-0.07204342
132	0x3d411040	0.047134638
133	0xbc13559e	-0.008992581
134	0x3cd24d9a	0.025671769
135	0x3c8156dc	0.015788488
136	0x3d28a3fe	0.04117202
137	0x3d017ce6	0.031613253
138	0xbd19586c	-0.03743784
139	0x3c1d6884	0.009607438
140	0x3d7442eb	0.05963413
141	0xbce5da73	-0.028058266
142	0x3cca3835	0.024685005
143	0xbd105abd	-0.035242785
144	0xbdadb124	-0.084810525
145	0xbd0bb279	-0.03410575
146	0x3b42a01e	0.0029697488
147	0x3dda21bb	0.10650965
148	0xbcfedc00	-0.031110764
149	0xbc39bbcc	-0.011336278
150	0x3ccd9f7f	0.025100468
151	0x3d1f61a8	0.03891149
152	0xbd251801	-0.040306095
153	0xbd391597	-0.045186605
154	0x3c81e67c	0.015856974
155	0xbc0342ae	-0.008011503
156	0xbd7e361d	-0.062063325
157	0x3b40eafd	0.002943694
158	0xbddd8659	-0.108166404
159	0x3cc305a1	0.023806395
160	0x3d8e103c	0.0693669
161	0xbc9929a7	-0.01869662
162	0x3c4425c3	0.011971894
163	0xbd04d10c	-0.032425925
164	0x39bff83e	0.00036615314
165	0x3ccfab17	0.025350137
166	0xbdbc6c54	-0.092003495
167	0x3d34b039	0.04411337
168	0x3d8fd947	0.07023864
169	0x3da71885	0.081589736
170	0x3d6f2104	0.058381096
171	0xbc8fbd31	-0.017546268
172	0x3dbfff38	0.09374851
173	0xbd496f77	-0.049178567
174	0x3d2756c1	0.04085422
175	0x3d167fe6	0.036743067
176	0x3cd1cedb	0.025611332
177	0x3dffca6e	0.12489782
178	0xbd2f9a93	-0.042872023
179	0x3d40ddb5	0.047086436
180	0xbcba4055	-0.022735754
181	0xbdc152db	-0.094396316
182	0xbd8e0f45	-0.06936506
183	0x3d8f2284	0.06989005
184	0xbbd077d3	-0.0063619404
185	0x3c2af04b	0.010433267
186	0xbde05aba	-0.10954805
187	0x3dec3341	0.115332134
188	0xbca8a436	-0.020586114
189	0x3d0d9388	0.034564525
190	0x3d162605	0.036657352
191	0xbdb64449	-0.08899743
192	0x3a5eae90	0.000849464
193	0xbace10a4	-0.0015721512
194	0x3ddeb4f2	0.10874356
195	0xbd1e7fb7	-0.038696017
196	0xbdf9a301	-0.12189294
197	0xbc06fdfb	-0.008239265
198	0xbd59c011	-0.053161684
199	0x39a21e8a	0.000309218
200	0xbcf2f1d0	-0.02965632
201	0xbb08f8b2	-0.0020900187
202	0xbca6f56b	-0.020380696
203	0x3ca514f6	0.020151597
204	0xba71d940	-0.0009225793
205	0x3c52d4ec	0.012868147
206	0x3cfe6f4d	0.031058932
207	0x3c7e342b	0.0155153675
208	0x3c1a89d8	0.009432279
209	0xbd159c5a	-0.03652606
210	0xbc9e931d	-0.019357258
211	0x3e23d329	0.1599852
212	0x3ab42900	0.0013745129
213	0x3bec930e	0.0072196787
214	0xbd70a046	-0.0587466
215	0xbb1ba805	-0.002375127
216	0x3d3b205e	0.045685165
217	0xbd4d8827	-0.050178673
218	0x3bb01fa2	0.0053748647
219	0x3d4db407	0.050220516
220	0x3d6e14cf	0.058125313
221	0x3cdf4c2e	0.027258005
222	0x3d35cca8	0.04438463
223	0x3d6965b2	0.05698175
224	0xbc928feb	-0.017890891
225	0xbc02bc70	-0.007979497
226	0x3caec91e	0.021336135
227	0x3d3de368	0.04635945
228	0x3c7f0bc2	0.015566768
229	0x3cb4a73c	0.0220524
230	0x3cbdac44	0.023153432
231	0xbdbf90a8	-0.09353763
232	0x3d003993	0.031304907
233	0x3d4647b0	0.04840821
234	0xbd0a5e91	-0.03378159
235	0xbc6558cf	-0.013998224
236	0x3ada184e	0.0016639323
237	0xbd758693	-0.059942793
238	0x3c8be5c9	0.017077344
239	0x3d26eeaa	0.04075495
240	0x3b29c02c	0.0025901897
241	0x3d007d9e	0.031369798
242	0xbba0e1ec	-0.0049097445
243	0xb9d30256	-0.00040246797
244	0x3cb5e9aa	0.022206146
245	0xbb28a8a5	-0.0025735286
246	0xbd9ec495	-0.07752339
247	0x3d1864da	0.037205555
248	0x3dc7b590	0.09751427
249	0xbd4f7dff	-0.05065727
250	0xbd747196	-0.059678636
251	0xbd045e45	-0.032316465
252	0xbd3444dc	-0.044010982
253	0xbe26a303	-0.16273122
254	0x3c6a13ff	0.014286994
255	0x3d899d8a	0.06719501

hidden1.bias f4 [128]
0	0xbc8a67d7	-0.016895218
1	0xbbb70898	-0.0055857413
2	0x3d1722ea	0.03689853
3	0x3bbb6585	0.005718889
4	0x3b82e242	0.003994257
5	0xbce32230	-0.027726263
6	0xbc980cd0	-0.018560797
7	0xbc4cdce8	-0.01250384
8	0xbc45db98	-0.012076281
9	0xbcd4b17c	-0.025963537
10	0xbbc39521	-0.0059687053
11	0xbcc1fcc9	-0.023680108
12	0xba85a200	-0.0010195374
13	0xbbe23ba9	-0.0069040847
14	0x372f5d40	1.0452524e-05
15	0xbc7fe4e3	-0.015618536
16	0xbbbd2839	-0.005772617
17	0xbbc7f562	-0.00610225
18	0xbc42c4e0	-0.011887759
19	0xbbaed124	-0.00533499
20	0xbb9aa050	-0.004718818
21	0x3c01473a	0.007890517
22	0xbcd831c7	-0.026390923
23	0xba6bc50b	-0.00089939
24	0xbcd05abc	-0.02543389
25	0xba80ad09	-0.0009817193
26	0xbc2ea0bf	-0.010658442
27	0xbcbcf3ef	-0.023065535
28	0x3cc90256	0.024537247
29	0xbd44937f	-0.047992226
30	0x3c208ea6	0.009799635
31	0xbb9f48f6	-0.0048609925
32	0xbb67f807	-0.0035395639
33	0x3ca5f7c8	0.020259753
34	0xbca40c1c	-0.020025305
35	0x3bc54074	0.0060196463
36	0x3b9fb4f1	0.004873865
37	0xbc927ff3	-0.017883277
38	0x3c3f9084	0.01169217
39	0xbc6f4f24	-0.014606271
40	0xbc6dc64b	-0.014512609
41	0x3bb5cea4	0.005548315
42	0xbc4ffe25	-0.01269487
43	0xbccbb534	-0.024866678
44	0xbc1db88f	-0.009626522
45	0xbd05149f	-0.03249037
46	0xbbf41d08	-0.00744975
47	0x3cebd0fd	0.028786177
48	0x3c8187df	0.015811859
49	0x3c684039	0.014175468
50	0xbca14cbc	-0.01968991
51	0x3be118df	0.00686942
52	0xbbb63142	-0.005560071
53	0x3b2c6017	0.0026302391
54	0x3c6c9ebc	0.014442142
55	0x3aa34b0a	0.0012458276
56	0xbc0915cf	-0.008367016
57	0xbafbf70b	-0.0019223405
58	0xbc8ca8ae	-0.017170276
59	0x3c452d59	0.0120347375
60	0x3c751fb7	0.014961175
61	0x3cc4d74e	0.024028447
62	0x3abcad89	0.0014394979
63	0x3c071e80	0.008247018
64	0x3d15fa93	0.03661592
65	0x3ce2c1d7	0.02768032
66	0xbc2ff5f8	-0.010739796
67	0xbd09f028	-0.033676296
68	0x3cfca2b9	0.030839311
69	0xbcaee884	-0.021351106
70	0x3c027099	0.007961416
71	0x39c68b82	0.00037869444
72	0x3c261c0b	0.010138522
73	0x3c16a9c7	0.0091957515
74	0x3c7ce36a	0.015435079
75	0x3cc44d03	0.023962503
76	0x3c80e59c	0.015734486
77	0xbca095d7	-0.0196027
78	0x3c8a1b16	0.016858619
79	0xbc915eef	-0.017745463
80	0xbc8adc52	-0.01695076
81	0xbced239e	-0.028947648
82	0x3c1951fa	0.009357924
83	0xbc95de06	-0.018294346
84	0xbd086941	-0.033303503
85	0xbc67bc10	-0.014143959
86	0x3c7c0caf	0.015383883
87	0x3c206189	0.009788879
88	0x3ca4d4df	0.020121036
89	0x3b758dcb	0.0037468548
90	0x38c7297d	9.496787e-05
91	0xbcf5ea18	-0.030018851
92	0xbbd7917b	-0.006578622
93	0x3b95d0c0	0.004572004
94	0x3c964b86	0.01834656
95	0xbca5b09a	-0.020225812
96	0xbca4f272	-0.020135138
97	0xbc2c835e	-0.010529367
98	0x3ca0dd29	0.019636707
99	0x3bab86c1	0.00523457
100	0x3b899396	0.004198502
101	0x3a51b1b9	0.00079992
102	0x3c297d83	0.010344866
103	0xbb1977d7	-0.0023417377
104	0x3a3c58e8	0.0007184879
105	0x3a642b60	0.0008703973
106	0xbcfd4099	-0.030914592
107	0xbd625408	-0.05525592
108	0x3aa76049	0.0012769784
109	0xbc840e76	-0.016120177
110	0xbc312b88	-0.010813601
111	0x3c152f66	0.009105539
112	0x3be15a7b	0.006877241
113	0xbd3117e7	-0.043235686
114	0x3c3d60eb	0.011558752
115	0xbaf7052f	-0.0018846149
116	0x3c56d6e8	0.013112761
117	0x3c941711	0.018077405
118	0xbc1ebd76	-0.009688726
119	0xbc969ceb	-0.018385371
120	0x3be1d0fe	0.006891369
121	0x3bf64821	0.0075159227
122	0xbbd282be	-0.006424277
123	0x3c1bc761	0.009507985
124	0x3c6560f5	0.014000167
125	0xbce5c72a	-0.02804907
126	0x3c7abf52	0.015304403
127	0xbb4b91a3	-0.0031062148

hidden2.weight f4 [34, 128]
0	0x3db260d1	0.087098725
1	0xbd96fa40	-0.0737195
2	0x3dba8803	0.091079734
3	0xbbd4be9a	-0.006492448
4	0x3d7743e3	0.060367476
5	0x3cb18aed	0.02167269
6	0xbd403eb5	-0.046934802
7	0xbe06cb41	-0.13163473
8	0x3d827c84	0.06371406
9	0x3c588d67	0.013217307
10	0xbdc49c3d	-0.096001126
11	0xbc4400f8	-0.011963122
12	0xbde9fc95	-0.11425129
13	0x3c2c337d	0.010510323
14	0xbda31167	-0.079623036
15	0x3d7729ef	0.060342725
16	0x3d3a246c	0.04544489
17	0x3d9dc819	0.07704181
18	0x3b8eb451	0.0043549915
19	0x3a6dc965	0.00090708426
20	0xbc73f325	-0.014889513
21	0xbd343fb4	-0.044006065
22	0xbccd3f9e	-0.02505475
23	0x3d205f83	0.039153587
24	0xbd0fff3f	-0.03515553
25	0xbd44ae08	-0.04801753
26	0x3d75d38d	0.060016204
27	0x3d4a6142	0.04940916
28	0x3c2c555d	0.010518399
29	0xbd95edcf	-0.07320749
30	0xbd4b6f26	-0.049666546
31	0xbd2a5b7a	-0.041591145
32	0xbe0ea2d3	-0.139293
33	0x3cac19a7	0.021008326
34	0xbccc3828	-0.024929121
35	0x3d474e91	0.04865891
36	0xbc94d1f5	-0.018166522
37	0x3cfc96ed	0.030833686
38	0xbd855408	-0.06510168
39	0xbe87e895	-0.26544634
40	0xbe11caeb	-0.14237563
41	0xbd54c4e4	-0.051945582
42	0xbc1d4c6f	-0.009600743
43	0xbd61e7cf	-0.05515271
44	0xbd20a773	-0.039222192
45	0x3d3c962a	0.046041645
46	0x3d82563c	0.06364104
47	0x3df763fb	0.12079617
48	0x3cea0726	0.028567862
49	0x3de09111	0.10965169
50	0x3d9cb8a3	0.07652404
51	0xbd695724	-0.05696787
52	0x3e0d8b17	0.1382259
53	0x3da6c02b	0.08142122
54	0x3d6bb66a	0.05754701
55	0xbe0d858a	-0.13820472
56	0xbd7f7e08	-0.062376052
57	0x3de68c76	0.112572595
58	0x3e0379ab	0.12839381
59	0x3d89e851	0.06733764
60	0xbd5d85ef	-0.054082807
61	0xbc65feb4	-0.014037777
62	0xbd9d403a	-0.07678266
63	0xbe0d389c	-0.13791126
64	0xbe14e0cb	-0.14538877
65	0x3cbfa0c9	0.023392098
66	0x3e06b0f3	0.13153438
67	0x3d9d433e	0.07678841
68	0x3de77a0a	0.11302574
69	0x3d439bf0	0.047756135
70	0x3e1ee6e4	0.15517765
71	0x3db3160e	0.08744441
72	0xbca42911	-0.020039113
73	0x3e02dc0b	0.12779252
74	0xbd34690a	-0.044045486
75	0xbd445ada	-0.047938205
76	0x3e06da32	0.13169172
77	0x3a98f5d9	0.0011669948
78	0x3d4e1579	0.050313447
79	0x3d75a395	0.059970457
80	0x3d33804c	0.043823525
81	0x3cfefdcf	0.031126885
82	0x3c3387d0	0.010957673
83	0xbc9083b1	-0.01764092
84	0xbc4b9e99	-0.012427949
85	0x3cd0fd2a	0.025511343
86	0xbdb7b6cd	-0.08970413
87	0x3d35368e	0.04424148
88	0xbd9bf36f	-0.07614791
89	0xbdd63838	-0.104599416
90	0xbd022e8a	-0.031782664
91	0xbd3a2cc6	-0.045452856
92	0xbce28b52	-0.027654324
93	0xbdee9013	-0.11648574
94	0xbc9f7987	-0.019467128
95	0x3d32c55b	0.043645244
96	0x3d492af6	0.049113236
97	0x3d8a356d	0.067484714
98	0x3db45679	0.08805556
99	0xbd7efb18	-0.06225118
100	0xbd894dec	-0.067043155
101	0xbd343045	-0.043991346
102	0x3cfb75ba	0.030695785
103	0x3d0bfec2	0.034178503
104	0x3d21f468	0.039539725
105	0x3cec24ea	0.028826196
106	0xbd4ec3a7	-0.050479557
107	0xbcc842ff	-0.024446009
108	0x3b4b0be1	0.0030982422
109	0xbc44508e	-0.011982096
110	0xbdee2c93	-0.116295956
111	0x3dbd0190	0.09228814
112	0x3dddd054	0.10830751
113	0xbd30e32f	-0.04318541
114	0xbb64b192	-0.003489588
115	0xbd11b4c1	-0.03557277
116	0xbd867ad6	-0.06566398
117	0x3d552299	0.052034948
118	0xbd278c11	-0.040905062
119	0x3c3e0778	0.01159846
120	0x3d826d13	0.063684605
121	0xbc9082bb	-0.017640462
122	0x3df80477	0.121102266
123	0x3db14d2d	0.08657298
124	0x3cc3be38	0.023894414
125	0xbcb30459	-0.021852659
126	0xbd8602f7	-0.06543534
127	0xbe442c24	-0.19157463
128	0x3d69ef28	0.057112843
129	0x3cb6f0f1	0.022331687
130	0xbe3a3e83	-0.18187909
131	0x3cfa5157	0.030556364
132	0x3d7d8e13	0.06190307
133	0x3d2ba9dd	0.04191004
134	0xbc35f4d3	-0.011105734
135	0x3e25d763	0.16195445
136	0x3d324197	0.043519583
137	0x3cc31fb7	0.023818834
138	0x3d39f1b5	0.045396525
139	0x3c9649f0	0.018345803
140	0xbe294ec2	-0.1653395
141	0x3d804929	0.06263954
142	0xbc8f7245	-0.017510543
143	0x3b967327	0.004591364
144	0x3e2c07e7	0.1679989
145	0xbe00deed	-0.1258504
146	0xbcdffc14	-0.02734188
147	0x3d3e774f	0.0465005
148	0x3ced05c4	0.028933413
149	0xbcb04a0a	-0.02151968
150	0xbcd688c8	-0.02618827
151	0xbd9ccf59	-0.07656736
152	0xbd9f7bb9	-0.0778727
153	0xbe45ce40	-0.1931696
154	0xbd5a4c68	-0.053295523
155	0x3d9c9867	0.07646256
156	0xbe36f369	-0.17866291
157	0x3cbe5670	0.023234576
158	0xbdbd174b	-0.092329584
159	0xbd3d137a	-0.046161152
160	0x3e039892	0.1285117
161	0x3c489d79	0.012244576
162	0xbd4eb8a6	-0.050469063
163	0x3e0ed31a	0.13947716
164	0x3c8f657b	0.017504444
165	0x3d4020d3	0.046906304
166	0x3d873c04	0.06603244
167	0x3dd33f2b	0.10314783
168	0xbb7c1d14	-0.003846948
169	0xbcfdc07f	-0.030975578
170	0xbd7d1f38	-0.06179735
171	0x3d02f632	0.03197307
172	0x3daaf9c1	0.08348418
173	0x3cee83ec	0.02911564
174	0xbe64a3c7	-0.22328101
175	0x3d63c417	0.055606928
176	0x3e0bd9d4	0.13657314
177	0xbe408018	-0.18798864
178	0xbe22ef37	-0.15911566
179	0x3d1321b0	0.0359208
180	0x3ce9f7e8	0.028560594
181	0xbd20795b	-0.039178234
182	0x3c9c0668	0.019046023
183	0x3d29db7b	0.04146908
184	0x3e03c1f1	0.12866952
185	0xbd2f46ff	-0.042792317
186	0x3d900314	0.07031837
187	0x3d8939f9	0.067005105
188	0x3d82b8b9	0.06382889
189	0xbd6c4361	-0.057681445
190	0x3e15d77b	0.1463298
191	0xbcb2c19f	-0.021820841
192	0x3de30df6	0.11086647
193	0xbd0d22fc	-0.03445719
194	0x3de2fd3f	0.11083459
195	0x3d32a5b9	0.043615077
196	0xbe621df4	-0.22081739
197	0x3d989545	0.07450346
198	0x3d89cf1b	0.06728955
199	0xbe11594b	-0.14194219
200	0xbc320d66	-0.010867452
201	0x3db62991	0.08894647
202	0x3d026643	0.031835806
203	0x3db1a205	0.08673481
204	0x3dbb8bf4	0.09157553
205	0x3d3eeac1	0.046610598
206	0x3cdba76b	0.02681323
207	0xbe33d89b	-0.17563097
208	0xbc4bd15c	-0.012440052
209	0x3caf076b	0.021365842
210	0xbaee1524	-0.0018164259
211	0x3e11b2b6	0.14228329
212	0xbdbb2777	-0.09138387
213	0xbe41539b	-0.18879549
214	0x3bd4b9b9	0.0064918664
215	0x3d0bfdac	0.034177467
216	0x3b414463	0.0029490225
217	0xbdb2d6d6	-0.08732383
218	0xbc01b183	-0.007915857
219	0xbd8d1a68	-0.06889802
220	0xbd8976ae	-0.067120895
221	0x3ac35da5	0.0014905228
222	0x3df14846	0.11781363
223	0xbd949555	-0.07255045
224	0xbd32b782	-0.043632038
225	0xbb997787	-0.004683438
226	0x3d000031	0.031250183
227	0xbd05e475	-0.032688577
228	0x3d9baa81	0.076008804
229	0xbd06df15	-0.03292759
230	0xbd8f67f4	-0.07002249
231	0x3e0300fc	0.12793344
232	0xbe465862	-0.19369653
233	0xbaa35bb7	-0.0012463246
234	0xbdb6d015	-0.08926407
235	0xbdb61c37	-0.088921
236	0x3c7acf34	0.01530819
237	0xbcd36fe9	-0.025810199
238	0x3dcc46c8	0.09974438
239	0x3d1b82a9	0.037966404
240	0xbdae4fe9	-0.085113354
241	0x3d84178d	0.064498045
242	0xbd507e8f	-0.050901946
243	0x3cd8d650	0.02646938
244	0xbcb66b46	-0.022267949
245	0xbc941d2a	-0.018080313
246	0xbd2fbdd3	-0.04290564
247	0xbc8d80d9	-0.017273353
248	0xbd4306e0	-0.04761398
249	0x3db77336	0.089575216
250	0xbe27d834	-0.16391069
251	0x3d27e52f	0.04099005
252	0x3d950d4c	0.07277927
253	0xbd2513b6	-0.040302
254	0xbce65841	-0.028118255
255	0xbe23a7ad	-0.15981932

hidden2.bias f4 [34]
0	0xbda2c96b	-0.07948574
1	0xbda26283	-0.07928946
2	0xbd5764da	-0.052586414
3	0xbd8770f3	-0.0661334
4	0x3d2b1c72	0.041775174
5	0x3d94ff17	0.07275217
6	0x3d7205b1	0.05908746
7	0xbbd826f1	-0.006596439
8	0x3dbc0446	0.091805026
9	0xbbc658c2	-0.006053061
10	0x3cd189bd	0.025578374
11	0xbbe7851b	-0.007065428
12	0xbd772db9	-0.06034634
13	0xbd0647d2	-0.032783337
14	0xbc7273ac	-0.014798086
15	0x3c3ce7ef	0.011529907
16	0xbda3ce5e	-0.07998346
17	0x3d3548a2	0.04425872
18	0x3d9f8922	0.07789828
19	0x3bc302d6	0.005951266
20	0xbd0364d8	-0.032078594
21	0x3cdeec65	0.027212331
22	0x3d513f8c	0.051085994
23	0xbd2b1159	-0.04176459
24	0x3ca78b46	0.020452153
25	0xbd8624bc	-0.06549975
26	0xbd89e32b	-0.06732782
27	0xbd8853e2	-0.066566244
28	0xbd480f1b	-0.04884253
29	0x3d2c5368	0.04207173
30	0x3d1ffbf4	0.03905864
31	0xbda02a45	-0.07820562
32	0xbdbd923e	-0.09256409
33	0xbdcb7040	-0.09933519
