Model/output_dir/1DCNN_0809_2e-3.pt (torch, 848869 bytes, 6 tensors)

conv.weight f4 [32, 1, 1, 71]
000000 7f 1d 4a 3e de 6f 46 3e 71 dc dd 3c b6 9e 3c be
       0.19737814 0.19378611 0.027082654 -0.18419918
000010 c0 39 0f 3e b6 70 e1 bd 32 5b e9 3d f6 20 6b bc
       0.13986874 -0.11007826 0.11394347 -0.01435112
000020 7d ca 49 bd a8 b5 29 be b6 9f 43 be 57 01 43 bd
       -0.049265373 -0.16573203 -0.19103894 -0.0476087
000030 ad 1a 20 be 4c df 52 3e 88 cc 1b bd d2 23 f7 3d
       -0.15635176 0.20592993 -0.038036853 0.12067379
000040 81 5e 0f 3d 47 44 a3 3d 2a c7 fc bd fa b3 84 3e
       0.035002235 0.07972007 -0.12342675 0.2591856
000050 9d aa 15 bb 8a fe 27 3e 0e 7c b7 bd 03 f3 f4 bd
       -0.002283729 0.16405693 -0.089592084 -0.11960413
000060 f7 dd 20 be 9b 27 56 be 7c 54 f9 bd 86 6b 12 3e
       -0.15709673 -0.20913546 -0.12174317 0.1429883
000070 ca 04 02 be 0b bd f5 bd e3 0e aa 3d 7e 63 0d bd
       -0.1269714 -0.11998948 0.08303621 -0.03451871
000080 38 20 c0 bd 7d 85 90 bb 5b 75 2f 3e 0e b8 15 3d
       -0.09381145 -0.0044104443 0.17134611 0.03655248
000090 b5 fc 91 3d 57 9f bb 3d 77 2e bd 3d df 59 08 3e
       0.07128278 0.09161251 0.09237378 0.13315533
0000a0 4a 7e 2c 3e 64 94 61 bd 91 33 cf 3d 56 c2 3e bd
       0.1684505 -0.055073157 0.101172574 -0.046572052
0000b0 0a 7b c7 3d c6 17 a5 bd bf ee 45 3d 3c ea cd 3d
       0.09740265 -0.08061175 0.04832339 0.10054442
0000c0 69 72 ff bc 41 36 b8 3c d8 e3 7a 3d 83 c0 11 3e
       -0.031182485 0.022486808 0.061252445 0.14233594
0000d0 e6 05 1b 3e a5 ca 27 be cb 9f 69 3d 1e 09 02 bd
       0.15138969 -0.16385897 0.057037156 -0.031746976
0000e0 91 a7 c6 bd c5 c5 98 bd 17 dd 17 3c b1 4e 09 be
       -0.096999295 -0.074595965 0.0092690205 -0.13408925
0000f0 79 2a bc bd 33 3e f6 3d 95 37 f9 bd d7 a6 0d be
       -0.091877885 0.12023582 -0.121688046 -0.13833176
000100 cc 0d ab bd 63 ee 03 bd 58 63 b0 bd 2d 40 62 3e
       -0.08352241 -0.032209765 -0.08612698 0.22094794
000110 9f 99 75 bd ae 39 25 be f5 16 5a bd 87 86 18 3e
       -0.059960958 -0.16135284 -0.05324455 0.14895068
000120 93 4a c8 3d 23 fb de 3d 64 57 8a bd 4a d6 1b be
       0.09779849 0.10887744 -0.0675495 -0.15218464
000130 89 6d 09 be c5 4b ce bd e6 7e 34 3e d1 19 0c 3e
       -0.1342069 -0.10073046 0.17626533 0.13681723
000140 dd 5e ab 3c 7c f9 29 be ff e3 ab bd b2 71 50 bd
       0.020919258 -0.16599077 -0.08393096 -0.05088968
000150 53 df f3 bd 24 39 64 3d 84 61 6a 3d 94 ab bc bd
       -0.1190783 0.055718556 0.057221904 -0.092124134
000160 0a a5 6e 3d 68 56 14 bd 56 e1 9e be 1d 8d 6b 3d
       0.058262862 -0.036215216 -0.31031293 0.057507623
000170 ba 50 a2 bd 9c 2b 3d bc d2 27 80 3d 8c 99 40 bd
       -0.079255536 -0.011546042 0.06257595 -0.047021434
000180 64 55 84 3d 8b 9e 1c 3e 9b 4c 1f 3d 4b f6 19 be
       0.064615995 0.15294854 0.038891416 -0.1503536
000190 e7 0b bc 3d 5e 96 cc 3d bc 28 64 bd 72 39 55 3c
       0.09181958 0.09989618 -0.05570291 0.013014184
0001a0 50 f2 42 3e 43 8c 7e bd 9a ac 71 bb 98 0f 06 bc
       0.19037747 -0.062145483 -0.003687656 -0.008182429
0001b0 a6 69 b2 bc a3 b4 58 bd f6 42 8e 3d c3 c1 53 3c
       -0.021778893 -0.052906644 0.069463655 0.012924614
0001c0 7c ab fb bd 18 a7 40 3c b0 68 e9 bd db eb 02 3e
       -0.122885674 0.011758588 -0.11396921 0.12785284
0001d0 38 12 48 3e a6 9f ab bd d7 2c b9 3d 65 bf 4d 3e
       0.195382 -0.0838006 0.09041756 0.20092542
0001e0 dd f9 ae 3d bd 99 05 be 48 a1 4d bd 0e d6 38 3e
       0.085437514 -0.13046928 -0.050202638 0.18050405
0001f0 f0 3a 13 be a8 59 8a 3d 58 c7 8c bd ea 3c e5 3d
       -0.14377952 0.06755382 -0.06873959 0.11193259
000200 d0 88 c6 bd 91 a6 75 3d 9e 83 f3 3d b6 9d 9a 3d
       -0.09694064 0.059973303 0.11890338 0.07549612
000210 a9 ee 98 bd 12 e1 d7 bd 75 b3 6b bd 8c c4 13 3e
       -0.07467396 -0.10540976 -0.05754419 0.14430445
000220 26 cf ee bc ad f7 a0 3d f9 61 ed 3d a4 43 46 3d
       -0.02915151 0.078597404 0.115909524 0.04840435
000230 d7 76 04 be f6 28 05 be be cf 84 bd 0b ac 17 bc
       -0.12935959 -0.13003907 -0.06484936 -0.009257327
000240 f8 bc 2c 3e 92 52 7a bd 25 34 34 bd 1d 03 be bd
       0.16868961 -0.0611139 -0.04399504 -0.092779376
000250 3c d9 e8 bc 2e 51 bd bd d7 1d 25 3e 86 04 8c 3c
       -0.028423898 -0.092439994 0.16124664 0.017092
000260 eb 19 92 bd fa 7e 1d 3e 75 22 28 bd cd 22 67 bd
       -0.0713385 0.15380469 -0.041048486 -0.056429673
000270 82 52 1d 3d 04 dd 4d 3e 3c c4 a9 bd 50 9b ef bd
       0.038408764 0.20103842 -0.08289382 -0.116995454
000280 b1 a8 81 3e b6 0b 6f be 25 54 ba bd 87 8f ac 3d
       0.25324014 -0.23344311 -0.090980805 0.08425813
000290 88 99 51 bd ec ab 18 3e fe 94 b0 bd 76 99 99 3c
       -0.05117181 0.14909333 -0.08622168 0.018749934
0002a0 73 41 ca bd 44 37 3f bd a5 8a 2f bd ae af 39 bd
       -0.09875765 -0.046683565 -0.04285683 -0.045333557
0002b0 68 d8 0f 3e 57 ea ac 3d 85 70 af 3d 11 1d 27 3d
       0.14047396 0.08443134 0.08566383 0.040799204
0002c0 c3 76 00 3e e1 c1 d0 3d d2 fa e2 bc 7f c6 d9 bd
       0.12545304 0.101932295 -0.027707491 -0.10633563
0002d0 f5 e3 97 bd 48 bd 31 bd c0 4b 8b 3c e5 a7 0d be
       -0.07416526 -0.043393403 0.017003894 -0.13833578
0002e0 e5 88 a7 3d 7c c2 25 bd 9d 7d be 3d 11 5d f8 bd
       0.081804074 -0.040468678 0.093013026 -0.12127126
0002f0 4d 8b b1 bc 51 99 38 be 66 fe 98 3d 88 72 d5 3d
       -0.02167287 -0.18027236 0.07470398 0.10422236
000300 89 1f 8d bd 2a 3d aa 3d 9c eb 37 3d 3f 55 2f 3e
       -0.068907805 0.08312447 0.04490243 0.17122363
000310 c4 d9 e5 bb 3f 41 5c be 27 4b 54 bd 18 4f 5b 3d
       -0.007014485 -0.21509264 -0.051829483 0.053542227
000320 b7 f4 00 3e 4e 6d 00 3e d2 48 5a 3d 59 e7 55 3d
       0.12593351 0.12541696 0.053292103 0.052222583
000330 54 33 df 3d b5 85 2e 3e 0a 6c e3 3c 74 6a f6 bd
       0.10898462 0.17043193 0.027761478 -0.12032023
000340 1c 22 5a be da 4f a7 bc 27 2c 96 3c fb 2c 2d 3d
       -0.21302074 -0.020423818 0.0183316 0.042279225
000350 6f 54 33 be 1e b9 cf bd 67 62 57 bd 2d 31 64 be
       -0.17512678 -0.1014273 -0.05258408 -0.22284384
000360 a2 5b 52 bd d9 c8 e1 bd 84 98 6f bd 13 b2 8a 3c
       -0.05135692 -0.11024637 -0.05849506 0.016930616
000370 42 55 d3 3d bb af 3b be 6a 4e 44 be 10 75 04 bd
       0.10318996 -0.18328755 -0.19170538 -0.032338202
000380 f9 b3 85 3d 54 1a 74 3d 96 59 86 3d 24 88 98 bd
       0.06528468 0.05959542 0.06560056 -0.07447842
000390 6e 30 92 bd 36 95 ea bd 91 70 82 3d 78 3a ff 3d
       -0.071381435 -0.11454241 0.063691266 0.12462324
0003a0 33 42 7b 3d dc 10 f4 bb 4c 65 13 3d d7 9a cc 3d
       0.06134243 -0.007448299 0.035985276 0.09990471
0003b0 da cf d9 bd be 3e 32 3e 25 63 ce bd c2 b9 37 be
       -0.10635348 0.17406747 -0.10077504 -0.17941955
0003c0 2d 2a d3 3c 32 fb 3e 3e d8 64 2a bd 67 f6 40 3d
       0.025776947 0.18650511 -0.04160008 0.047109988
0003d0 5f f0 b4 bd 25 d1 46 3c 47 6b 2d 3e 9a 91 d6 3d
       -0.0883491 0.012134825 0.16935454 0.1047699
0003e0 83 1b a3 bd 36 14 27 3d d1 72 51 bc 2c 00 08 3e
       -0.07964232 0.04079076 -0.012783722 0.13281316
0003f0 43 2c e5 3d f8 a3 f0 3d 23 44 2b 3e e0 5e df 3c
       0.11190083 0.117500246 0.16725211 0.02726692

conv.bias f4 [32]
000000 15 17 e5 bc 98 8e b8 bc 9a 92 a1 bd b2 40 e2 bc
       -0.027965108 -0.022528931 -0.0788929 -0.02761874
000010 fa a3 cb bd 99 fd 8f bb 07 5c c0 bd b3 86 27 bd
       -0.099433854 -0.004394245 -0.09392553 -0.040899944
000020 ba 3d 1f 3d 6c 5c 01 3c f6 c5 2c 3d d4 0c eb 3b
       0.038877226 0.00789557 0.042180978 0.00717316
000030 76 e1 26 bd 02 7e cb 3d b0 6f fd 3d ec f3 f7 bd
       -0.04074236 0.099361435 0.12374818 -0.12107071
000040 1b ca ad 3d e6 b4 cb 3c 9c 03 b5 3d 89 04 82 3c
       0.08485814 0.024866533 0.08838579 0.015871303
000050 08 6c 98 3c 68 2c 90 3d bf 48 95 bb 7b 84 9d bc
       0.0186062 0.0703972 -0.004555791 -0.01922821
000060 79 59 bb bd 62 1a f4 bd eb be 41 3d c7 72 b5 bd
       -0.09147925 -0.119190946 0.047301214 -0.08859783
000070 54 a6 8e 3d a1 35 db 3d db d3 ea bc c8 13 a5 bd
       0.06965318 0.10703588 -0.028665474 -0.080604136

hidden1.weight f4 [128, 1600]
000000 bd 97 9e 3d fc 7c cc bc 1d a9 dd 3c c5 e5 10 bd
       0.077437855 -0.024961941 0.027058179 -0.035375375
000010 0e 2e 6c b9 6d a6 9e 3d cb f2 a3 3d 7b 03 9f bd
       -0.0002252387 0.07746587 0.080052935 -0.07764336
000020 89 2d 43 bd 57 9a 88 bd 13 ad 9b bc 58 c0 83 bd
       -0.047650848 -0.06670063 -0.019003427 -0.06433171
000030 3f f4 40 bc d7 c1 93 3c 3d e1 94 3d 55 2a 5d bd
       -0.011776983 0.018036766 0.07269523 -0.05399545
000040 0d 9e 87 3d d7 26 5f bc 52 29 85 3d ca 2d cf 3d
       0.06621943 -0.0136201 0.06502022 0.101161554
000050 a7 7e 4a 3c 87 0c 33 bc fb 77 d9 bc 68 df 3c bc
       0.012359298 -0.01092828 -0.026546469 -0.011527874
000060 b9 48 00 3d a3 d7 08 bb ac 06 cb 3b dd 3c 14 3d
       0.031319354 -0.0020880483 0.0061958637 0.036190856
000070 80 73 93 bc 6c 97 1e 3b 15 63 49 bd 16 a0 9d bd
       -0.01799941 0.0024199141 -0.049166758 -0.076965496
000080 1c d2 b3 3c f0 38 d1 3d 75 13 ab 3c 79 87 a1 bd
       0.021950774 0.10215938 0.020883301 -0.078871675
000090 55 c2 32 3d 0c 07 bc 3d 18 05 9f bd c8 62 5f be
       0.04364236 0.091810316 -0.077646434 -0.21815026
0000a0 fa 37 b5 bc 66 bd 8c 3d e1 39 b4 3b ed 6c 86 bc
       -0.022121418 0.068720624 0.0055000638 -0.016409362
0000b0 ae 59 e8 3b 37 b4 32 bd 34 ab 67 3d f7 fc 31 bc
       0.007090769 -0.043628898 0.056559756 -0.010863534
0000c0 7c b8 a2 bc 12 78 7b bd 62 e9 4f 3c 4b 3a 86 bd
       -0.01986336 -0.061393805 0.01268992 -0.06554087
0000d0 49 87 18 bd 4a e6 ab bc 76 d3 99 3d 6e f4 ec 3c
       -0.037238393 -0.020983834 0.07511036 0.028925147
0000e0 ef b1 b2 3d c8 20 32 bc 08 f7 25 bd 6d 51 aa 3c
       0.087253444 -0.0108720735 -0.04051879 0.02079078
0000f0 3e 44 77 bd d0 80 0f bc 5e ef 4e bc 40 d8 65 3c
       -0.060367815 -0.008758739 -0.012630312 0.014028609
000100 df 42 c0 bc 72 df 9c bd ca c7 1f bd ff 96 d6 3c
       -0.023469387 -0.07659806 -0.039008893 0.026195047
000110 2a 9a 8b bd f0 1d 37 bd 66 3f 95 bb 2d b0 28 bd
       -0.06816514 -0.044706285 -0.004554677 -0.04118364
000120 29 b7 37 bb 40 98 34 3c 3f 1b 84 bc 66 cc a2 3c
       -0.0028032756 0.011022627 -0.016126273 0.019872855
000130 a2 8c 18 bd 4d 4e 3b bc 3f f9 46 bd c2 51 8e 3b
       -0.037243493 -0.011432243 -0.048577543 0.0043432424
000140 6d 82 b3 bd 89 82 f7 3d 2b b1 88 bc e2 e8 fd bb
       -0.08765111 0.120854445 -0.016686043 -0.007748709
000150 8b 98 0a bc 80 13 10 bd 3c 1f 2b 3c 75 29 e6 3d
       -0.008459221 -0.035174847 0.010444459 0.11238376
000160 3a 6b 8a 3d 5a 61 8d bd 2b 3a 5a 3e 74 f5 4e bd
       0.06758733 -0.06903334 0.21311252 -0.05052705
000170 cc 61 e8 3c 4a ca af 3d 46 f7 6d 3d c8 76 a2 3c
       0.028366946 0.085835055 0.058097146 0.01983203
000180 e6 1b 83 3c 84 07 8e bd a4 3a b2 3c 7e 52 27 bd
       0.016004514 -0.06935027 0.021756478 -0.040850155
000190 25 7d 9d 3d 81 8a f1 3a bd 5d f0 3c bc 2f 23 bd
       0.07689885 0.0018428118 0.029341573 -0.039840445
0001a0 30 93 5a bd e3 be 7d 3c 17 f1 9e bb 04 59 8c 3c
       -0.053363025 0.0154874055 -0.0048505175 0.01713229
0001b0 96 70 09 3d 80 06 dd bc 32 b5 c7 3c 9d 2d 7b bc
       0.033554636 -0.026980639 0.024378393 -0.015330699
0001c0 b4 aa aa bc cc e3 b8 bc d3 22 a8 bc d2 ca 94 bb
       -0.02083335 -0.02256956 -0.020524418 -0.0045407796
0001d0 c6 69 3b bd 94 fc 35 3d 54 50 68 3b 77 d2 3c 3c
       -0.04575517 0.04443033 0.003544827 0.011524788
0001e0 71 81 a1 bc 46 08 86 3c 38 90 6e 3d 32 29 d2 bc
       -0.019715043 0.016361367 0.058243006 -0.02565441
0001f0 46 e8 1c bc c0 eb 8c 3c 6c 48 a0 3b 6b 21 65 bd
       -0.009576863 0.017202258 0.004891446 -0.055940073
000200 e3 0b 80 3c 16 bc 2f bc 34 4d 14 bc 98 4b 8d 3d
       0.015630668 -0.0107259955 -0.00905161 0.06899184
000210 5f 47 33 bd 7b 9d 8b 3d 6e 62 95 3c 93 86 f3 3b
       -0.043769237 0.068171464 0.018235411 0.007431814
000220 40 a5 46 bd 94 0a b5 3b b7 d3 3a bd 2d fa bc 3c
       -0.04849744 0.0055249427 -0.045612063 0.023068512
000230 2e 09 3e bb d5 f6 52 bd de c7 5d 3c ff d9 10 3d
       -0.002899717 -0.05150493 0.013536422 0.035364147
000240 0a de f4 bc ac 07 1e 3d f6 09 4d be 55 9e 8b bc
       -0.029891033 0.038581535 -0.20023331 -0.017043272
000250 f0 0e d2 3d 60 c0 45 bd b3 81 85 bc 85 a9 43 bd
       0.10256755 -0.048279166 -0.016297197 -0.04776909
000260 bb 19 b3 bb d2 fe f7 3b 5a e1 02 3d 06 38 8c 3d
       -0.005465714 0.0075682187 0.031953193 0.06846623
000270 58 b4 ee 3d 4d a9 42 bd 01 9c 06 bd ec 6a df bc
       0.116554916 -0.04752474 -0.03286362 -0.027272664
000280 02 c2 05 bd 7e 80 ad bc 38 73 64 bc de c8 d9 3c
       -0.032655723 -0.021179434 -0.013943486 0.026585039
000290 8c 58 75 bc 4a c3 0f bc ce 5d 8d bb 46 70 8a bd
       -0.0149747245 -0.008774588 -0.004314161 -0.06759696
0002a0 8e a3 4b 3d 0d cf 92 3b 94 c0 88 bd 5b 98 2b bd
       0.049716525 0.004480249 -0.06677356 -0.041893344
0002b0 88 11 82 bd b4 26 f7 bc 32 80 67 3d de 37 61 3d
       -0.06351 -0.030169822 0.05651874 0.05498492
0002c0 b2 56 73 3d 99 79 ba 3c 81 c4 50 3d 54 86 6a 3c
       0.05940885 0.02276306 0.05096865 0.014314253
0002d0 06 cb 99 3c d7 de c5 3c 23 56 d4 3c 03 81 18 bd
       0.018773567 0.02415411 0.02591998 -0.03723241
0002e0 db cd d7 bc 9d c4 00 bd bf 05 c8 3b 90 4e 21 3c
       -0.026343277 -0.031437505 0.0061042006 0.009845391
0002f0 6b 5a 9d 3d c1 cc bf bc 53 3f 08 be 39 00 1c 3d
       0.076832615 -0.023413064 -0.13305406 0.03808615
000300 e1 7c 15 bc 28 ca 2a bd ab 6e ec 3d f0 84 12 3b
       -0.009124012 -0.041696697 0.11544546 0.002235707
000310 b0 fb 42 3b da 1c 06 3c 3b 92 b7 bd f2 ee 68 3d
       0.0029752068 0.00818559 -0.08963438 0.0568685
000320 d8 61 e5 3c a8 91 78 3b 6d 19 0e bd eb d6 33 bd
       0.028000757 0.0037928615 -0.034692217 -0.043906134
000330 27 69 70 bb 74 65 0d 3b 33 b7 ea bc bf 5c 38 bd
       -0.003668377 0.0021575363 -0.02865181 -0.045010325
000340 bd 4d c5 3c 13 76 6a bc 58 98 48 3a 8d 2b e7 3b
       0.02408492 -0.014310378 0.00076520955 0.007054752
000350 f2 0c 9b 3c 00 3f a2 3c fb ef af 3b 4c 38 48 ba
       0.018927071 0.019805431 0.005369184 -0.00076377834
000360 fd 20 f1 bd 31 ca 8f bb f1 84 b6 3d b6 80 ac 3c
       -0.1177387 -0.0043881168 0.08912075 0.021057468
000370 05 6f 36 bd b3 ee 82 bc 58 9f 3f 3d db c4 b4 3d
       -0.04453947 -0.015982961 0.04678282 0.0882661
000380 0e 88 a4 bb 76 a9 bd bd b5 fd 4a bd f0 25 58 3d
       -0.005021102 -0.09260838 -0.04955836 0.052770555
000390 e2 4c 8f bb 9a 8a c7 3c 3c 62 21 bd 44 27 80 bd
       -0.004373179 0.024358083 -0.039400324 -0.06257489
0003a0 2a 57 75 3d 0a d1 0e bd a4 c0 63 3c a2 a5 b5 3c
       0.05989758 -0.034867324 0.01390091 0.022173706
0003b0 cf cb 06 bd e3 bb 12 bd dd fe 04 3d 92 56 50 bd
       -0.03290921 -0.035823714 0.03246962 -0.05086381
0003c0 23 fd ac 3c 97 83 75 3c 92 f4 3b 3d e1 0e 44 3c
       0.021116799 0.014984987 0.045887537 0.011966438
0003d0 c9 c9 f4 bc fe 4d eb bb 7b ca 93 bd 0d da 59 b9
       -0.029881375 -0.0071809283 -0.072163545 -0.00020775963
0003e0 66 88 c7 bd 42 ee d4 3c e5 19 39 bd 21 06 aa bc
       -0.09742813 0.025992516 -0.04519071 -0.020754876
0003f0 34 85 30 bd 68 dc 97 bc 9b 02 ad 3b f4 ea 0e bb
       -0.043095782 -0.018537715 0.0052798516 -0.0021807523

hidden1.bias f4 [128]
000000 9c 87 b6 3c 90 c4 a5 bc 2d e2 70 3c a1 e0 05 bc
       0.02228146 -0.02023533 0.014702362 -0.0081712315
000010 61 c2 1f bc 46 ca 18 3c 14 6e 6f ba c6 1e b7 bb
       -0.009750933 0.0093255695 -0.00091335294 -0.0055883853
000020 2b 09 2e bc d1 df a2 bc 87 fc 7d bc 08 da a8 bc
       -0.010622303 -0.019882115 -0.015502102 -0.020611778
000030 2f 1b ad bc f8 4a 9f bc 78 52 b1 bb d9 a6 22 3c
       -0.021131126 -0.019444928 -0.0054114424 0.009927475
000040 f3 b4 33 3c 22 da 85 3a 9e 45 22 bb 6a a8 32 bb
       0.010968435 0.0010212103 -0.0024760733 -0.0027261027
000050 f4 f6 49 3c fb 07 8e 3b 38 94 98 3c 16 23 88 bb
       0.012326945 0.0043344474 0.018625364 -0.004154573
000060 21 06 d4 3c 07 c3 f4 bc 6b 36 9d bc 18 4e 60 bc
       0.025881829 -0.029878153 -0.019190988 -0.013690494
000070 1e b8 0c 3c 0f 41 95 3a 83 73 4d bc 27 a9 16 3c
       0.008588819 0.0011387187 -0.012539747 0.0091956025
000080 d4 14 8e bb 82 bf 49 3c 44 7c ae ba f6 01 41 3c
       -0.004335979 0.012313725 -0.001331218 0.011780253
000090 ef fe 1a ba e8 1e 0b bd c0 05 83 bc a2 87 bc 3c
       -0.0005912622 -0.03396502 -0.015993953 0.023013894
0000a0 da f6 dc ba a5 15 79 bc de 84 da 3b 2e 21 da 3c
       -0.0016858235 -0.015202914 0.006668671 0.02662715
0000b0 a9 65 ef bc b5 80 b3 3c 60 73 69 3c b8 4e ef 3b
       -0.02922328 0.021911958 0.014248699 0.007303085
0000c0 8a cc f5 3c 66 f3 8f 3b 60 8c 5a bb 04 e8 26 bb
       0.030004758 0.004393029 -0.003334783 -0.0025467882
0000d0 ea 1b 36 bc 67 3d a9 3a ca 51 6c 3c a3 c0 b0 bb
       -0.011115054 0.0012911976 0.014423797 -0.005394058
0000e0 2f 32 d7 bc d2 76 96 3c 1d 69 5c 3b 3d f8 56 bc
       -0.026269047 0.018367205 0.0033631988 -0.013120708
0000f0 a1 8a 0e bd 50 4d 68 bb 20 bb 19 bc 20 21 92 3c
       -0.034800176 -0.0035446472 -0.009382993 0.01783806
000100 9d 9d c7 3c 78 96 7d 3b 6d 34 9f 3c 21 78 a8 3c
       0.024367148 0.0038694423 0.019434178 0.020565094
000110 75 bb ba 3b 97 1b c9 bc 93 08 59 bc c6 e4 77 bc
       0.005698616 -0.024549289 -0.013246673 -0.015130227
000120 f7 0e dd bc 5f ea b6 bc be 2b 2e 3c 92 8f 11 bd
       -0.026984675 -0.022328554 0.010630546 -0.03553731
000130 2a c9 32 3b 67 cb 22 bc 55 26 ab 3c c2 ba c6 3c
       0.0027280548 -0.00993619 0.020892302 0.024258975
000140 80 ea d2 bc 90 6f bc bc 25 a7 4e 3c d0 15 b8 bc
       -0.025746584 -0.023002416 0.012613093 -0.022471339
000150 0d d6 52 3b 07 02 92 bc 4b a3 44 ba 29 c1 99 bc
       0.0032171041 -0.017823232 -0.0007501139 -0.018768864
000160 e1 94 fa bc e3 b7 72 bc 3d c0 50 3c b1 82 55 bc
       -0.03058857 -0.01481435 0.012741146 -0.013031648
000170 8f 2f f4 3c b5 43 10 3d a4 f0 c0 bc 99 80 37 ba
       0.029807834 0.03522082 -0.023552246 -0.00070000585
000180 90 45 a4 3c ea bf 20 3c 35 4a db ba 54 51 2e 3c
       0.020052701 0.009811381 -0.001673049 0.010639507
000190 a3 ee ba 3a 82 c8 0a ba 58 8d 0a bd 77 5a b7 bc
       0.0014261793 -0.000529416 -0.033826202 -0.022382004
0001a0 65 86 46 3c 4d 97 45 3c 77 72 45 3b d2 e7 d6 3c
       0.012117003 0.012059999 0.003012804 0.026233587
0001b0 c4 96 bd bc 0d 5a b4 3c 86 00 fe b9 05 35 1c 3c
       -0.02314318 0.022015596 -0.00048447045 0.009534125
0001c0 fa cd eb 3c 3f 7d 94 bb 63 8f 07 3c 92 d0 cd 3c
       0.02878474 -0.004531532 0.008273932 0.025123868
0001d0 fa 0c a6 3c 90 e6 b2 3c 3f fc 10 bc 90 fb 69 3c
       0.02026986 0.021838456 -0.008849203 0.014281169
0001e0 e5 d9 ce 3c 0f 5c ed 3c 30 2f 3b bc e1 ac 88 bb
       0.025250385 0.028974561 -0.011424825 -0.0041709994
0001f0 98 76 a2 3a 94 63 42 bd 1d 43 b6 3c 82 0b 9c bb
       0.0012394963 -0.047458246 0.022248799 -0.004762114

hidden2.weight f4 [34, 128]
000000 2f eb a9 3d 97 95 9d 3d 09 e6 00 bd 01 11 95 bd
       0.08296811 0.076945476 -0.03146938 -0.07278634
000010 aa 0a 90 3d 6b e3 a8 3d 6d 84 17 3d 7f 41 06 be
       0.07033284 0.082465015 0.036991525 -0.13110922
000020 15 5e d0 ba a3 28 d0 3d a1 30 b9 bd 58 b8 49 bd
       -0.0015897179 0.10164001 -0.09042478 -0.04924807
000030 7d f5 9b 3c 80 b0 cd 3c b1 12 a8 3d 60 f8 84 3d
       0.019037956 0.025108576 0.0820669 0.06492686
000040 00 e2 2c bd 60 8b ba bd 8c 29 80 3d 26 1b d1 bb
       -0.042207718 -0.09108615 0.062579244 -0.00638141
000050 b9 bb 74 3d 85 09 1f bd 80 15 00 bd 54 45 e9 3d
       0.05974934 -0.038827438 -0.031270504 0.113901764
000060 c9 e2 3a 3d 88 1f 4e bc d4 58 91 bd 5a 26 e2 3d
       0.045626435 -0.01258076 -0.07097021 0.11042471
000070 6b ff 9b 3b c7 2f cc bd df 30 00 3d f2 31 35 3d
       0.004760673 -0.0997005 0.031296607 0.044237085
000080 a5 d4 54 bd 8a d1 49 3d da d2 91 bd 4b 8d 8a bc
       -0.051960606 0.049272098 -0.07120295 -0.016913077
000090 dd d8 08 3c b6 6f c5 bd e8 bc 31 bd 03 37 c0 3d
       0.0083524855 -0.09640448 -0.043393046 0.09385493
0000a0 69 1c a1 3d ad 3f 8f bd df 45 ba 3c ed a4 a5 bd
       0.07866747 -0.06994567 0.022738395 -0.08088098
0000b0 74 8d af ba fd 87 d4 3d b0 09 9f bd 86 d6 82 bd
       -0.0013393597 0.103775 -0.077655196 -0.06388573
0000c0 0b 1e 81 3d 11 bd 95 3d 1f 1f 82 3d c6 88 99 3b
       0.06304558 0.07311452 0.06353592 0.004685494
0000d0 f9 50 81 bd b6 dc d6 bc f2 5d b2 bc ea 67 c7 3c
       -0.063142724 -0.02622829 -0.021773312 0.024341542
0000e0 f4 8a 57 bd 5a b0 fd bd 24 87 ba 3d 54 1b 8d 3d
       -0.05262275 -0.12387152 0.09107807 0.06889978
0000f0 50 2b 95 bd b9 10 0d 3d 46 8d 30 3d 89 9e 64 bc
       -0.07283652 0.034439776 0.04310348 -0.013953813
000100 ed 99 f0 bc f6 11 b0 bb ec cb ca 3d 98 c3 c7 bd
       -0.029370273 -0.005373235 0.09902176 -0.097541034
000110 e1 75 d4 3d a8 3a 9b bd 36 cc 0d bd e8 e0 66 bb
       0.10374046 -0.07579547 -0.03461858 -0.003522927
000120 f5 df 8b bd 5b 84 a9 3c 3a a4 b5 bc 24 89 a3 3d
       -0.06829826 0.020692995 -0.022173036 0.07985142
000130 b1 5e d9 3d f4 38 a2 bd 4d b6 a9 bd 67 26 4c 3d
       0.10613764 -0.07921019 -0.08286724 0.04984131
000140 b9 82 7d 3c 64 4a 6b bd 76 e3 7e bd c9 ca c7 bd
       0.015473061 -0.05744399 -0.062228642 -0.09755475
000150 da dc f0 bd 22 75 94 bb 60 71 01 3d 95 0d 3e 3d
       -0.11760874 -0.004530565 0.031602263 0.04639967
000160 5d 92 67 3d c7 c2 bf bd 13 fc 81 3d 27 9e 00 3e
       0.056536067 -0.09363323 0.063469075 0.1256033
000170 7c 2a f7 3d 97 fe 6b 3c 6b 33 c3 bd fd b9 88 bd
       0.1206865 0.014403961 -0.095312916 -0.066760994
000180 99 ca 23 3d 0a 9c 04 3d d6 1e aa bc 50 42 36 ba
       0.039988134 0.032375373 -0.020766657 -0.00069526304
000190 23 09 ca bd 25 7a c9 3d 3d 28 5c bd 21 cd 0e bd
       -0.09865024 0.0983775 -0.05374931 -0.034863595
0001a0 f9 cb 5f bd 48 44 0e bd 63 29 38 3d d8 7b 82 3d
       -0.054637883 -0.034733087 0.044961344 0.063712776
0001b0 be ea c6 bd 68 1c 09 3d d9 09 21 3c ce 39 bf bd
       -0.09712742 0.033474356 0.009829008 -0.09337197
0001c0 a4 09 b4 3d 34 72 d4 bd 17 ba 8b bc 69 af 43 3d
       0.08790901 -0.10373345 -0.017056508 0.047774706
0001d0 4d bf 9f bd 5e bf 80 3d 23 e8 48 bd 59 c8 ad 3c
       -0.078001596 0.062865004 -0.049049508 0.021213697
0001e0 fa 93 cc bd 5b 4d 14 bd ed bb e0 bb ea 3c de bd
       -0.09989162 -0.036206584 -0.00685834 -0.10851462
0001f0 18 78 a8 3c 09 ae 67 3d 9a 81 d5 bd 4b 30 4b bd
       0.020565078 0.056562457 -0.1042511 -0.049606603
000200 37 25 89 bc 51 50 05 bd f1 dc f6 bd 63 50 06 3d
       -0.016741378 -0.0325473 -0.1205386 0.032791506
000210 6a 37 ed bd c7 52 5f 3d 8e 46 e0 3d d6 86 d3 3d
       -0.11582835 0.054522302 0.10950957 0.10328452
000220 75 4f 9b 3c 8a 3a 10 bd d1 08 d2 bd ae 93 aa 3c
       0.018958787 -0.035212077 -0.10255588 0.020822372
000230 c3 5f 1b 3c ac cc 98 3d 31 b9 c6 3d 61 03 24 3d
       0.009483281 0.07460913 0.09703291 0.040042285
000240 a5 89 3e 3d 0d 43 ab 3d 17 b5 d3 3d d1 4c 60 3d
       0.046517987 0.08362398 0.103372745 0.054760758
000250 b7 11 98 3d 0a 5a a1 3d dd e9 cf 3b ba 62 d8 3d
       0.07425254 0.07878502 0.0063450173 0.105657056
000260 25 97 12 be d0 d3 81 bc 84 61 fb 3c fb 82 75 bd
       -0.1431547 -0.01584807 0.030686148 -0.059939366
000270 5e c1 88 bd 97 6b de bd 59 f7 20 be ff b0 38 bd
       -0.06677507 -0.10860365 -0.15719356 -0.04509067
000280 b3 5b 06 3d e4 1a 0c be 20 d6 87 3d 45 65 ca 3d
       0.032802295 -0.13682133 0.06632638 0.09882597
000290 0b 2f be 3d fb 93 c2 bd e0 07 79 3d 8f bb 13 be
       0.092863165 -0.09500881 0.060798526 -0.14427017
0002a0 bd 3a 15 be a8 b4 79 bd c7 25 3f bc fa ac 90 3d
       -0.14573188 -0.060963303 -0.011666722 0.07064243
0002b0 79 33 69 bd 48 99 bc 3d 8e a9 bd 3d 1a fb 2d bd
       -0.056933854 0.092089236 0.092608556 -0.042475797
0002c0 c8 29 c2 3d 59 58 8d 3d 54 91 da bd a6 ad 56 3d
       0.094806254 0.069016166 -0.106722504 0.052411698
0002d0 c4 94 6b bd 1c 8c 4d 3d 38 2f ed 3c 1a 0f 50 3d
       -0.05751492 0.050182447 0.02895318 0.050795652
0002e0 2c d3 a5 3b fa bf ca bc 5c fe e0 3d 06 f7 c0 3d
       0.005060574 -0.024749745 0.10986015 0.09422116
0002f0 82 c3 69 bd af 9c f7 bd e1 c1 50 bd 3c 92 d3 bd
       -0.057071216 -0.12090432 -0.050966147 -0.10330626
000300 0f 7e 30 bd bc da 8b bd c7 c4 0e be a6 5d 78 bd
       -0.04308897 -0.0682883 -0.13942252 -0.060636185
000310 75 65 11 3c e6 04 0c 3d 73 22 51 3d 4a d0 76 3d
       0.008874287 0.03418436 0.051058244 0.060257234
000320 9f 2d d2 bc e1 f9 86 bc 55 2a 1f be 44 8c 8d bd
       -0.02565652 -0.016476573 -0.15543492 -0.06911519
000330 e3 8e f3 bd 43 33 e6 3c a0 75 da 3d 0f 96 a8 3d
       -0.11892488 0.028100615 0.106669664 0.082317464
000340 95 ba bc 3c 0c 06 8e 3a 36 1e b0 3d 46 d7 52 bd
       0.023038188 0.0010835542 0.08599512 -0.051474832
000350 61 ba e8 3d 32 17 5b bd 01 f4 53 bd 50 f1 42 3c
       0.11363674 -0.053488918 -0.051746372 0.011898354
000360 28 ed ea 3c 36 f9 ad 3d 00 c7 28 bd 16 7b 8c bd
       0.028677538 0.08494799 -0.041205406 -0.06859414
000370 6a 3e 69 3d 57 27 0a 3e ab 4c 22 bd 1e 26 71 bd
       0.05694429 0.1349157 -0.039623898 -0.058874242
000380 d1 a7 ea bd 11 01 1b 3e 47 7b ef 3d f7 ba e2 3c
       -0.1145779 0.15137126 0.11693435 0.027677042
000390 29 f5 6f bd a8 66 ad bd 5a be 3c 3d cf c4 70 bd
       -0.058583412 -0.08466846 0.04607997 -0.05878144
0003a0 bd 5c e4 3c a7 69 b3 3d bc 77 63 bd 26 d7 22 be
       0.027876252 0.08760386 -0.05553411 -0.15902385
0003b0 02 fb b9 bd 84 ac 60 bd 34 c4 e3 3c b0 0a 8f 3c
       -0.09081079 -0.054852024 0.027803518 0.01746115
0003c0 a1 f8 e5 3d 00 ec 08 3e 04 4a 50 3d e4 bb 8d 3d
       0.11229063 0.13371277 0.050851837 0.06920603
0003d0 88 f4 28 3c 42 1e bc 3d b1 be 9c 3d 6a c8 ab 3b
       0.010312207 0.09185459 0.07653559 0.005242397
0003e0 2d 7d 0a bd 7e db 16 bd 1a 5f 8f bd 44 23 c1 bc
       -0.033810783 -0.036830418 -0.07000561 -0.023576386
0003f0 46 70 4e bd 1c 2b 41 bd 80 37 f7 3d 77 6e 2c bd
       -0.05040004 -0.047160253 0.12071133 -0.042097535

hidden2.bias f4 [34]
000000 28 9e d6 3c e4 78 c2 3d 5d 4e cb 3d 30 01 1a bc
       0.026198462 0.09495714 0.09927056 -0.009399697
000010 79 06 6b bc 00 72 61 3d f2 8a d1 3d be 52 8c bd
       -0.014344805 0.05504036 0.1023158 -0.06851719
000020 60 47 02 bd 3b 92 a9 bc 2c 60 9a bd ae 7b 63 3d
       -0.03180635 -0.020699611 -0.075378746 0.055537872
000030 0f 23 89 bd c9 e5 3b ba d1 c2 8d bd 23 ff 69 3d
       -0.0669614 -0.00071677245 -0.06921924 0.057128083
000040 96 d8 bc bd 78 4e 17 3d a4 42 6d bd 97 b0 8c 3c
       -0.09220998 0.036940068 -0.05792488 0.017174048
000050 77 72 b4 bd b8 e5 0e 3d 3d 67 1a 3d 3d ac e8 3c
       -0.08810895 0.034887046 0.037696112 0.028402442
000060 e8 15 88 bd bf fc e6 bc 8a 73 c9 bc 08 c6 6e bd
       -0.06644803 -0.02819669 -0.024591226 -0.058294326
000070 94 0c 29 bd bf bc 40 3d fd 24 cd bd 89 c6 58 bd
       -0.04127176 0.047055002 -0.100168206 -0.052923713
000080 d8 75 a2 bd 77 e4 23 bd
       -0.07932633 -0.040012803
