Model/output_dir/1DCNN_0809_15e-4_1.pt (torch, 848869 bytes, 6 tensors)

conv.weight f4 [32, 1, 1, 71]
000000 66 e7 60 bd e0 b1 73 be fe e9 9e 3d e5 55 54 bd
       -0.05490818 -0.23798323 0.07759474 -0.051839728
000010 1b e0 ff bb d4 b6 dc bb 2b c0 7c 3c 39 b9 f8 bd
       -0.007808698 -0.006735662 0.015426676 -0.121447034
000020 1a c2 1e 3e ca ea a7 3d ba 30 8a bd ac ea 64 bc
       0.15503731 0.08199079 -0.06747575 -0.013971966
000030 e4 b8 22 3c f8 66 a3 bc a6 d2 aa bd b7 d2 33 bc
       0.009931777 -0.01994656 -0.08340959 -0.010975531
000040 81 84 d0 3d 79 ec 17 3e fb cf 24 3e 67 be 7c 3e
       0.10181523 0.14836301 0.16094963 0.24682008
000050 6d c6 c0 3e f9 bb c8 bd 4d 03 15 bd 8e e9 4a be
       0.37651387 -0.09801478 -0.0363801 -0.19815657
000060 75 c6 92 3e dd a3 20 3e c0 fc 29 be af 35 fc bd
       0.28667036 0.15687509 -0.16600323 -0.12314927
000070 9f 13 82 be 6a 1c 76 bd 1e fe 25 bd 22 d3 32 3e
       -0.25405595 -0.06008569 -0.04052555 0.17463353
000080 c9 49 36 3d eb 78 59 3e 8f b4 9c 3c 8f ce 74 3d
       0.04450396 0.21237533 0.019129066 0.059767302
000090 41 7d 44 bd 45 c4 6d be 7d 67 1b 3c 6f 95 a4 3d
       -0.047971014 -0.23219402 0.009485123 0.08036315
0000a0 80 d6 10 3d f2 e6 91 bd 7a c5 4f be ee 74 b8 bd
       0.035360813 -0.071241274 -0.20290175 -0.090066776
0000b0 e2 80 94 be a9 38 b6 bc c8 5a bb 3d c1 69 1d be
       -0.2900458 -0.022243815 0.091481745 -0.15372373
0000c0 3b 92 b8 bd 17 b3 3c 3e f2 cf bd bc cf 08 91 bd
       -0.09012266 0.18427692 -0.023170445 -0.07081758
0000d0 cd 96 00 bd 26 31 af bd a1 68 4d 3e 16 f7 37 bd
       -0.031393815 -0.08554296 0.20059444 -0.044913374
0000e0 e5 23 13 3e 41 76 10 bc 10 17 20 3e 4a d2 ae 38
       0.14369161 -0.008817256 0.15633798 8.336136e-05
0000f0 59 bd b9 3d e6 24 de 3c 37 55 47 bd ea ae 6c be
       0.09069318 0.027117204 -0.04866525 -0.231136
000100 2d 60 4a 3e cb 4f ab be 4e 34 b7 3c d0 1e a9 bc
       0.1976325 -0.33459315 0.022363808 -0.020644575
000110 8a 9a ad 3d a7 8f fe 3d 06 d8 b4 39 c0 83 cb 3d
       0.084767416 0.12429743 0.00034493225 0.09937239
000120 0a b6 7b bd fc df 5d bd 82 8e 2a bd 63 06 c7 3c
       -0.061452903 -0.054168686 -0.041639812 0.024295038
000130 2a 6e 22 3e f0 f3 80 be a0 18 a1 bd 3d b2 25 3d
       0.15862337 -0.2518611 -0.07866025 0.040453184
000140 2c 31 85 3e 0b c9 d8 3c 19 a8 c5 bd da 46 5b 3e
       0.26014078 0.026463052 -0.09651203 0.21413746
000150 58 37 57 3e 4c 56 b8 bd fa 24 ce bd 56 1a 36 3e
       0.21017206 -0.09000835 -0.100656465 0.17783484
000160 b3 6b 56 3d 5a 80 42 3e 7f 64 d1 bd 91 e1 4d be
       0.052348804 0.18994275 -0.10224246 -0.20105578
000170 fa a5 55 3d ab 57 45 3c c7 f2 8a be 14 f8 75 be
       0.05216024 0.012044827 -0.2713835 -0.24020416
000180 51 51 03 3e 9d c6 df 3d 50 5c 07 3e 46 3a 00 be
       0.12823988 0.10926554 0.13218808 -0.1252223
000190 1a 40 04 3e 95 d2 52 3c 9d 48 9b bd 5b 58 e1 3c
       0.12915078 0.0128675895 -0.07582209 0.027507951
0001a0 0c 84 10 be 15 ad 51 bd 85 a1 49 3e 8b e4 15 3e
       -0.14112872 -0.051190455 0.19690521 0.14637963
0001b0 fe f9 41 be e3 4d df 3d ef 04 96 bd 01 d2 b2 bc
       -0.1894302 0.109035276 -0.0732516 -0.021828653
0001c0 aa 34 69 3e ca b4 0a 3e fd 68 5d be 01 bb 48 bd
       0.22773996 0.13545528 -0.21622081 -0.049006466
0001d0 7a a8 7a 3d 6a b5 0b be 79 bb 26 3e 4b 01 f9 bd
       0.061195828 -0.13643423 0.16282453 -0.1215845
0001e0 a8 4d e1 bc d1 c0 15 be 47 0f 25 be 78 2b b8 bd
       -0.02750285 -0.14624335 -0.16119109 -0.08992666
0001f0 99 e1 d6 3c da e4 aa bc 13 8c 87 3c 89 be 16 3e
       0.02623062 -0.020861078 0.016546285 0.14721121
000200 c1 d6 e5 3d 0a 37 25 3d 37 78 09 bd 6d a3 70 bd
       0.11222602 0.040335692 -0.03356191 -0.058749605
000210 23 9c f7 3d b3 62 39 be 9c 96 44 bc 89 b1 33 be
       0.120903276 -0.18104057 -0.011998799 -0.17548193
000220 e0 1a a1 3d d6 ae 7f bd ba 68 31 be de 5a c7 3c
       0.07866454 -0.062422596 -0.17325106 0.024335321
000230 47 1e f7 ba 08 44 6e 3e 6d 98 33 3e 99 6d 35 be
       -0.0018853628 0.2326814 0.17538615 -0.1771759
000240 5f 2c 08 3e 07 c7 ec bd e3 e2 0a be b8 72 94 bd
       0.13298176 -0.11561399 -0.13563113 -0.07248443
000250 ec c1 37 3e d0 72 c7 bd bb 32 7d bd 0d 95 17 bd
       0.17945069 -0.097386956 -0.06181596 -0.03700738
000260 aa 21 e4 3d 72 6b 0b be 18 67 e9 3a 48 e3 cc bd
       0.111392334 -0.13615206 0.0017807214 -0.10004288
000270 b9 bd 09 3e 21 20 22 be 31 4e 4c 3e ff 7f 4f bd
       0.1345128 -0.15832569 0.19951703 -0.050659176
000280 0f a7 92 3e 5e e2 c3 be 7c 06 aa bd 9a 37 a9 3b
       0.2864308 -0.38258642 -0.08302018 0.005164099
000290 2a dd 5c 3b 15 8c 55 bd 98 9e 1f 3e 8c b5 6e 3e
       0.003370116 -0.052135546 0.15587842 0.23311442
0002a0 9a 17 a2 3d 74 87 7f bd 6a 89 ee bd 82 9b 53 be
       0.07914658 -0.062385038 -0.116473034 -0.2066479
0002b0 bc 7f 79 3e ca 25 1e 3d 32 57 0e be 0d 10 a7 3e
       0.24365133 0.038610257 -0.1390045 0.32629433
0002c0 95 c7 1c 3e 07 93 e5 bd b7 37 f5 bc 44 a7 6b be
       0.1531051 -0.11209684 -0.029933793 -0.23013026
0002d0 06 f8 30 3e 1c 76 3f be 34 5b 26 bd 7a c8 ef bd
       0.17282113 -0.18697399 -0.04061432 -0.1170816
0002e0 a7 d3 47 be 2b ff 44 3e 78 07 ac bd b9 47 11 be
       -0.19514333 0.19237964 -0.08399862 -0.14187516
0002f0 84 36 39 3e a3 03 76 3c 34 88 a4 3d 22 c4 28 be
       0.18087202 0.0150155155 0.08033791 -0.16481069
000300 d1 c4 e7 bb b3 6f 48 bc 5a 80 06 3e a5 b3 4b 3e
       -0.007073023 -0.012233662 0.131349 0.19892748
000310 01 ad 23 bd bb 7a 71 3d a3 9c 4b bd a6 73 a5 bd
       -0.03995991 0.058954936 -0.049709927 -0.08078699
000320 78 7f 8a bd 31 0a 9c bc bf 5a 28 3d f0 a1 54 be
       -0.06762594 -0.019047828 0.041102167 -0.20764899
000330 aa ca 40 bd e9 6a 0f 3e 40 c6 1b be 8f 3a 56 bc
       -0.047068276 0.14005627 -0.15212345 -0.013075485
000340 1e 47 cc 3c 5b 51 01 bd 30 22 6c 3d 94 24 76 3e
       0.024936255 -0.031571727 0.05764979 0.24037391
000350 9c df 9c 3d 72 7a 2b 39 b9 6a 91 bd 3e c7 3c bd
       0.076598376 0.00016353445 -0.07100434 -0.04608845
000360 72 89 f7 3d 0c e8 e0 3d 98 bd ea bd ac 1e 68 be
       0.120867625 0.109817594 -0.114619434 -0.2266795
000370 82 b9 1d 3e df 58 da 3d b6 cc 1c be 3f 99 a9 3d
       0.15402797 0.10661482 -0.15312466 0.082811825
000380 df 63 c5 3d 9c 79 c7 bd d6 d5 6b 3e fe 57 77 bd
       0.096381895 -0.09739992 0.2303079 -0.06038665
000390 9c 8f 16 3e a7 69 0e be c5 44 ef bd 93 ad 14 3e
       0.1470322 -0.1390749 -0.116830386 0.14519338
0003a0 3e 48 ae be 35 b9 aa bd b1 ba 36 bd 08 2b b0 3d
       -0.3403949 -0.08336107 -0.044611637 0.086019576
0003b0 8a 25 9c be de 85 df 3c 1c c5 0e be e7 76 74 3e
       -0.3049739 0.027285513 -0.13942379 0.23873483
0003c0 7f 57 47 3e cc 72 94 bd 38 16 b2 3d d7 71 b0 3b
       0.19466971 -0.07248458 0.08695644 0.0053846645
0003d0 85 b9 7e bc 9e 0a ec 3d 81 a0 d6 3d c7 e2 22 be
       -0.015547161 0.115254626 0.104798324 -0.15906821
0003e0 c9 ee fc 3d 19 39 b6 3d 73 3d 00 bd ff eb 7c be
       0.12350232 0.08897609 -0.031308603 -0.246994
0003f0 81 34 bc bd db 54 40 be 27 2c ae 3d e7 38 dc bc
       -0.09189702 -0.1878237 0.08504515 -0.026882602

conv.bias f4 [32]
000000 4d fb a5 3d c1 2a 07 be b5 6c 9d bd 01 e4 24 be
       0.081045724 -0.13199903 -0.0768675 -0.16102602
000010 f7 e9 d6 bd c0 59 b3 bd 0d 54 ab 3d 41 a0 64 3d
       -0.10493844 -0.08757353 0.08365641 0.055816893
000020 9c 1c 9f 3d a3 3a 55 bd ad 74 36 bc 09 18 48 bd
       0.07769129 -0.052057873 -0.011136216 -0.048851047
000030 7a b2 af 3b 68 5b b0 3c 06 40 f2 3c 24 c2 a5 bb
       0.0053618522 0.02152796 0.029571544 -0.0050585438
000040 d4 6f b3 bb a4 52 63 3d c7 3e b1 bd 58 ba c0 bd
       -0.0054759774 0.055498734 -0.08654552 -0.09410542
000050 42 c3 e7 bc f5 be c8 bd 76 16 3f 3d be 83 d5 bd
       -0.028291348 -0.09802047 0.04665228 -0.104255185
000060 b7 a6 75 3d ed 63 8d bd 53 db e0 3d 41 2c a5 3d
       0.059973445 -0.06903825 0.10979333 0.080650814
000070 fe 5c 8d bd c3 fe b7 bd 08 51 77 bd 1d 09 38 3d
       -0.069025025 -0.08984139 -0.06038001 0.044930566

hidden1.weight f4 [128, 1600]
000000 03 cf ec 3d 43 84 2a bd c5 8d 08 3d 3c 57 fb bd
       0.11562922 -0.04163004 0.033338327 -0.12272498
000010 d7 de 46 3c a7 c1 66 3e 12 9d 6b 3c cb c2 94 bd
       0.01213809 0.2253481 0.01438071 -0.07263716
000020 b4 50 f5 bd 16 9d fb 3b 4d b6 13 bd f4 d5 5a 3e
       -0.119782835 0.007678638 -0.036062527 0.21370679
000030 6d e8 c6 3b f4 e1 13 bd 4d 9b bf bd 0d 68 10 3d
       0.006070188 -0.036104158 -0.09355793 0.03525548
000040 fb 19 ba bc bb 06 a4 3d 33 b2 08 3e f1 e2 c5 bc
       -0.022717467 0.08009096 0.13349228 -0.024156066
000050 92 fd 6d 3d 1e 07 ef 3c 7c a3 a7 bd 34 29 7d bc
       0.05810315 0.029178198 -0.08185479 -0.015451718
000060 fa de 5f bd 6a 82 24 3e 43 57 45 3b 06 eb 0e 3d
       -0.054656006 0.16065374 0.0030111826 0.034892105
000070 70 3f 27 3d 7b 6c 0e be 8d 7a a2 3d 98 6e 2f be
       0.040831983 -0.1390857 0.07933531 -0.17132032
000080 48 a7 13 3c df 61 2a 3c e5 38 06 be 33 4a 2a bd
       0.009012051 0.010399311 -0.13107641 -0.04157467
000090 f0 2b c1 bc a4 2d 96 3d 51 46 1c 3d 70 0a 82 3d
       -0.023580521 0.07332924 0.038152996 0.06349647
0000a0 bf e4 24 bd 35 7f 39 bd e2 0c 46 3e 62 c5 84 bd
       -0.04025721 -0.04528733 0.19340852 -0.0648296
0000b0 01 59 9b 3d 94 77 93 bd 9c ff c5 bc db 33 b5 bc
       0.075853355 -0.07200542 -0.024169736 -0.022119453
0000c0 91 bf bf bc ec ae 82 3b 59 4b 49 3c 6d 2b 0e bd
       -0.023406776 0.0039881375 0.012286031 -0.034709383
0000d0 85 a1 7c 3c 1d 5a 42 3d 75 ee 02 3d 72 d8 1b bd
       0.015419369 0.04744922 0.03196569 -0.038048215
0000e0 5b 31 61 3c 5c e6 47 3c 27 67 0f 3d fd fb 10 3b
       0.013744677 0.012200918 0.035010483 0.0022122853
0000f0 7f 53 0b 3c bd 21 03 3d 94 39 4c bc a9 5f 95 3c
       0.008503794 0.032014597 -0.0124649 0.01823409
000100 33 e7 c0 bb 40 a3 73 3d b4 d8 26 3d 33 e9 0e bb
       -0.005886936 0.05948186 0.040734008 -0.0021806478
000110 07 83 91 3c e2 eb a7 bc 40 72 56 3b 1d cf ac bc
       0.017762674 -0.02049822 0.0032721907 -0.021094853
000120 9a 2a 5b bd 53 e4 b0 3d 49 4d 32 3d ba 18 c5 3b
       -0.053507425 0.086372994 0.043530736 0.0060149105
000130 23 d8 e2 bc e9 fd c6 3b dc 97 ad 3d 60 fb ff 3c
       -0.027690953 0.006072749 0.084762305 0.031247795
000140 bd ed 44 bc fb c6 61 3c cb fd c3 bc dc f7 52 3c
       -0.012019572 0.013780351 -0.023924729 0.012876477
000150 77 03 3f 3d dd 79 db bb 4b 0c 8f 3c bf d3 98 bd
       0.046634164 -0.006697877 0.017461916 -0.07462262
000160 01 58 43 3c 8a 48 76 3d 40 93 28 3c be 3b 90 3d
       0.011922837 0.060127772 0.010289013 0.07042645
000170 df d8 3c bc 0b 01 84 bd c2 46 dd bb a3 67 0c 3d
       -0.0115263155 -0.064455114 -0.0067528198 0.034278523
000180 5e 24 cf bc 0b 57 3f bd a6 74 68 3d 5e e5 6d 3c
       -0.025285896 -0.04671387 0.05675187 0.014520017
000190 21 33 87 3d a1 d3 49 bd 81 61 cd 3b 4d ed a9 3a
       0.06601549 -0.04927409 0.006267727 0.0012964398
0001a0 9a 27 28 3d a1 bd b7 bd 0e 87 94 bd d8 97 4d 3d
       0.041053392 -0.08971716 -0.07252322 0.050193638
0001b0 1a cb 51 bd c2 b9 0b 3e 0d f5 b8 3d ac 18 54 bd
       -0.051219083 0.1364508 0.09031115 -0.05178134
0001c0 dc 75 30 bc 4b ee 0b 3c 07 1e 6e 3d 81 e1 3a bd
       -0.010770287 0.0085407 0.058134105 -0.045625214
0001d0 58 39 04 be af 1f 0d 3e e6 18 a8 bc 24 93 e9 bd
       -0.129125 0.13781618 -0.020519685 -0.11405018
0001e0 21 75 8a 3d 15 08 db bc 8b a6 b2 3d cb 95 26 3c
       0.06760622 -0.026737252 0.08723172 0.010167549
0001f0 22 3b 93 bd aa 34 ba 3d ac 24 0b 3e a6 fd f4 bc
       -0.07189013 0.09092076 0.13588208 -0.029906105
000200 65 c9 e7 3c a1 c8 2d bd 2b 55 a6 3b aa 0a 98 bd
       0.028294275 -0.042427663 0.005076071 -0.07423909
000210 3b f3 3e bd 71 4c d5 3d 73 14 be bc 83 a5 86 bd
       -0.04661868 0.10414971 -0.02320311 -0.065745376
000220 f0 45 ec bc 75 ec 96 bd 1c 7d d2 bd e1 63 a5 3d
       -0.028841943 -0.07369319 -0.10277769 0.08075691
000230 12 be ce bd 4c e2 09 bd 28 0c e7 3d ef 07 4d 3d
       -0.10094847 -0.03366308 0.112816155 0.050056394
000240 42 6c 4f 3d 3f aa aa bd 64 20 dd 3d 61 85 49 bd
       0.050640352 -0.08333253 0.10797194 -0.049199466
000250 d5 b7 71 3e 1b 42 d9 3d 68 07 1d bd 89 5d 1a 3e
       0.23605283 0.10608312 -0.03833714 0.15074743
000260 8c 2f 99 bb fa d0 83 3c 86 9f 9d 3d 0d b8 34 3d
       -0.0046748575 0.016090859 0.07696442 0.044120837
000270 fc 4a 8a bc fc 90 0c bd c5 73 a9 bb f6 92 a5 bd
       -0.016881458 -0.034317955 -0.0051712715 -0.08084671
000280 9a b7 32 bd a3 37 e0 3a e0 b1 58 bc 9e 08 59 3d
       -0.043632127 0.0017106425 -0.013226002 0.052986734
000290 11 40 a3 bd 34 2c 95 3c 0e 0f df 3d 69 aa ae bc
       -0.07971204 0.018209554 0.10891543 -0.021321492
0002a0 ca f6 a9 bd b6 65 43 3d 6b 47 fe bc 8b 31 99 3d
       -0.082990244 0.04770442 -0.031039914 0.07480153
0002b0 3a a7 2b bd bf 67 98 3c 82 b7 85 3d 75 a5 62 bc
       -0.041907527 0.018604157 0.06529142 -0.013833393
0002c0 8d d1 c0 bd f1 88 78 bd b2 96 d1 3d c1 46 10 3d
       -0.09414969 -0.060677473 0.10233821 0.035223726
0002d0 12 4c bc bd d8 7d a0 3c 63 99 e8 bd f7 62 b9 bd
       -0.09194197 0.019591257 -0.11357381 -0.09052079
0002e0 b9 ad ba 3d 90 79 a5 3d a7 83 99 bd 01 cb 3f be
       0.09115166 0.08079827 -0.07495814 -0.18729784
0002f0 06 62 12 3d 61 93 78 bd 2b 26 d6 3d 45 04 9c 3d
       0.035738014 -0.060687426 0.10456499 0.07618002
000300 51 c3 e0 bc 1b 29 03 bc 39 54 d2 3d 42 73 fe 3c
       -0.027436884 -0.008005406 0.102699704 0.031060819
000310 6c 33 6c 3d d9 bf 02 3d 3f ae 2b bd e0 72 70 bc
       0.057666227 0.03192124 -0.04191422 -0.014675826
000320 1a 84 8a 3b ba 3e 01 bd a1 3b f9 3d 75 fe 0e be
       0.0042271735 -0.03155396 0.121695764 -0.13964255
000330 c1 fa 54 bd 33 dd b0 bc 58 69 99 3c e9 89 75 3b
       -0.05199695 -0.021589851 0.01872699 0.0037466234
000340 1f 05 14 3e c8 a5 0f 3e 99 02 45 bc 20 01 a2 3d
       0.14455079 0.14028084 -0.012024545 0.07910371
000350 45 08 87 bc 36 fc 00 3c 95 65 d7 bc d8 e1 08 3e
       -0.016483435 0.007872632 -0.026293555 0.13367403
000360 c1 bf 9c 3a 02 20 87 bd 7c dc 40 3d f4 18 1b be
       0.0011959003 -0.06597902 0.04708527 -0.15146238
000370 17 2f 11 3d a3 a5 75 bd 70 4f 49 3d 3f 41 c7 3c
       0.0354453 -0.059972417 0.049148023 0.024323104
000380 73 13 bc 3c dd 50 18 be 20 db 83 3d 1f 1f df 3b
       0.022958493 -0.14874597 0.06438279 0.00680913
000390 83 b8 c5 bd 02 2b 0f bd 44 f2 bc bd 93 5a 04 bd
       -0.096543334 -0.034953125 -0.09225896 -0.03231294
0003a0 f3 d4 2e 3e 65 e2 16 3d f0 27 b4 bd 2b 83 ae 3d
       0.17073421 0.036837 -0.0879668 0.08521112
0003b0 e9 4d c2 3c 79 20 94 3c 5f 6c 4b 3e 10 ea 97 bd
       0.023718791 0.01808189 0.19865559 -0.07417691
0003c0 d4 74 b6 3d 6e 24 fd bc 78 7a 3a bd 09 67 a2 bd
       0.08909002 -0.03090116 -0.04552695 -0.07929809
0003d0 1a 22 31 3e 98 85 31 3d 96 c2 a7 bd 95 32 c7 bd
       0.17298165 0.043340296 -0.08191411 -0.09726445
0003e0 a2 59 8e bd e9 a6 99 3d 59 76 c9 bd f6 d5 e6 bb
       -0.0695069 0.07502539 -0.09837026 -0.007044549
0003f0 50 db 79 bd fa f4 68 3d ea ef 53 3d a1 3d 87 bd
       -0.06100017 0.056874253 0.05174247 -0.06603552

hidden1.bias f4 [128]
000000 b5 18 db 3b 14 d6 a9 3b b7 32 13 3c 76 1c d1 bb
       0.006686295 0.005182991 0.008984259 -0.0063815666
000010 64 4b ad bc 74 e2 af bc 4c 88 11 3d ab 4e 60 bc
       -0.021154113 -0.021470286 0.035530373 -0.013690631
000020 27 11 b5 3b 4e 8b 50 bc 66 0c cb 3b 40 cc 9e bb
       0.0055257264 -0.012728525 0.0061965464 -0.004846126
000030 6d 00 b8 3a 0d 1f a9 3c 5d 2c 27 3d 37 6f 6d bc
       0.0014038213 0.020644689 0.040813792 -0.014491848
000040 c7 98 04 bb 86 06 01 3d e7 4b b9 3c 34 ec a5 3c
       -0.0020232664 0.03150036 0.0226192 0.020254232
000050 9e d8 02 3d a2 f9 6d bd 05 68 1f bc 3d 58 c9 bb
       0.031944863 -0.058099397 -0.00972939 -0.006144552
000060 07 ce 09 bd e4 c2 4f bb fb 4d df bb 01 df 71 3c
       -0.03364375 -0.0031701857 -0.006814716 0.014762641
000070 43 82 7d 3b 28 a6 f1 3c 38 46 06 39 df 7c 0b bc
       0.0038682378 0.029498175 0.00012805394 -0.008513658
000080 bb ec b7 3b ab fe 9b b9 ef f5 12 bc 94 c5 4f 3c
       0.0056129373 -0.00029753646 -0.008969768 0.012681384
000090 d7 5a 40 bc b5 89 95 bc f7 45 9a bc 5e d3 c5 3c
       -0.011740408 -0.01825414 -0.01883219 0.02414864
0000a0 77 07 00 bd 25 b5 f1 bc 15 34 38 3c 08 d3 56 bc
       -0.03125712 -0.029505322 0.011242886 -0.013111837
0000b0 53 95 d6 bb bd 74 33 bd bd 01 9a 3c 79 cc b3 bb
       -0.0065485626 -0.043812502 0.018799657 -0.0054870215
0000c0 fb 6f bf bc 9c 45 cb 3b 09 84 23 bc b2 84 9e bb
       -0.023368826 0.0062033664 -0.00998021 -0.004837596
0000d0 b7 1d 0b bd fb 35 be bc 10 7f 52 3c 7f 75 02 3c
       -0.033963885 -0.0232191 0.012847677 0.007962584
0000e0 3c d8 af bc 7d 62 09 3c 8b 34 cf 3c 28 15 10 3d
       -0.021465413 0.008385298 0.02529361 0.035176426
0000f0 f5 08 56 3c 56 8a 26 bc 07 32 11 3b 71 97 b2 3b
       0.013063659 -0.010164818 0.0022155063 0.005450182
000100 40 37 39 bc 4d fb 9c 3b a7 e4 a2 bc 9b bf 9f 3c
       -0.0113046765 0.0047906996 -0.01988442 0.019500544
000110 0f 3b 88 3c 39 8f c9 bc 1c 50 e5 bc 1f 44 15 bc
       0.016629724 -0.024604427 -0.0279923 -0.00911048
000120 d2 3d 0d 3d 0d be 02 3d a3 ad a4 3c d9 69 b2 bc
       0.034482785 0.031919528 0.020102328 -0.021778988
000130 01 22 29 bc 50 49 fc 3b e1 4f 0e 3c 52 2a a9 3c
       -0.010323049 0.007699169 0.008686037 0.020650063
000140 f9 02 d5 3b e1 e0 5c bb 86 0f 2d 3c 26 36 37 3a
       0.0065005985 -0.0033703374 0.010562783 0.0006988965
000150 9a a2 5b 3c 6e 69 e2 3b 47 78 99 bb bb 0d e9 3c
       0.013405466 0.006909541 -0.0046835276 0.02844893
000160 40 fe 00 bd 1a 7e cb bc 8d 58 29 3c d6 39 2e 3c
       -0.03149247 -0.024840403 0.010336054 0.010633906
000170 bf f3 a7 ba f4 11 fb bc 7b 8f 32 bc ac d9 a1 bc
       -0.0012813731 -0.03064821 -0.010898466 -0.019757114
000180 03 31 2b 3c 62 a7 64 bc 47 23 b0 3c 0e 1c 16 bd
       0.010448697 -0.013955923 0.021501197 -0.03664785
000190 04 3b 0d 3d aa ce 65 3b e6 40 36 bc 65 40 bc 3b
       0.03448011 0.0035065808 -0.011123871 0.005744981
0001a0 05 0a 77 bd f6 12 82 3c 03 55 ab bc 21 d1 5f bc
       -0.06031229 0.015878182 -0.02091456 -0.0136607
0001b0 d2 2a 4f 3c 8d 8d 10 3c 53 d4 2f bc 0c 3e e7 bb
       0.0126444865 0.008822811 -0.010731774 -0.007056957
0001c0 de 6d 90 3c c9 57 ac bb 39 ef 04 3c c1 d0 3d bc
       0.017630514 -0.0052594882 0.008113676 -0.011585415
0001d0 53 bb 75 bb 41 eb e4 bc 9f 8e c0 3b d4 e8 5b bb
       -0.0037495687 -0.027944209 0.0058763768 -0.0033555524
0001e0 c0 36 8b 3c 01 6d 97 bc 82 17 8e bc b1 2d 4d bc
       0.01699388 -0.018484594 -0.017345194 -0.012523101
0001f0 24 fa 52 bc 68 57 8c bc 7a 84 fc 3b 44 d1 c4 bc
       -0.012877021 -0.017131522 0.007706222 -0.024025567

hidden2.weight f4 [34, 128]
000000 ca e9 15 3e f7 c9 2b be bf 36 00 3e f5 1d 8e bd
       0.14639965 -0.16776262 0.12520884 -0.069393076
000010 8d b5 94 bd 60 36 20 3c cb 0d e6 3d 1b a3 77 3c
       -0.072611906 0.009778589 0.112330996 0.015114571
000020 ac e7 1d be 62 5b f4 3d ee b3 f2 3d 9c 93 2d 3c
       -0.15420407 0.119314924 0.11850725 0.010594275
000030 70 0c 25 bd f8 50 c5 bd c7 aa a9 3d 22 08 2c 3e
       -0.040295064 -0.09634584 0.08284526 0.16799977
000040 8c 38 a4 bd 14 71 0f 3e 42 f9 80 bd 93 d9 ca bd
       -0.08018598 0.1400798 -0.06297542 -0.0990478
000050 64 ea b8 3d e2 96 4c bd ef 77 1b 3d 6f 6b 50 3c
       0.090290815 -0.04994858 0.037956174 0.012720927
000060 12 6a 0f bb 3d 2b 9a 3d 51 90 0f 3e f7 50 99 3c
       -0.0021883291 0.07527778 0.14019896 0.018715365
000070 02 46 7c bd c1 c2 dd 3d a6 e3 91 3b 4d 05 65 bd
       -0.061590202 0.10828162 0.0044521866 -0.05591326
000080 ec e2 2f bd 20 3a 32 3c 35 8f 0a bd cf cd 78 bd
       -0.04294102 0.010878116 -0.03382798 -0.06074315
000090 d8 99 cc bd 97 7a 84 3d 04 81 a7 3d 30 73 c9 3d
       -0.09990281 0.06468695 0.08178905 0.098364234
0000a0 45 53 9f bd 2d 88 6b 3d ba 8d 12 3c 8a 57 1f 3e
       -0.07779554 0.057502914 0.008944923 0.15560737
0000b0 d0 8c 8a bd 2b ab 07 be 05 c1 a4 3c ef 13 b0 3d
       -0.06765139 -0.13248889 0.02011157 0.08597552
0000c0 ee 9f 79 bc 52 ad 60 bd 5d 23 bf bc 60 c2 47 3d
       -0.015235884 -0.05485279 -0.023332292 0.048769355
0000d0 6c d4 93 bd cd 06 9a bd db 39 73 bc 01 23 71 bd
       -0.07218251 -0.075208284 -0.014845337 -0.058871273
0000e0 6a 3d 7e bd a0 b1 6a 3c b9 9f fa 3d 4d 21 8a 3d
       -0.062070288 0.014324576 0.12237496 0.06744633
0000f0 fe b1 13 3e 29 08 43 be 69 51 0c bc c6 59 f1 bc
       0.14423367 -0.19046082 -0.008564332 -0.029461753
000100 24 9e 18 bd f3 75 9b bc 6e 8e c8 3d 1d 80 2b bd
       -0.03726019 -0.018977141 0.09792791 -0.041870225
000110 2d d4 52 3d b5 c4 b5 3c 8c 7a 7d bd b8 f0 d2 3c
       0.051471878 0.022188524 -0.061884448 0.02574955
000120 73 5c 30 3d 3f 08 2a be d8 34 0c bc 7c 40 7c bc
       0.043056916 -0.16604708 -0.008557521 -0.015396234
000130 55 cf 08 be 9e 0b 03 3d 21 b2 78 bd 25 11 9f 3c
       -0.13360341 0.0319935 -0.060716752 0.019417355
000140 b5 0d 58 bd f4 de e2 3b bf 12 39 3c ae e7 fe bd
       -0.052747447 0.0069235507 0.011295973 -0.12446533
000150 1e 35 db bd 31 a5 26 bd 33 6d 75 bd dd f3 06 3e
       -0.10703491 -0.040684883 -0.059918594 0.13178964
000160 08 ab 58 3d 68 1d 46 3b 24 9b 69 bb 82 be ec 3c
       0.052897483 0.003022993 -0.003564545 0.028899435
000170 bf 15 ab 3d 4b 10 a3 bc 37 4c 17 3e 7e 3c ee 3d
       0.08353757 -0.01990523 0.14775167 0.11632632
000180 2f 20 e7 3c b6 1c f7 3c 9a 05 08 be a8 92 85 bd
       0.028213589 0.030165058 -0.13283387 -0.06522113
000190 bb 1a b2 3c 0d d9 4c 3d 21 0d 52 bd 4f 9b 59 3d
       0.021741262 0.050011683 -0.051282052 0.05312663
0001a0 16 9b 7e b9 06 06 ea ba 96 b9 5b 3d 19 f4 08 be
       -0.00024281102 -0.0017854578 0.053643785 -0.13374366
0001b0 73 f6 e4 3c 93 d1 1e be 06 26 95 bd 78 44 3d bd
       0.027949547 -0.15509634 -0.07282643 -0.046207875
0001c0 d6 50 02 3e 57 99 6a bd 3d 19 d5 bc f5 2e 2d bd
       0.12726149 -0.057275143 -0.026013011 -0.04228111
0001d0 10 7b 35 3d fb a0 c4 bd 85 bf 76 3b 66 de a3 bd
       0.044306815 -0.09601017 0.0037650776 -0.080014035
0001e0 b9 54 e9 bc 9f 72 27 3e 7b 01 87 3c 7a 5d ea bd
       -0.028482782 0.16352318 0.016480198 -0.114436105
0001f0 35 03 8a bd 6d eb 8c bd 1f 35 6e 3d 68 18 ba 3c
       -0.06738893 -0.068808414 0.05815613 0.022716716
000200 77 46 0e be 29 ff ef bd e8 df ad bd a3 d4 17 bd
       -0.13894068 -0.1171859 -0.08489972 -0.03706802
000210 e1 4c 52 3d 1b 17 7b bd 0f 2d 23 be ee 59 16 3e
       0.05134285 -0.061301332 -0.15935157 0.14682743
000220 e0 0d 99 3d 21 3b 8d bd 8b dc 84 3c 91 aa 5e bd
       0.074733496 -0.068960436 0.016218444 -0.054361884
000230 11 21 ab 3d 21 39 1b be 2b 8e 60 3c b1 d8 e4 bd
       0.08355916 -0.15158512 0.0137057705 -0.11174143
000240 65 5e 6b 3d 30 eb 91 3d 61 7a cc 3c 29 d2 54 3d
       0.05746307 0.071249366 0.024960699 0.051958237
000250 ba 9c 0f 3d 48 d9 95 3d 79 2a 09 bc 87 79 30 be
       0.035061575 0.07316834 -0.008371943 -0.17233859
000260 a9 fc 87 3d bb 1f 37 3d 7c 83 0d 3e a1 f5 13 3d
       0.06639988 0.044707995 0.13819689 0.03612292
000270 2f 4f 68 3d 86 b1 c4 3c eb 4e 8c bc 47 bf 73 3c
       0.05671614 0.024010431 -0.017127475 0.014877147
000280 3a f9 03 bd 89 e0 f8 bd 49 5d 1b bd ba ea 8c bc
       -0.032220103 -0.12152202 -0.03793076 -0.01720177
000290 8e c1 13 bb a3 25 71 be 34 3a 0d 3e 71 d2 5d 3d
       -0.0022545788 -0.23549514 0.13791734 0.05415577
0002a0 93 da b2 3d bc f5 8d bc 97 5a 72 3c a6 2f 3f be
       0.08733096 -0.01732909 0.014792106 -0.1867052
0002b0 22 06 19 3c 86 a7 a1 3b d9 76 25 3e ec 6f e5 3d
       0.009339841 0.0049333004 0.16158618 0.11202988
0002c0 81 c1 4e 3d d9 94 83 bd 89 4f 8f bd 5e 8c f7 3c
       0.05047751 -0.06424875 -0.06997592 0.0302183
0002d0 62 27 5d bd 17 0e 96 bd d3 1d 4c bd 2f 03 bb 3c
       -0.053992637 -0.07326906 -0.04983313 0.022828666
0002e0 1f 94 85 bd 8b fc 07 3d e0 4e 0d 3e bb 9f fc 3d
       -0.065223925 0.033199828 0.1379962 0.12335154
0002f0 dc 82 4e be 02 b0 59 be f9 5b 7a 3d d0 db 42 bd
       -0.20167106 -0.21258548 0.06112287 -0.04757291
000300 81 9d ac 3d ee 50 03 bd a2 6f 07 be a7 5e 0c 3e
       0.08428479 -0.032059602 -0.13226178 0.13707982
000310 56 5f c6 3d 64 0c f4 3c 04 c3 a4 3c 5c 97 44 bd
       0.09686153 0.029791065 0.020112522 -0.04799591
000320 87 92 0a 3b 3e 59 cb bd 9b 42 f0 bd c7 c3 95 bc
       0.0021144466 -0.09929131 -0.11731454 -0.01828183
000330 ab 1c c8 3d 09 cf 59 3c b7 2f f7 bc 49 a6 2c be
       0.09771093 0.01329399 -0.03017412 -0.16860308
000340 16 ea 8a bd a7 ce 9c 3d 04 05 6b 3d 3d 77 b6 3d
       -0.067829296 0.07656603 0.05737783 0.08909462
000350 51 3e df bd ae d9 37 3d 6f 0d 9a 3d c6 e0 b2 bd
       -0.10900558 0.04488533 0.075220935 -0.087342784
000360 a6 61 93 ba 07 f5 e0 bd b2 6d e3 3d f1 6d c0 3d
       -0.0011244311 -0.10984235 0.11104907 0.0939597
000370 d8 58 86 bd 0c 4c 96 3d af 6f 2c 3c 1a 5c 36 be
       -0.06559914 0.073387235 0.010524674 -0.17808571
000380 f3 4c a3 ba 78 62 71 bd 8a 13 b0 3d d6 4d 88 bc
       -0.0012458846 -0.058931798 0.08597477 -0.016638678
000390 12 02 cb 3d 1f 98 86 bd 80 1d 37 bd 94 90 43 be
       0.09912504 -0.065719835 -0.044705868 -0.19098121
0003a0 74 01 9e 3d a6 52 87 bd 3f 64 4e be 18 97 c6 bd
       0.07715121 -0.06607561 -0.20155428 -0.096967876
0003b0 65 5a e2 3d b8 98 03 3e 3b 19 2d bd 38 b8 03 be
       0.11052398 0.12851226 -0.04226039 -0.12863243
0003c0 44 54 9d 3d 25 28 ad 3d 7b 15 5c 3c 2d 38 64 bd
       0.07682088 0.084549226 0.013432856 -0.055717636
0003d0 5d b0 39 bc 5f ed 22 bc 31 3b 8d bd 44 46 91 3d
       -0.011333552 -0.009944289 -0.068960555 0.0709348
0003e0 12 d7 50 3d 8d dc 9a bd ad 2f 40 bd 27 50 f5 3d
       0.050986357 -0.07561598 -0.046920467 0.119781785
0003f0 69 08 0c 3d bf 31 3f bd 27 e7 ee 3d dd c2 68 bd
       0.034187708 -0.0466783 0.116651826 -0.05682646

hidden2.bias f4 [34]
000000 b1 99 01 bd 6c f5 f2 bc a4 42 68 3b 1b 13 01 3b
       -0.031640712 -0.029658042 0.0035440112 0.0019695226
000010 20 db 73 bc 7e b2 42 3d e8 71 6e 3d 6d eb de 3c
       -0.014883786 0.047533505 0.0582141 0.02721187
000020 0f c4 7a 3d e0 6d 17 bd 62 93 25 bd 5a 12 a5 3d
       0.061222132 -0.03697002 -0.04042376 0.08060141
000030 d9 a7 31 3d 86 41 b2 bc 77 8d 96 3c c9 03 18 3c
       0.043372963 -0.02175976 0.018378003 0.009278246
000040 ef 69 0c 3d 79 2d 79 bd 84 92 90 bd c6 bc 60 bc
       0.034280714 -0.06083438 -0.07059196 -0.013716882
000050 eb 6b 3c 3d 3d c5 93 bc b5 1e c7 bd e1 ec bd 3c
       0.046001356 -0.018038386 -0.09722654 0.023184242
000060 25 aa 10 bb dc 65 92 3c 28 23 71 3d 4f 7d 9a 3d
       -0.002207407 0.017870836 0.05887142 0.07543432
000070 06 77 cd 3c 36 b1 98 3d 03 aa cd bd 1a da 94 bc
       0.025081169 0.07455675 -0.10042193 -0.018170405
000080 7e 94 0f 3d 4c 14 12 bd
       0.035053723 -0.035663888
