Model/output_dir/1DCNN_0809_no_lr_1.pt (torch, 848869 bytes, 6 tensors)

conv.weight f4 [32, 1, 1, 71]
000000 f8 20 30 bd ff 02 10 3e 17 a2 7c 3e f6 73 89 3d
       -0.04300019 0.14063643 0.24671207 0.06711571
000010 f4 bc 0a be 32 4a 23 3e 3e 70 03 3e 12 4b c0 3d
       -0.13548642 0.15946272 0.12835786 0.093893185
000020 95 bf b0 3d ab 4d 9d bd 02 a9 23 3e 62 c2 66 bc
       0.086302914 -0.076808296 0.1598244 -0.01408443
000030 57 9c 4c be 53 78 87 3d d1 4b 1d be 32 99 a4 bd
       -0.19981514 0.06614747 -0.15360953 -0.08037032
000040 20 9e 67 3e 89 26 28 bd 65 ba 11 be c5 d2 97 3e
       0.22618914 -0.041052375 -0.1423126 0.29652992
000050 5d c0 16 bd 3d a1 4a 3e 12 6a 0b bc 79 39 12 be
       -0.036804546 0.1978807 -0.008509176 -0.14279737
000060 96 2d fa 3d c8 e0 67 be 45 39 2f bc 03 2b 61 be
       0.12215726 -0.22644341 -0.010694806 -0.21989064
000070 20 2b da bd f8 be 84 3d 3c 4f a8 3d da 22 88 bc
       -0.10652757 0.06481737 0.08218238 -0.016618181
000080 28 f2 27 bd be 6a 1b 3e fb a1 ac bc 92 1a 2b 3d
       -0.041002423 0.15177438 -0.021073332 0.041773386
000090 a7 98 ba 3d d0 01 a2 3d 7b b6 a5 bd 10 c6 84 bd
       0.091111474 0.07910502 -0.08091446 -0.0648309
0000a0 da 49 cf 3d 8e e8 bd 3c 75 ec e2 bd 7e aa 9a bc
       0.10121508 0.02318218 -0.11080257 -0.018880125
0000b0 81 42 9c be 22 41 cc 3d 03 7a 1e 3e c6 28 c8 bd
       -0.30519488 0.099733606 0.15476231 -0.09773402
0000c0 59 b5 d8 bb f9 89 bc 3b a5 9a 6b bd c7 c1 0c 3d
       -0.006613415 0.0057537523 -0.057520527 0.034364488
0000d0 14 c8 0f be 5b b7 a0 3b 2f d5 90 bd 5e e1 70 3e
       -0.14041167 0.00490467 -0.070719115 0.23523471
0000e0 9b f9 0f bc e2 83 1f 3e 50 10 76 be ee c6 3c 3d
       -0.008787538 0.15577653 -0.2402966 0.04608815
0000f0 ab 96 14 be fd 1b 07 3e d4 fc 0e bd 73 76 65 3d
       -0.145106 0.1319427 -0.034909084 0.056021165
000100 fd a8 0c be 5b 4c da 3d 42 8d 92 3d 9c e6 f2 bd
       -0.13736339 0.10659095 0.07155849 -0.118603915
000110 7d b8 06 be 7b b2 e9 3d f4 f8 af bb e6 0a e1 3d
       -0.13156314 0.114109956 -0.0053702537 0.10988407
000120 ae 63 f3 3d 1a c0 b4 3d 88 24 38 be b3 2f fe bd
       0.11884247 0.08825703 -0.17982686 -0.12411442
000130 6a 08 b0 3d e7 38 25 3d ab 0e 96 bd d0 5a ca 3d
       0.08595355 0.04033747 -0.073270164 0.09880602
000140 b2 a1 b6 bc 32 ef 5d 3b 87 48 f8 bb 00 5a 48 3e
       -0.0222939 0.0033864495 -0.0075770053 0.19565582
000150 da ae 90 bd 67 33 8d 3d c4 5a 2f 3d 13 cc b9 bb
       -0.070646 0.0689457 0.04281117 -0.0056700795
000160 8e db c6 bd 4b d6 6b 3e 19 b8 6f be a1 b4 a2 3d
       -0.097098455 0.23030965 -0.23410071 0.079446085
000170 ff a0 c0 3d c0 b2 9c 3d ab 41 57 3d 56 f8 aa 3c
       0.094057076 0.07651281 0.05255286 0.020870369
000180 9f 92 f3 bd 3b 85 ad bd a6 5b 0b be 75 9e 8e 3d
       -0.118932 -0.08472677 -0.1360918 0.06963817
000190 36 ef 12 be 95 46 59 bd 4f c2 eb 3d 8c 65 3b 3e
       -0.14349064 -0.053045828 0.11511671 0.18300456
0001a0 c1 8b 9a bd 6f 28 00 be 71 e5 8e bd e4 92 f5 3d
       -0.07546187 -0.12515424 -0.06977356 0.11990908
0001b0 ab ab 01 3e 3a 5b 27 3e fb 53 d3 3d 13 03 84 3d
       0.12663142 0.16343394 0.103187524 0.06445899
0001c0 4f cb 21 be e7 08 30 3e 62 1e 0c be 07 6b 93 bc
       -0.15800212 0.17190896 -0.13683465 -0.01799537
0001d0 4a ff 04 be dc a9 2f be b9 ca 12 bd 32 68 89 3c
       -0.1298801 -0.1715464 -0.035837863 0.016773317
0001e0 32 f7 ab bb a1 a6 e9 ba 17 87 e1 3d 9f 1f 2b be
       -0.005247974 -0.0017826149 0.110120945 -0.16711281
0001f0 08 fd 17 3d 30 22 2e 3e 8d 0b 72 3d 54 a3 e1 bc
       0.037106544 0.17005229 0.059093047 -0.027543701
000200 6a ce 25 bd d5 2c 86 bc ee b0 9c 3c 90 71 af 3d
       -0.040480055 -0.0163788 0.019127335 0.08566582
000210 02 34 d7 bd 92 91 45 3e 9b 32 28 be 6d b1 3c be
       -0.105079666 0.19293812 -0.16425554 -0.18427058
000220 cd c5 e7 bd f5 28 1f bd 27 f8 f6 bd cf 00 0f 3e
       -0.113170244 -0.03885742 -0.1205905 0.13965152
000230 60 f2 ea 3d 1e 8a 0c 3d 65 99 10 3e c9 19 9a bc
       0.114720106 0.034311406 0.14121015 -0.018811123
000240 ac 4a 05 bd eb 87 26 3e 16 6b cc bd 1a 70 d4 3d
       -0.032541916 0.16262786 -0.099813625 0.10372944
000250 74 4f 16 3e bf 1f 64 bd 27 dc 3a be 86 1e 02 3e
       0.14678746 -0.055694338 -0.18248044 0.12706956
000260 de 13 36 bd eb 9c 10 3e 7e 64 50 3e 86 bc db 3d
       -0.04445254 0.1412236 0.20350835 0.10729317
000270 d7 16 ae 3d f4 f0 f5 bd 2a 33 08 3e 89 6b 3d 3c
       0.0850045 -0.12008849 0.13300768 0.011561283
000280 51 54 1d be d1 30 5a 3b 4f 55 18 be 53 77 1d be
       -0.15364195 0.0033293257 -0.14876293 -0.1537755
000290 31 bd 08 bd 94 28 9f 3d e9 91 31 3e ab 3d 67 3d
       -0.033383552 0.077714115 0.17340817 0.056455296
0002a0 4e 26 95 bc 74 c7 e8 bd a7 84 46 bd 88 2e 42 3e
       -0.018206742 -0.11366168 -0.04846635 0.18963063
0002b0 b4 df 36 bd 1a 2b a9 bd e4 8d d9 bd 13 17 28 be
       -0.044646934 -0.08260174 -0.106227666 -0.16415052
0002c0 7c f3 de bc 03 07 a2 bd d8 c4 8d bd ff 17 c5 bd
       -0.027215712 -0.07911494 -0.069223106 -0.096237175
0002d0 0d 54 2f bd 44 bd 87 bd 13 2b 37 3e b9 17 48 3e
       -0.042804766 -0.066278964 0.17887525 0.195403
0002e0 a9 63 0d be 4c 81 37 3d 5a 64 1c be 93 86 d3 bd
       -0.13807549 0.04480104 -0.15272656 -0.10328402
0002f0 64 63 a1 bd b0 dc ae 3c 12 aa 9f bd a9 76 12 3e
       -0.078802854 0.021345466 -0.0779611 0.14303078
000300 bf 26 6c bc 0f b5 d5 bd e0 6d d4 3d a7 e8 e6 bc
       -0.014413535 -0.10434925 0.103725195 -0.02818711
000310 98 28 60 bc ce 7d 12 3d 29 7f 50 bd 74 41 c7 3d
       -0.013681553 0.035764508 -0.05090252 0.09729281
000320 b4 b2 56 3e 28 91 04 3e 94 99 bb 3d 7b 7f 35 bd
       0.20966607 0.12945998 0.09160152 -0.044311028
000330 ce 54 9e bd cc 26 04 3d 38 f2 1a 3d 3f 97 0e 3e
       -0.07731019 0.032263562 0.037828654 0.13924883
000340 87 0a de 3d 0a 4f 3b 3e ee 8e 06 bd ce 38 dd bc
       0.10841852 0.1829187 -0.032851152 -0.027004626
000350 4a 01 ae bd 07 33 89 bc 2a 0a a7 3d 5e e6 e3 bd
       -0.084963396 -0.016747965 0.081562355 -0.111279234
000360 c1 be 1f 3d 10 7b 14 3e 59 ba ff 3d 74 4b 02 3e
       0.039000276 0.1450007 0.12486715 0.12724096
000370 47 b9 a4 3d 03 f2 ae 3d d7 e7 44 3e 04 4d 7f bc
       0.08043151 0.08542254 0.19229065 -0.015582327
000380 2d 50 39 be ae c9 2b 3d 97 9d 23 3e 25 35 56 bd
       -0.18096991 0.041940384 0.15978085 -0.052296776
000390 28 2c 23 3e aa 06 85 bd 1e f7 d8 bd b8 47 b8 3c
       0.15934813 -0.06495412 -0.10594009 0.022495136
0003a0 59 50 f0 3d 05 b3 f4 3b 06 3e 8f be d9 68 b8 3c
       0.11734075 0.00746763 -0.27977008 0.022510933
0003b0 f0 e5 94 bc 01 e5 44 be 09 e1 91 be 05 9d 60 3d
       -0.018176049 -0.19227983 -0.28492 0.054837245
0003c0 47 f9 4e bd a1 e7 aa 3d 9d dd c6 bd 3c c1 bb 3d
       -0.0505307 0.08344961 -0.09710238 0.09167716
0003d0 3c 94 8a bd d6 26 54 bd 11 d4 1e be 72 f8 13 3e
       -0.06766555 -0.05179485 -0.15510584 0.14450243
0003e0 88 78 1e be 70 1d 83 bd 98 4c b0 3c f3 d6 c2 bd
       -0.15475667 -0.06402099 0.021520898 -0.095136546
0003f0 7a 2d b1 3d ca 3f 19 3e 84 20 f3 bc 9e 67 76 3d
       0.08651252 0.1496574 -0.02967859 0.06015741

conv.bias f4 [32]
000000 10 76 3e 3d 59 49 a9 bc 62 e7 38 bd 52 d1 5e 3d
       0.046499312 -0.020664858 -0.04514254 0.054398842
000010 19 33 a5 bb 5f 47 24 3d a3 e1 14 3e f1 81 24 3d
       -0.0050414917 0.040107127 0.14539199 0.040162984
000020 45 eb 31 bd ae a6 3f 3d c8 53 65 3d 22 33 06 3e
       -0.04343726 0.046789818 0.055988103 0.13105443
000030 e4 12 e0 bd de 6b cc 3d 4c b6 10 be 62 f1 b9 3c
       -0.10941103 0.099815115 -0.1413204 0.022698108
000040 63 46 d8 3d 5c e5 86 bd 7c 5b 02 3c 65 0e 8a bd
       0.105603 -0.065867156 0.007956382 -0.06741027
000050 b2 36 3e 3d 83 10 7b 3d 9a d0 5b 3d 19 f1 d5 3c
       0.04643888 0.061295044 0.053665735 0.02611594
000060 c5 5b 80 bd 65 69 ce 3c b0 d4 ca bc 76 c2 5a 3d
       -0.06267504 0.02519674 -0.02475962 0.05340811
000070 3d f1 39 3c cd 3c df 3d 79 e0 41 3d dd 98 ac 3d
       0.01134902 0.10900269 0.047333214 0.08427594

hidden1.weight f4 [128, 1600]
000000 f5 9d eb 3c 7f c0 98 b9 98 f6 ac bb 8d c7 49 3c
       0.028761843 -0.0002913512 -0.0052784197 0.012315643
000010 dc f0 b0 bc a2 5f c7 bb 27 b4 ab bc 8c aa 8e bc
       -0.021599226 -0.0060843984 -0.020959927 -0.017415307
000020 e7 cb 0c 3d fa c6 aa bc de 16 e3 3b ee 0f ad 3d
       0.034374144 -0.020846833 0.006930216 0.08450304
000030 9d c8 ba bc 6c 77 66 39 19 54 33 3a 1b 5f a3 3c
       -0.022800738 0.00021978997 0.00068408396 0.01994281
000040 57 53 fb bc ef 60 32 bd 03 23 47 3c ce 3e 7b bc
       -0.030679388 -0.043549474 0.012154344 -0.015334798
000050 c0 fe e9 3d 1f 42 25 3d 44 d0 2f bd 7e b4 73 3d
       0.11425543 0.04034626 -0.042923227 0.059498303
000060 7c 90 95 3b 37 15 14 3d 3a c6 03 3d 58 0f 38 3c
       0.004564343 0.036153045 0.032171465 0.011234127
000070 b4 61 77 bd 0b ac 85 3d 34 2f 06 3d 74 74 7b bd
       -0.06039591 0.06526955 0.03275986 -0.061390355
000080 8c b8 0f 39 1c 5b f7 bc ea 44 b1 bc ab 5e 99 3d
       0.00013706292 -0.030194812 -0.021639306 0.074887596
000090 de a3 27 3d c0 82 b8 3d 0b 1b 00 bc 10 36 cf 3b
       0.04092776 0.090093136 -0.007818948 0.0063235834
0000a0 eb 0e a8 bd e9 c0 b3 3d 75 1e c5 bc 7d f3 13 bd
       -0.082059704 0.08777029 -0.024062375 -0.03612088
0000b0 ec ab ad 3d 87 27 27 3d 4d 04 b2 bd 76 91 8d ba
       0.08480057 0.04080918 -0.086922266 -0.0010800797
0000c0 07 07 bf 3c 8b d3 4a bd 8a a6 0d ba 26 33 42 39
       0.02331878 -0.04951815 -0.00054035394 0.00018520336
0000d0 2e 56 61 3e c7 8f 74 bb 3c 8a 94 bc c5 9a 65 bd
       0.22005531 -0.0037317143 -0.018132322 -0.056055803
0000e0 b2 55 94 3d ca ea c7 bc e5 63 62 3d 67 a0 e2 bc
       0.072429076 -0.024403948 0.055271048 -0.027664376
0000f0 5f 5b cd 3b 47 0c 10 3d 0e 9f 3c 3d 76 b8 1e 3c
       0.006266996 0.03516796 0.046050124 0.009687534
000100 5e c3 24 3d 3e 69 39 bd f6 f0 f4 3c 63 a2 85 3d
       0.04022538 -0.045266382 0.029900055 0.065251134
000110 b2 dd b4 bb 07 a1 a7 3b 93 77 5c bc cb f5 10 3d
       -0.005519592 0.0051156315 -0.013456243 0.035390656
000120 88 a7 09 3d 1c 4e 21 3d 21 c1 24 bd 7d b2 46 3d
       0.033607036 0.03938113 -0.040223245 0.048510063
000130 b8 5a 11 3c 4c 50 5d bd ab b7 cd bc 50 6a 67 3d
       0.008871727 -0.054031655 -0.025111994 0.056497872
000140 6d 7b 88 bc 71 06 a2 bc 72 88 98 3d 42 e7 ee 3c
       -0.016660416 -0.019778462 0.074479 0.029163007
000150 2a 80 d3 bb b3 65 70 ba 65 da 36 bc 51 cb 95 bd
       -0.0064544873 -0.0009170428 -0.011160468 -0.0731417
000160 0d fb 52 3d e1 a5 9f 3b 87 a7 0b 3d b1 7a 94 bc
       0.051508952 0.004872069 0.034095313 -0.01812491
000170 ff 24 82 3d dd 5e b9 b9 86 33 aa bd 7b c0 94 bd
       0.06354713 -0.00035356628 -0.083106086 -0.07263275
000180 df 56 e7 bb 52 90 67 bd 79 77 e0 bd 35 f3 fc bc
       -0.0070599164 -0.05653412 -0.109602876 -0.030877689
000190 aa f9 83 3c 5f 2d c7 bc 5c 55 42 3c 84 ca 81 bc
       0.01611026 -0.024313627 0.011861172 -0.015843637
0001a0 60 d6 21 3c 2b 2c 30 bc 4f 0b 5f bc db f4 eb 3c
       0.009877771 -0.010752718 -0.013613536 0.02880328
0001b0 24 07 0c 3e a8 e3 93 bc 43 55 03 3d 1f 45 a5 bd
       0.13674599 -0.01805289 0.032063734 -0.080698244
0001c0 2a d8 99 3d af 5b 91 3c 65 7a 47 bd 2e 96 02 3d
       0.07511933 0.017743913 -0.04870071 0.031881504
0001d0 d6 f5 9d bd 29 22 de bb 0a f6 82 3d 10 7a 30 bd
       -0.07712905 -0.0067789746 0.063945845 -0.043085158
0001e0 9d 74 31 3d 8c 48 d7 bc 1c 8d e2 3c 0d 3c a9 3b
       0.0433241 -0.02627971 0.027655177 0.0051646293
0001f0 2c 04 34 3d 85 8a a0 bd b5 6d 7b bc 45 fe 55 bd
       0.04394929 -0.078389205 -0.01534598 -0.052244443
000200 f9 f8 0b bc 92 6e e6 3c 58 3e ef 3c 4f 2c fd 3d
       -0.008543246 0.028128896 0.029204533 0.12361967
000210 dd 08 3c 3d da f9 c9 bc 27 ea 71 bd e0 ae ab 3c
       0.04590689 -0.024655271 -0.059061196 0.02095741
000220 44 20 90 3d 3e 41 50 3d 8b ec 54 3d 2a 7e 33 3d
       0.07037404 0.05084347 0.051983397 0.04382149
000230 a0 a1 1f be e6 f1 de 3d bb 80 0d 3e 02 0a 88 bd
       -0.15588999 0.10885982 0.13818638 -0.06642534
000240 b2 3a 07 3c d5 2c 9a bd 0e 21 60 bc 58 9c 7b bd
       0.00825374 -0.07528082 -0.013679756 -0.061428398
000250 c1 99 bc 3c 11 64 1b 3d bf b0 c0 3c 52 6d 0e 3d
       0.023022534 0.037937228 0.02352178 0.034772225
000260 36 b4 1f bc 3e 3f 84 3c 8d ee b1 3c 0d a2 19 bd
       -0.0097475555 0.016143437 0.021720195 -0.03750806
000270 e7 6f 0f bd 72 29 17 bd bc 27 5d 3c b6 27 6f bc
       -0.035018828 -0.03690476 0.013498243 -0.01459687
000280 a6 2b f9 3c 0b 06 84 bd 4a c2 5a 3d 13 c2 82 3d
       0.030416321 -0.06446465 0.053407945 0.06384673
000290 6d 6e b6 3a 74 4e bc bc a3 45 bf 3d 70 f7 54 3d
       0.0013918407 -0.022986628 0.09339454 0.051993787
0002a0 eb 47 2f 3d 87 5d 51 bd fd 84 04 3d 41 ed 82 3d
       0.042793196 -0.051114585 0.03235339 0.06392909
0002b0 b9 2f ab 3d 2a 13 c3 3c e3 9e 86 bb 3d c0 89 3c
       0.08358712 0.02381285 -0.0041082962 0.0168153
0002c0 b1 8a 70 3b 42 13 58 3d c2 34 1c 3d c4 69 24 bc
       0.003670376 0.05275274 0.03813625 -0.010034982
0002d0 f8 65 10 bd d4 56 14 bd 22 7b bc bc 63 ed 67 3d
       -0.035253495 -0.03621562 -0.023007933 0.056622874
0002e0 9f 52 70 3d 5f 97 db bc f4 aa 68 3d 84 f4 94 bc
       0.058672544 -0.026805578 0.05680366 -0.018183
0002f0 a9 4e a0 bc 00 c9 3d bd c6 c2 03 bd 8b 19 70 3d
       -0.019568758 -0.046334267 -0.032168172 0.05861811
000300 57 67 c2 bc 4e 0a 46 bd e7 1f 8f 3c 17 90 f4 3c
       -0.023730917 -0.04834967 0.017471267 0.029853864
000310 aa 2f 89 bd f8 f9 b9 bc 3a 54 dd 3d b9 46 75 3d
       -0.06698544 -0.022702202 0.108070806 0.0598819
000320 b0 10 36 3b 99 ec e3 3c 46 f9 ae 3a 7b 8a f7 3c
       0.0027780943 0.02782278 0.0013349436 0.0302174
000330 00 dc b0 3c 6a 3e 47 3d 37 f7 be bc 51 6e 16 bd
       0.02158928 0.048643507 -0.02331124 -0.0367263
000340 8f 50 6b 3d 6e f2 35 3c bd 3b a0 bb a8 3c ed bd
       0.057449874 0.011105163 -0.004889934 -0.11583835
000350 2f 4b 95 bb e1 07 2f bd 75 23 13 bc 8f 37 a4 3d
       -0.0045560817 -0.042732123 -0.008980622 0.080184095
000360 ab 12 8a 3b 02 c8 b2 bc a5 f8 41 3d 0f 74 11 3d
       0.004213651 -0.021823887 0.047356267 0.035511073
000370 39 b8 90 bc 2b 4d 29 bd a3 76 6a 3d 66 7e 18 3c
       -0.01766597 -0.04133336 0.057242047 0.0093074795
000380 0d 0d 5f 3d ee c5 b6 bc b7 bf 2a 3d 48 8d b5 3d
       0.054455806 -0.022311177 0.04168674 0.08864838
000390 92 1f 01 3d 41 ce 83 3c f7 e7 ad 3c b4 fe 90 3d
       0.03152425 0.01608956 0.021228774 0.07079831
0003a0 03 f6 cc 3c c4 5c 32 3d fa 40 ca 3c f6 57 d7 3a
       0.025019651 0.0435455 0.024689186 0.0016429413
0003b0 bb a5 1f 3c f4 d4 8e 3b 3c 0a f3 3c f3 e0 3b 3d
       0.009744103 0.004358882 0.029667966 0.045868825
0003c0 db c1 b0 bb 62 dc 5f 3c 6c 4e 9d bc 2f d1 5b ba
       -0.005394203 0.013663383 -0.019202434 -0.0008385358
0003d0 98 8d 71 3d 60 fd eb 3c b4 ca 70 bd ce 65 e9 bc
       0.058972925 0.028807342 -0.058787063 -0.028490927
0003e0 76 b8 e1 bc ce 03 04 bd 9e 5f 02 3e cc 96 9d bd
       -0.027553778 -0.03223019 0.12731788 -0.07694778
0003f0 50 10 e7 3c 62 5d 8e 3d ee 67 ea bd 60 5c 53 bd
       0.02820602 0.06951405 -0.11445604 -0.051601768

hidden1.bias f4 [128]
000000 c6 50 2c bc 75 00 e6 bc 5d 1c b0 bc fe 83 a8 3c
       -0.010517305 -0.02807639 -0.0214979 0.020570751
000010 f0 d4 77 3c 58 00 45 3c 43 b9 c0 bc 8d 8d 34 3c
       0.015126452 0.012024008 -0.02352584 0.011020076
000020 30 53 e3 bc 75 55 46 3c 44 52 62 bc 75 aa d1 bb
       -0.027749628 0.0121053355 -0.013813559 -0.006398494
000030 d5 34 fc 3a df 49 9f bc e3 3c a8 3a 2e c5 13 3b
       0.0019241819 -0.019444404 0.0012835528 0.0022547948
000040 8e 1e 9a 3c 2c 76 28 3c 82 2a 82 3c 5b 14 f9 bc
       0.018813398 0.010282081 0.01588941 -0.030405214
000050 80 6a df bc 29 87 0d 3c 26 ad 8d bc 7c 57 6d bb
       -0.027272463 0.008638182 -0.017294478 -0.0036215475
000060 f9 3f e9 3c 8e c4 84 bc 06 99 95 bc ac c5 18 bb
       0.028472887 -0.016207006 -0.018261444 -0.002331118
000070 e0 65 41 bc 66 2a a0 bb 29 b3 08 3c d7 4b 57 3c
       -0.011804074 -0.004887867 0.008343496 0.01314064
000080 1c 4d e9 3a 39 2d d9 bc 6b bd c2 b9 b7 94 92 bc
       0.001779947 -0.026510822 -0.0003714369 -0.017893178
000090 d6 33 f8 bc 91 f9 d2 b9 a0 b3 f6 ba 87 7c ab 3c
       -0.030298155 -0.00040240263 -0.0018821843 0.020933403
0000a0 51 f2 76 3c 7a 20 32 ba 65 75 96 3b c7 bc b7 3c
       0.015072421 -0.00067950005 0.0045916312 0.022428883
0000b0 d8 f7 da bc 69 d0 2c 3a 59 51 33 3c b3 aa cf bc
       -0.02672951 0.0006592335 0.010944688 -0.02534995
0000c0 ab d0 e7 3c 83 6c 8b bc 38 6a 73 bc af b2 c8 ba
       0.028297743 -0.017019516 -0.0148568675 -0.0015312041
0000d0 66 e9 ea 3c 3a 56 55 bc 81 47 a6 3c e6 23 ab 3c
       0.028675746 -0.013021046 0.020297768 0.020891141
0000e0 3d 59 90 3b 16 b6 6f 3a 3a 0c 84 3c c0 06 7c b9
       0.0044051693 0.00091442594 0.016119111 -0.00024035107
0000f0 6c 22 3c bc fc c1 98 3c 59 1f 87 bc 6d d0 dc 3c
       -0.011482816 0.018647186 -0.01649444 0.026954854
000100 45 47 05 3c 7a dc ac 3c 38 fe 28 3c cd ba 2c 3c
       0.008134668 0.021101225 0.010314517 0.010542584
000110 16 81 25 3b 1c 7a 8d bc c0 2b e0 bb 64 d3 33 bd
       0.0025253943 -0.01727014 -0.006841153 -0.04390277
000120 2e e3 c4 bb e7 7b d6 ba ca 6c 53 bc d0 34 3b bc
       -0.0060085272 -0.001636383 -0.012904355 -0.011426166
000130 5f 4e 20 3c cd 85 32 bc ea c2 9c bc 4a b4 a3 bb
       0.00978431 -0.010896158 -0.019135911 -0.0049958574
000140 56 ee bc bc aa e1 e0 3b bd 21 3b 3c 38 92 11 3b
       -0.023062866 0.0068628388 0.011421618 0.0022212397
000150 a4 93 ce bc 37 42 d7 3c 7c 85 e3 39 12 6b 86 bb
       -0.025216885 0.02627669 0.00043396268 -0.0041021192
000160 2f 60 b9 bc 8b fd 2d bc f5 b8 f8 bc 44 7b ed bc
       -0.022628872 -0.010619531 -0.030361632 -0.028989442
000170 78 fe 09 3d 03 17 fd bb ef 1d b7 3b 6c 57 21 bc
       0.033689946 -0.0077236905 0.005588285 -0.009847503
000180 b7 13 cf bc f7 e7 37 3c 20 17 1d 3c a2 4f 8f 3c
       -0.025277955 0.011224738 0.009588033 0.017494027
000190 3c fa ce bc 7c 45 7a 3c 5e cd 9a 3c 2c 7f 7b 3c
       -0.025265805 0.015275355 0.018896755 0.015350144
0001a0 b9 ea 4f bc 79 8b e0 3b 80 92 9b 3c 6f 6e 97 bc
       -0.01269024 0.006852564 0.018990755 -0.018485276
0001b0 42 c9 c1 39 ae c0 5a bc 37 1e a9 bc 0c 62 c6 bb
       0.00036961777 -0.0133516025 -0.02064429 -0.0060541686
0001c0 47 de 88 3c e3 af 51 3c cc 59 a1 3b 9a c1 a6 3c
       0.016707553 0.012798282 0.0049240347 0.020355988
0001d0 6f 3e 2a bc 59 15 26 bc 21 3d 81 ba 93 b1 ad 3c
       -0.010390862 -0.010136926 -0.0009860137 0.021202838
0001e0 de 4f 51 3c bc cb 22 b7 3c ba 99 3c 5e d1 99 bc
       0.0127753895 -9.703388e-06 0.018765561 -0.018776592
0001f0 5b de 63 3c 53 76 d3 3c 96 ba 2b bb e2 f2 9a bc
       0.013907994 0.025813257 -0.0026203743 -0.018914644

hidden2.weight f4 [34, 128]
000000 d7 ad 92 bd 92 7a 72 bd bb 4b d5 3d bb 12 b9 bc
       -0.071620636 -0.059198923 0.10414835 -0.02259194
000010 53 7e c4 3d c7 e3 cc bc 58 ba 4d bd f1 44 87 3d
       0.09594407 -0.025010956 -0.05022654 0.066049464
000020 e7 27 6d bd 0f af ce bc de 47 4f 3c 4c 00 4c bd
       -0.057899382 -0.025229959 0.012651412 -0.04980497
000030 e0 64 fc 39 1e ee ae bc 19 2a 09 3e 0f 6f 15 bd
       0.00048140343 -0.021353777 0.13394965 -0.036482867
000040 98 fb d3 3d 68 36 e2 3d 80 12 96 bd b4 1c 8e bd
       0.10350722 0.110455334 -0.07327747 -0.069390684
000050 6e 2b 86 bd 47 a0 fd bc e7 47 31 bd a8 13 0b be
       -0.06551252 -0.030960215 -0.043281462 -0.13581717
000060 64 53 b0 3d 1a f7 38 3d 3a 98 01 3e 0e 7d 32 3d
       0.086096555 0.04515753 0.12655726 0.043576293
000070 90 11 a6 bd 88 a0 b1 3d f8 f8 b8 3d 5b d1 a2 3d
       -0.081088185 0.08673197 0.09031862 0.07950088
000080 e1 84 84 bd 80 83 8e 3d 9b 5a e9 bc 22 d4 33 3d
       -0.06470657 0.069586754 -0.028485587 0.043903477
000090 62 c3 a2 bd 6c 7b f1 3d 65 fe ba bd 61 dc 0d 3e
       -0.079474226 0.11791119 -0.09130553 0.13853599
0000a0 5e af e0 39 ff 9d ed bb 85 fa be bd af f3 98 bc
       0.00042855268 -0.0072515006 -0.093251266 -0.018670885
0000b0 be 22 de 3b 4a cf 50 3d d9 6f e5 bc 2c 20 bb bd
       0.006779044 0.050978936 -0.028007435 -0.09136996
0000c0 ac 05 56 bd 3e 45 9f bc 45 15 b6 bc 11 09 08 be
       -0.052251503 -0.019442197 -0.022226939 -0.13284709
0000d0 0d 3d cf 3d a7 a7 2b bd fb 9c 2b 3d c3 8d 1c bd
       0.101190664 -0.041907933 0.041897755 -0.038221132
0000e0 e3 20 0d 3e 8a 2c e4 b9 7b 39 0f bb ad 75 88 3d
       0.13782077 -0.00043520733 -0.002185433 0.0666307
0000f0 23 cf e7 bd f2 4f 73 3d a3 f1 95 bd 79 f2 01 3e
       -0.11318805 0.059402414 -0.07321479 0.12690152
000100 9a ea df 3c 8e 25 7c 3d 35 28 13 bd a5 f5 09 be
       0.027333546 0.061559252 -0.035927016 -0.13472612
000110 dd 2f 80 bd b1 00 b0 bd 22 eb 52 bd f2 0e 36 bd
       -0.06259129 -0.08593882 -0.05149377 -0.044447847
000120 81 14 c0 3d 5f fe 14 bd 78 f4 58 bc b8 af 84 bd
       0.09378911 -0.0363754 -0.01324188 -0.06478828
000130 d4 40 b9 3c 80 4a 1e bd d0 bb 33 3d aa 6e eb bc
       0.02261392 -0.038645267 0.043880284 -0.028739292
000140 7e 23 97 bd 5c ca 65 bc fd 44 50 3c 74 a0 ad 3d
       -0.073798165 -0.014025297 0.012711761 0.0847787
000150 3d 50 c2 3b 31 2e 33 bd 28 6f eb 3d 63 16 ec bd
       0.0059299753 -0.043745223 0.11495811 -0.115277074
000160 65 23 8c bd d6 34 7b bc 14 42 01 3d 31 14 85 bd
       -0.068426885 -0.015332421 0.031557158 -0.06497992
000170 d4 44 8a bd 86 4b 2b 3c aa d4 c9 3d ab 3b e8 3c
       -0.06751409 0.010455018 0.098550156 0.028348764
000180 22 b9 2c 3c b8 65 ef bc 80 71 b9 bd 5b 3d ae 3c
       0.010542186 -0.029223308 -0.090548515 0.021269491
000190 15 0b 38 bd c4 43 e5 3d d7 8f 94 3c eb 3e 6a 3d
       -0.044932444 0.11194566 0.018134994 0.05718891
0001a0 74 13 dc bc 4d 68 03 bd 6d 33 00 3d 8b 99 4e bd
       -0.026864745 -0.03208189 0.031299043 -0.0504394
0001b0 23 0e b5 3d c9 33 58 bd 94 36 2d bd 8b 57 98 bd
       0.08840587 -0.05278376 -0.042288378 -0.074385725
0001c0 c0 e7 cc 3d d7 f2 76 3d 1c 9f ed bd 92 69 9c 3c
       0.1000514 0.060290184 -0.11602613 0.019093309
0001d0 46 a7 56 bd 23 d6 73 bd 14 64 7a bc ce 4c d3 bd
       -0.052405618 -0.05953039 -0.01528265 -0.10317384
0001e0 7b 68 b7 3d c1 ea a4 bd 38 1a 2d be 1c 8c 34 3b
       0.08955475 -0.08052588 -0.16904533 0.0027549332
0001f0 df f5 02 bd d6 45 40 bd b2 5e f4 bc 5f 21 34 bc
       -0.031972762 -0.0469416 -0.02983031 -0.010994284
000200 15 9d 1a be 7b 81 a4 3d 5b 7d 0a be 64 09 f8 3d
       -0.15098985 0.08032509 -0.13524382 0.12111166
000210 f1 d1 bd 3d c9 9d 74 3d d4 a7 08 3c 41 3b 7a bd
       0.09268559 0.05972079 0.008340795 -0.061091665
000220 b8 6d 0a bc 3f e2 99 bd 1b fc bb 3d 6c 58 de 3d
       -0.008449011 -0.07513856 0.09178945 0.10856709
000230 d0 33 2b 3c 5f 66 40 bd a8 f7 33 3d 52 a2 75 3d
       0.010449365 -0.04697263 0.043937355 0.059969254
000240 8c 7a d7 3d ea fb 29 be a3 33 1c 3d 91 28 f4 3d
       0.10521421 -0.16600004 0.038135182 0.119218
000250 17 cd fc bc 1e ce 45 3d 88 6e 88 bd 0b fa d6 3d
       -0.030859513 0.04829227 -0.06661707 0.10496911
000260 1f 94 4d 3c b8 ee 98 3d 97 1a d1 bd 4f ff 93 3c
       0.012547522 0.07467407 -0.1021015 0.018066077
000270 4c b5 cd 3b d0 6e f2 3d 35 bb 01 be ee eb af 3d
       0.006277716 0.11837542 -0.1266907 0.08589922
000280 c7 8a 87 3d d3 30 f3 3c 35 8c b0 3d 03 b9 83 bd
       0.066182666 0.029686367 0.08620492 -0.064317726
000290 a7 f8 29 3d a9 da 07 bb e6 a8 d1 bd ae 33 59 3c
       0.0414969 -0.0020729697 -0.10237293 0.01325695
0002a0 3e 0d 85 3d a3 65 8f bd 60 af 97 bd 9f 82 70 3d
       0.06496666 -0.070018075 -0.07406497 0.05871832
0002b0 26 c4 14 bc ab 5c 35 bd 8b f9 25 3c 5f 8c 94 3d
       -0.009079969 -0.04427783 0.010130296 0.07253336
0002c0 c3 ce 59 3d 6a 71 ea bc aa 80 26 be 09 fe bc bd
       0.0531757 -0.028618533 -0.16260019 -0.09228141
0002d0 d5 cc a0 bd 4c 7a f8 3d 72 0a 1e be 79 e1 a9 3d
       -0.078515686 0.12132701 -0.15433672 0.082949586
0002e0 2b 08 96 bd 0a 14 5e 3d 81 18 3a bd 6d df bf 3c
       -0.07325777 0.05421833 -0.045433525 0.023421967
0002f0 d3 1c ce 3d d2 2c 30 3d f3 b6 8f bd 97 ab 03 be
       0.100640915 0.043011494 -0.07017317 -0.12858425
000300 08 df 5c 3d a8 1a a2 3d c6 5f 39 3c cb 25 68 bd
       0.053923637 0.079152405 0.011314338 -0.056676667
000310 31 38 99 bd da 57 6b bd eb 83 ce bc fe 83 7c bd
       -0.07481421 -0.05745683 -0.025209388 -0.061649315
000320 d4 d7 6e 3d cf d4 3d 3d f0 19 80 3d d1 e8 16 3d
       0.0583113 0.04634553 0.06254947 0.036843125
000330 a7 99 94 bd b7 cc 3c bd 49 62 47 3d 8f 3a b1 3d
       -0.07255869 -0.04609367 0.048677716 0.08653747
000340 73 4c 87 3d 83 54 9c bd 64 d1 4e 3d 10 01 dc bd
       0.066063784 -0.07633307 0.05049266 -0.1074239
000350 bc bd 94 bd 35 e1 f0 3d 17 e1 55 bd 35 dd 96 bc
       -0.072627515 0.11761705 -0.052216616 -0.018416027
000360 41 ab e0 bd 8f ed f5 3c 0d 64 ff 3c 20 e6 8f 3d
       -0.10970164 0.030020503 0.031175638 0.07026315
000370 89 de b9 3d 72 ae bb 3b f1 ac a1 3d 61 ba 05 bd
       0.09075648 0.0057275826 0.07894314 -0.032648448
000380 ad ba bd bd df 18 83 bd 56 db 95 3d 14 e7 8c 3d
       -0.09264121 -0.06401228 0.07317226 0.06880012
000390 ee c8 1c 3d 31 23 6a 3d ad d6 9b bd dd 4b 25 bd
       0.03827756 0.057162467 -0.076093055 -0.040355552
0003a0 71 60 03 3d c2 ed b1 bc 1f 72 05 3e 8d 41 d5 3c
       0.032074396 -0.021719817 0.13031815 0.026032234
0003b0 4b bd 47 bd 27 81 50 3c 7c 27 92 bd 36 76 8b bc
       -0.04876451 0.012726105 -0.07136437 -0.01702414
0003c0 91 d0 b9 3d ce 8c a3 3d 44 11 61 3d 3a 0f ea bd
       0.09072984 0.07985841 0.054948106 -0.114286855
0003d0 5e a9 d8 bb 15 b7 a5 bd 58 c7 9a bd 37 8e 01 be
       -0.006611987 -0.08091561 -0.07557553 -0.12651907
0003e0 b2 19 74 3b 8c 43 6d 3d 20 a1 1c 3d 96 37 0a 3d
       0.003724676 0.057925746 0.0382396 0.033744417
0003f0 34 8f 1a bd 70 0c 94 3d d7 e3 48 bc 3e 7e 89 3c
       -0.037734225 0.07228935 -0.0122613525 0.01678383

hidden2.bias f4 [34]
000000 9f 39 0f bd af 5f 60 3c dc 05 61 bd c5 60 89 3c
       -0.03496706 0.013694688 -0.05493723 0.016769776
000010 c6 a6 8b bc 98 55 d6 bb 40 85 bc 3d 61 90 f9 3c
       -0.017047297 -0.0065409653 0.09205103 0.030464353
000020 e4 40 b2 bc 3c 12 8d bd 75 ce b3 bc ff 27 ae 3d
       -0.021759458 -0.068882436 -0.021949032 0.085037224
000030 bd 3b 93 bb 09 bc 2b bd cc 79 b6 3d 4c 62 94 bd
       -0.0044932053 -0.04192737 0.0890995 -0.07245311
000040 fb fe c6 bb 98 d8 35 bc f5 fc e1 3c 57 95 a2 bb
       -0.0060728765 -0.011099003 0.02758644 -0.0049616504
000050 00 12 10 3d 18 97 9f bd 46 53 61 bd b0 7f e4 bc
       0.035173416 -0.07792491 -0.055011056 -0.027892917
000060 95 69 64 bd fd 24 a5 3d ea 05 e2 3c 2d b6 c9 bc
       -0.055764753 0.080636956 0.02759071 -0.024623001
000070 af d4 67 3d 63 48 6c 3d c9 b6 2a bd 4b 2b 7f bd
       0.056599315 0.05768622 -0.041678224 -0.062297147
000080 57 3a 51 3d cd 02 58 3d
       0.051081028 0.052737046
