Model/output_dir/1DCNN_0809_1e-5.pt (torch, 848869 bytes, 6 tensors)

conv.weight f4 [32, 1, 1, 71]
0	0xbcc8a0d1	-0.024490746
1	0x3e0af42e	0.1356971
2	0xbd07e795	-0.03317984
3	0x3dcdaf3e	0.100431904
4	0xbdcaf12d	-0.09909282
5	0x3dd3d570	0.10343444
6	0xbbc8495a	-0.00611226
7	0xbd4e95ee	-0.050435953
8	0xbb06b8e6	-0.0020556985
9	0xbdd7387c	-0.105088204
10	0xbd3eed4c	-0.046613023
11	0x3ba59bb3	0.005053961
12	0xbd486fef	-0.048934873
13	0x3ce5092a	0.027958471
14	0xbdd025c9	-0.10163457
15	0xbd7bfed9	-0.06152234
16	0xbd971e35	-0.073788084
17	0x3dba8a3b	0.091083966
18	0x3d32e1ec	0.043672487
19	0xbd5fbc7a	-0.054623105
20	0xbcc37a20	-0.023861945
21	0xbd9c97a9	-0.076461144
22	0xbdd9d8dc	-0.10637066
23	0xbd35fda6	-0.04443135
24	0x3d12b2f0	0.03581518
25	0xbc02298d	-0.007944477
26	0x3da8e147	0.08246093
27	0x3e1bec68	0.152269
28	0xbd8c3a07	-0.06847005
29	0x3d073142	0.03300596
30	0x3df6afb8	0.120452344
31	0x3bf0ac66	0.0073447702
32	0x3dbace53	0.091213845
33	0xbd4edff3	-0.050506543
34	0x3ddfec23	0.109337114
35	0x3d53f4ee	0.051747255
36	0x3dd6f01c	0.10495016
37	0x3c612133	0.0137408255
38	0x3c97ffd2	0.018554602
39	0x3bba459a	0.0056845667
40	0x3be5e71f	0.007016077
41	0x3e16a656	0.1471189
42	0x3d25665a	0.040380813
43	0x3d0805c3	0.03320862
44	0x3e11f18e	0.14252302
45	0xbc8eebed	-0.017446483
46	0xbd8b7025	-0.06808499
47	0x3dda229f	0.10651135
48	0x3d5b20f2	0.053498216
49	0x3e100c07	0.14067088
50	0xbe03ed40	-0.12883472
51	0xbc8da056	-0.017288368
52	0x3cffc389	0.031221168
53	0xbd978610	-0.07398617
54	0x3dc9fd22	0.098627344
55	0x3d074ccb	0.03303222
56	0xbc130553	-0.008973437
57	0x3e0beaa7	0.13663732
58	0xbdb5e440	-0.08881426
59	0xbcc42f53	-0.023948347
60	0x3b5372a3	0.0032264374
61	0xbd1589b5	-0.03650828
62	0x3d9e1376	0.07718556
63	0x3e16f9cf	0.14743732
64	0x3ddb46d0	0.10706866
65	0x3da09dbe	0.07842587
66	0x3dd07492	0.10178484
67	0x3d88eafa	0.06685443
68	0xbca4ccc2	-0.020117167
69	0xbd93af84	-0.07211211
70	0x3d7827b9	0.060584757
71	0xbb962ba7	-0.0045828405
72	0xbd3f473e	-0.0466988
73	0xbd297bc2	-0.04137779
74	0xbdcca53b	-0.09992453
75	0x3af81c55	0.0018929342
76	0xbd083ede	-0.03326308
77	0x3dd59c21	0.1043017
78	0x3c70f47f	0.01470673
79	0x3dd1abc6	0.10237841
80	0x3dc24893	0.09486499
81	0xbdd3f94d	-0.10350285
82	0x3db15e42	0.086605564
83	0x3e23a4c2	0.15980819
84	0x3da5ea5c	0.08101341
85	0xbd514b99	-0.051097486
86	0xbd57f4e2	-0.052723773
87	0x3dc1eda1	0.09469152
88	0x3d1f7534	0.038930133
89	0xbde5822c	-0.11206469
90	0xbdf3936e	-0.11893354
91	0x3d6b176f	0.057395395
92	0xbddb3742	-0.10703899
93	0xbd285500	-0.041096687
94	0x3e10b1d0	0.1413033
95	0x3b9f8b9b	0.004868937
96	0xbd2717b7	-0.0407941
97	0x3e09fe6b	0.13475959
98	0x3e1c414c	0.15259284
99	0xbd9a1881	-0.07524205
100	0x3de453e7	0.111488156
101	0xbc8386d4	-0.016055502
102	0xbdea8190	-0.11450493
103	0x3e031e49	0.12804522
104	0x3e0067d7	0.12539612
105	0x3e129842	0.14315894
106	0xbd03852b	-0.03210942
107	0xbb83eb22	-0.0040258327
108	0x3c5fcccd	0.013659668
109	0x3db3d908	0.0878163
110	0x3d82fd35	0.06395952
111	0xbd9dc885	-0.07704262
112	0x3d0c7fe1	0.034301642
113	0x3c51bd86	0.012801534
114	0x3e0b0956	0.1357778
115	0x3c908705	0.017642507
116	0xbddf47ad	-0.10902343
117	0x3d4b8ebd	0.049696673
118	0xbc956fd6	-0.018241804
119	0x3ddba774	0.107252985
120	0xbd7abb05	-0.061213512
121	0xbc8c47b5	-0.017124036
122	0xbdf400ee	-0.1191424
123	0x3c9f3f4a	0.019439358
124	0x3db6a4dc	0.08918163
125	0x3ab931e1	0.0014129245
126	0x3d8bebf4	0.06832114
127	0x3cf4c2b1	0.029877992
128	0x3d3bee59	0.045881603
129	0xbb1055eb	-0.0022023867
130	0x3de8d6c4	0.11369088
131	0xbdbb5147	-0.09146362
132	0x3ca10c5d	0.019659216
133	0x3ded4825	0.11586026
134	0xbdb0da32	-0.086353675
135	0x3cafee14	0.02147583
136	0xbd8545f1	-0.06507481
137	0xbcb1d4b5	-0.021707872
138	0x3e09fffc	0.13476557
139	0x3cd1ab41	0.025594356
140	0x3dcae2a6	0.09906511
141	0xbd79eb6c	-0.06101553
142	0x3c50d00a	0.012744913
143	0x3d94257a	0.072337106
144	0xbd5b678c	-0.053565547
145	0xbccb1894	-0.024791993
146	0x3d3a2d56	0.045453392
147	0xbdf52cfc	-0.11971471
148	0x3897b40d	7.233778e-05
149	0xbddb6d42	-0.10714199
150	0x3d809150	0.06277716
151	0xbda314a9	-0.07962925
152	0xbd673113	-0.056443285
153	0x3e05261e	0.13002822
154	0x3dc4c417	0.09607714
155	0x3da95e1f	0.08269905
156	0x3d4d2682	0.050085552
157	0xbc029bca	-0.007971713
158	0xbdc0b61b	-0.09409734
159	0x3df04757	0.11732357
160	0x3dc920ea	0.09820731
161	0xbcc3d453	-0.023904955
162	0xbddb1458	-0.1069724
163	0x3d179597	0.037007894
164	0x3c8e5c5b	0.017378023
165	0x3c8f3919	0.017483281
166	0x393bf6bf	0.0001792563
167	0xbdecd28b	-0.115635954
168	0xbd22efd3	-0.039779495
169	0x3c86ff63	0.0164792
170	0xbdcb80c1	-0.09936667
171	0x3d23a613	0.039953303
172	0x3deb8837	0.1150059
173	0x3df50976	0.11964695
174	0x3d25b226	0.0404531
175	0x3dc6651f	0.09687256
176	0xbc178ce2	-0.009249898
177	0x3d1be336	0.038058482
178	0x3dfbbacc	0.12291488
179	0x3d2bc193	0.041932654
180	0xbdc7e106	-0.09759717
181	0xbb3bbf0f	-0.0028647815
182	0x3e063bd5	0.13108762
183	0x3dca0db0	0.09865892
184	0x3de677f0	0.11253345
185	0x3df33a8d	0.11876402
186	0xbdc8014e	-0.09765874
187	0x3d7ef7e5	0.06224813
188	0x3db0f273	0.086399935
189	0xbd837bf0	-0.064201236
190	0x3d53ca91	0.051706854
191	0x3e18850f	0.14894508
192	0x3d973997	0.07384031
193	0x3c7a8c9e	0.015292315
194	0x3de98238	0.114017904
195	0x3b98347f	0.00464493
196	0x3a3b31e6	0.00071409193
197	0x3ddc703e	0.10763596
198	0x3d17f9e6	0.037103556
199	0xbdf034db	-0.117288314
200	0xbdae0c42	-0.08498432
201	0x3e154fda	0.14581242
202	0x3e0341ba	0.12818041
203	0x3de67c12	0.11254133
204	0xbc0fe7b4	-0.00878327
205	0xbd2faa6f	-0.042887148
206	0xbde67b0f	-0.1125394
207	0x3d369ab4	0.04458113
208	0xbd6732f7	-0.05644509
209	0xbdfbcf3e	-0.12295388
210	0xbbbda0ef	-0.005787007
211	0x3e10dffb	0.14147942
212	0xbd93476c	-0.07191357
213	0x3d4a1480	0.049335957
214	0x3df9bb63	0.12193944
215	0x3d1a4570	0.037663877
216	0x3d498caa	0.049206413
217	0xbdc8e776	-0.09809773
218	0x3e051f33	0.13000183
219	0x3ce9a4bf	0.02852094
220	0x3d9f2894	0.077714115
221	0x3dee0225	0.11621503
222	0xbda0d394	-0.07852855
223	0xbaaea4c1	-0.0013324247
224	0xbd40a410	-0.047031462
225	0xbdbe8df1	-0.09304417
226	0xbd91f00e	-0.07125865
227	0xbd3cb8bc	-0.046074614
228	0xbd84e890	-0.0648967
229	0x3ceebe9a	0.02914362
230	0x3d3b421a	0.045717336
231	0xbd8baa24	-0.06819561
232	0x3e2327e0	0.1593318
233	0x3d732ff9	0.059371922
234	0x3d885c04	0.066581756
235	0xbda8c7bb	-0.082412206
236	0xbc581a77	-0.013189903
237	0x3df36e8b	0.11886319
238	0x3d543f66	0.051818274
239	0xbd75a0c3	-0.059967767
240	0xbdc3068b	-0.09522732
241	0xbd6366dc	-0.055518016
242	0x3e132660	0.14370108
243	0xbcec1b22	-0.028821532
244	0xbcbe208c	-0.023208879
245	0x3d8116bb	0.063031636
246	0x3d951285	0.07278923
247	0x3cb50256	0.02209584
248	0xbdc28bcd	-0.09499321
249	0x3c9c0b38	0.019048318
250	0xbd12bb85	-0.035823364
251	0x3da83187	0.082125716
252	0xbd83c2b5	-0.06433622
253	0x3e0faf68	0.14031756
254	0x3999567a	0.00029246864
255	0xbdbdffb0	-0.09277284

conv.bias f4 [32]
0	0xbcdec717	-0.027194543
1	0xbd8a2f28	-0.067472756
2	0x3d05d84e	0.032676987
3	0xbc923705	-0.017848501
4	0x3dc2599c	0.09489748
5	0xbd0cdf07	-0.034392383
6	0xbd4672d4	-0.048449352
7	0x3d26912f	0.0406658
8	0xbda63b10	-0.08116734
9	0xbb9e298c	-0.00482673
10	0xbdd241f6	-0.10266487
11	0x3dc2a0c2	0.09503318
12	0xbd8d26ae	-0.06892143
13	0xbd84d0a9	-0.06485111
14	0x3d9fd9a8	0.078051865
15	0x3dc330be	0.09530781
16	0xbcfefd77	-0.03112672
17	0x3cfc2d27	0.030783249
18	0xbc15154b	-0.009099315
19	0x3dbb02e4	0.09131411
20	0x3d6697cb	0.056297105
21	0xbbabcb0b	-0.0052427105
22	0x3e00ecfb	0.12590401
23	0x3e064de6	0.13115653
24	0x3bb71ccb	0.005588149
25	0x3e0b213d	0.13586898
26	0x3c94b33e	0.018151876
27	0x3d99ca89	0.07509334
28	0x3d2f0a92	0.04273469
29	0xbdd233a0	-0.10263753
30	0xbd999577	-0.07499211
31	0xbd8cc5f4	-0.06873694

hidden1.weight f4 [128, 1600]
0	0xbb575ad8	-0.0032860544
1	0x3cc3855b	0.0238673
2	0x3be04a1f	0.0068447734
3	0x3c572cc3	0.013133231
4	0xbce1d2dc	-0.027566366
5	0xbc70fedc	-0.014709201
6	0x3ced4221	0.028962197
7	0x39688e66	0.00022178292
8	0xbb3517e7	-0.0027632655
9	0x3c42425b	0.011856641
10	0xbcbf6260	-0.023362339
11	0xbca03795	-0.019557754
12	0x3c0343ce	0.008011771
13	0xba91dd16	-0.0011128511
14	0x3c9b7dc8	0.018980876
15	0x3c9a6527	0.018847061
16	0xbafe8761	-0.0019419008
17	0x3cb8dddc	0.022566728
18	0x399cf323	0.0002993579
19	0x3c246b26	0.010035312
20	0x3cb4104d	0.021980429
21	0x3c91c794	0.017795362
22	0xbc0525fb	-0.008126731
23	0x3b46f9d1	0.0030361305
24	0xbbacf9d6	-0.005278806
25	0x3cd2614c	0.02568116
26	0xbc8cd513	-0.017191445
27	0xbc84f8ce	-0.01623192
28	0x3c0107ce	0.007875396
29	0xbcdf2109	-0.027237432
30	0x3ae76928	0.001765524
31	0x3c3c17c6	0.011480277
32	0xbcbf7e75	-0.02337573
33	0x3ca6e34c	0.020372055
34	0x3aa1afa5	0.0012335671
35	0x3c3fb474	0.011700738
36	0x3c2691c6	0.010166591
37	0xbc93f775	-0.018062333
38	0x3bc7158b	0.006075566
39	0x3c8a0a43	0.016850596
40	0x39845c80	0.0002524592
41	0x3ba325bc	0.0049788635
42	0xbc8daeff	-0.017295359
43	0x3b944ca2	0.004525737
44	0x3c22d949	0.0099395
45	0x3c0cd7e5	0.008596395
46	0x3ba1b55a	0.004934949
47	0x3b9ba3c3	0.0047497465
48	0x3cd4713b	0.025932899
49	0xbc61a1f1	-0.01377152
50	0x3d0d942e	0.034565143
51	0x3c050fd7	0.008121452
52	0xbca0454b	-0.019564291
53	0x3b55a234	0.0032597901
54	0xbcb6719f	-0.022270976
55	0xb9ecd55e	-0.000451724
56	0x3d047cf5	0.03234573
57	0xbc96f55b	-0.018427541
58	0x3bfb681f	0.0076723243
59	0x3c7995b0	0.015233442
60	0xbcbb93f1	-0.022897692
61	0xbb67e21c	-0.0035382574
62	0x3ca338b6	0.019924503
63	0x3c24afa1	0.010051639
64	0x395e48d3	0.00021198699
65	0x3c141df3	0.009040344
66	0xba08c64e	-0.0005217538
67	0x3d025828	0.031822354
68	0x3bf12c1b	0.007359994
69	0xb8cff70a	-9.916544e-05
70	0x3d272ada	0.04081235
71	0xbc8d3055	-0.01723496
72	0xbcb749cb	-0.022374054
73	0x3c992cab	0.018698057
74	0xbb9303ef	-0.004486553
75	0x3b009dfe	0.001962542
76	0xbb09a6bc	-0.0021003922
77	0x3cddeb8b	0.027089855
78	0x3d22dfd0	0.039764225
79	0x3ce48692	0.0278962
80	0x3d0161fd	0.03158759
81	0x3bf774e6	0.007551777
82	0xbca54de8	-0.02017875
83	0xba941ccd	-0.0011300087
84	0x3ce4706d	0.02788564
85	0xbcc5fe6d	-0.024169171
86	0x3b413770	0.0029482506
87	0x3c7476b9	0.014920884
88	0x3b8417f3	0.0040311753
89	0xbc45cd8e	-0.012072934
90	0x39a301d9	0.0003109116
91	0xbb1d7bcc	-0.0024030088
92	0xbcd912d6	-0.02649824
93	0xbcc3f39b	-0.023919871
94	0x3c86561a	0.016398478
95	0xbc9c67ab	-0.019092401
96	0x3c70c3df	0.014695137
97	0xbcd17126	-0.025566649
98	0x3aadfc57	0.0013274056
99	0xbc4686d9	-0.012117111
100	0x3cf1a9ab	0.02949985
101	0x3b5e09b6	0.00338803
102	0x3b80a682	0.0039260993
103	0x3bcd3b95	0.0062632062
104	0xbce946bd	-0.028476113
105	0x3c3d9ac0	0.01157254
106	0x3cc6dca3	0.02427513
107	0x3cf2b4b3	0.02962718
108	0x3cadd2c6	0.021218669
109	0x3c7e4d0f	0.015521302
110	0x3b2a3c43	0.002597586
111	0xbca36973	-0.019947743
112	0xbc847aa0	-0.016171753
113	0xbc8de9f0	-0.017323464
114	0xbb8f7e16	-0.0043790443
115	0x3c4a6e63	0.01235542
116	0xb9c88d4a	-0.0003825224
117	0x3c37b76a	0.011213163
118	0xbc39dd74	-0.011344302
119	0xbc6c329f	-0.014416366
120	0xbc89b7b8	-0.016811237
121	0x3cb8fa24	0.022580214
122	0x3c985871	0.01859686
123	0xbbc28665	-0.0059364312
124	0xbc366a17	-0.011133692
125	0x3c460331	0.012085722
126	0x3c544f53	0.0129583655
127	0xbbb7c475	-0.0056081363
128	0xbbc29e77	-0.0059393006
129	0x3c98673d	0.018603915
130	0xbc075e0c	-0.008262169
131	0xbc5a29dc	-0.013315644
132	0xbb4e5735	-0.0031485085
133	0x3cf84ffc	0.030311577
134	0xbc0ed03f	-0.008716642
135	0xbbb5b145	-0.005544814
136	0xbc1f9076	-0.009739032
137	0x3c6d831f	0.014496594
138	0x3ba3505d	0.0049839453
139	0xbc759f82	-0.014991643
140	0xbcc9c864	-0.024631687
141	0xbb02696e	-0.0019899267
142	0xbc848494	-0.0161765
143	0xba811aad	-0.0009849869
144	0xbca6cff1	-0.020362826
145	0x3cb13335	0.021630863
146	0x3ba0afc6	0.0049037663
147	0x3c49db1b	0.012320305
148	0x3c0a7b45	0.008452241
149	0xbc8881db	-0.016663482
150	0xbca32561	-0.019915285
151	0xbc7de10b	-0.015495549
152	0xbca45c95	-0.020063678
153	0x3c40bc1b	0.011763598
154	0xbbf59a8a	-0.007495229
155	0x3cec2e36	0.028830629
156	0xbd0fa070	-0.035065114
157	0xbca6ccab	-0.020361265
158	0xbcf15038	-0.029457197
159	0xbc48d7be	-0.012258468
160	0xbc5b61fe	-0.013390062
161	0xbae99e8c	-0.001782374
162	0xbd323c84	-0.043514743
163	0xbd1734fd	-0.036915768
164	0x3bd06675	0.00635987
165	0x3c71db7d	0.014761803
166	0xbcbecfb1	-0.023292394
167	0xbb3909d6	-0.0028234622
168	0x3c04bdac	0.008101862
169	0xbb6f453c	-0.0036509773
170	0xbc14afd7	-0.009075127
171	0xbb11bb0e	-0.0022236737
172	0x3cf415ff	0.029795645
173	0xbc5ac2b1	-0.013352082
174	0x3d034527	0.03204837
175	0xbc3331dc	-0.01093718
176	0x3b69e5d6	0.0035689971
177	0xb9fd0853	-0.00048262122
178	0xb8f20290	-0.000115399365
179	0xbcab52b1	-0.020913454
180	0x3c15b716	0.009137889
181	0xbbb3171b	-0.005465401
182	0x3cc54735	0.024081806
183	0xbc11dce0	-0.008902758
184	0x3d114678	0.035467595
185	0xbc0d3f07	-0.008620984
186	0xbc1a389f	-0.009412914
187	0x3bfbaecd	0.00768075
188	0x3b6f6308	0.0036527533
189	0xbc63ce3e	-0.013904152
190	0x3b725edc	0.003698281
191	0xbc09a4a0	-0.008401066
192	0xbca02e38	-0.019553289
193	0x3c141a76	0.009039512
194	0x3c5787ea	0.013154963
195	0xbc69dfa3	-0.014274511
196	0xbcfa0571	-0.030520173
197	0x3cdd248a	0.026994962
198	0x3c27deb2	0.010245966
199	0x3ccf3c06	0.025297176
200	0xbcb89241	-0.022530677
201	0xbc4cb71e	-0.01249483
202	0xba5f1283	-0.00085095334
203	0xbc407563	-0.011746737
204	0xbbff95b1	-0.007799827
205	0xbca00551	-0.019533785
206	0x3b6ae70f	0.0035843288
207	0x3c706355	0.01467212
208	0x3cb7af96	0.022422593
209	0xbc5764c7	-0.013146586
210	0xbc06d12c	-0.008228581
211	0xbb86fc3d	-0.0041194246
212	0xbbdca7ca	-0.006733869
213	0xbca52016	-0.020156901
214	0x3b28d584	0.002576203
215	0xbb0a2c5f	-0.0021083576
216	0x3c5504c4	0.0130016245
217	0x3c965c6d	0.018354619
218	0xbc881664	-0.01661224
219	0xbcbda742	-0.023151044
220	0xbc9e38e5	-0.019314239
221	0x3c7272fd	0.014797923
222	0x3c0632db	0.008190836
223	0x3cfac57a	0.030611742
224	0x3ce3a9ab	0.027790865
225	0x3c8c6552	0.017138157
226	0x3cc1d326	0.023660254
227	0xbcf87ae0	-0.030332029
228	0xbc947451	-0.01812187
229	0xbb867788	-0.0041036047
230	0xba74934b	-0.00093298097
231	0x3cfe8f9c	0.031074338
232	0x3cb71d82	0.022352938
233	0xbce0cf66	-0.027442645
234	0xbcb6e350	-0.022325188
235	0x3c76af1f	0.015056401
236	0xbcb187e2	-0.02167124
237	0xbc6d7716	-0.014493724
238	0x3c73bbc2	0.014876308
239	0x3c1ee969	0.009699204
240	0xbc15d16e	-0.00914417
241	0xbc83af9e	-0.016074952
242	0x3c82581f	0.01591116
243	0xbc140c6d	-0.009036166
244	0x3cb5dc8c	0.022199892
245	0xba8c6d2e	-0.001071369
246	0x3c4699ee	0.012121661
247	0xbbb57b7b	-0.0055384017
248	0xbbbb7b5e	-0.0057214936
249	0x3ca87fac	0.020568691
250	0xbb655036	-0.0034990436
251	0xbc78fec6	-0.0151974615
252	0x3cdfb261	0.027306737
253	0xbcbe359e	-0.023218926
254	0xbbfccac6	-0.007714602
255	0xbcab17b3	-0.020885324

hidden1.bias f4 [128]
0	0x3ca52b41	0.020162227
1	0xbbfd5ac8	-0.0077317692
2	0x3c98da2e	0.018658724
3	0xbc59b2ed	-0.013287288
4	0xbb5e537a	-0.0033924268
5	0x3cb35be4	0.021894403
6	0xbcaaa2b2	-0.020829532
7	0x3c8826cd	0.016620064
8	0xbcbf41d0	-0.023346812
9	0xbc52054c	-0.012818646
10	0x3c2e75d2	0.010648208
11	0x3b5c4f5f	0.0033616645
12	0xbca6b7c0	-0.02035129
13	0x3c21ff7b	0.009887571
14	0x3cbdd62c	0.023173414
15	0xbaf50969	-0.0018694821
16	0x3babbdb5	0.0052411207
17	0xbcb132d0	-0.021630675
18	0x3c49dbbe	0.012320457
19	0x3bb1ac8c	0.0054221805
20	0xbbcd1fd2	-0.006259897
21	0x3c320e9a	0.010867739
22	0xbca33ec8	-0.019927397
23	0xbb1ccd48	-0.0023926068
24	0xbc951e70	-0.01820299
25	0xba70755d	-0.0009172762
26	0x3c9eb74f	0.019374518
27	0xbc78f7de	-0.015195815
28	0xbc964098	-0.018341348
29	0x3c07ec31	0.0082960585
30	0xbc92eeae	-0.017936077
31	0x3c8a7f8e	0.016906526
32	0x3bdb51d9	0.0066931066
33	0xbc902db0	-0.01759991
34	0xbbaab6a3	-0.0052097603
35	0x3b39bf8f	0.0028342938
36	0x3ca18dec	0.019720994
37	0xbc890c00	-0.016729355
38	0x3cce5afd	0.025189871
39	0x3c5f6aa0	0.013636261
40	0x3c7c4c4f	0.015399053
41	0x3cc40f9a	0.02393322
42	0xbb816d6b	-0.003949811
43	0x3c2dd081	0.010608793
44	0x3bcbe70c	0.0062226113
45	0x3c405668	0.011739351
46	0xbbeff2bd	-0.007322638
47	0xbc875431	-0.016519638
48	0xbc967629	-0.01836689
49	0xbcc000fa	-0.023437966
50	0xbbdbcdc5	-0.0067078792
51	0xbb14c1f5	-0.0022698615
52	0x3cbed8ef	0.023296801
53	0x3c94e77e	0.01817679
54	0xbcb94bc8	-0.022619143
55	0x3cb5ca01	0.02219105
56	0xbb921553	-0.0044581085
57	0x3c9e4dc1	0.019324185
58	0xbb3d1328	-0.002885053
59	0x3c60d215	0.013721962
60	0x3b1b6d6c	0.0023716344
61	0x3cb9f408	0.022699371
62	0xbc945d5e	-0.018110927
63	0x3cd422e4	0.025895543
64	0x3ccb713d	0.02483427
65	0x3bfc3c88	0.0076976456
66	0x3c8d2aa5	0.017232249
67	0xbc1fe97a	-0.009760255
68	0x3ab9199c	0.0014122012
69	0xbbffa931	-0.0078021516
70	0x3c2ea604	0.010659698
71	0xb935922c	-0.00017315958
72	0xbc496809	-0.01229287
73	0xbbdcbc33	-0.0067363023
74	0xba8e2f30	-0.0010847803
75	0x3ca8c4f0	0.02060172
76	0xba9a1a8e	-0.0011757181
77	0xbcb78082	-0.022400144
78	0xbc638a06	-0.013887888
79	0x3cd171b0	0.025566906
80	0x3c4c074e	0.012452913
81	0xbc1184d2	-0.0088817645
82	0x3c5eda9b	0.013601924
83	0xbbc89b21	-0.0061220084
84	0xbc6ca740	-0.014444172
85	0xbc7cb701	-0.015424491
86	0x3cc7e540	0.024401307
87	0xbc693387	-0.0142334765
88	0xbc8c69e7	-0.017140342
89	0xbbddbf47	-0.006767187
90	0x3c8fc5a0	0.01755029
91	0x3c30e60f	0.010797038
92	0x3c6cf8b5	0.014463593
93	0xbc5bfe19	-0.013427281
94	0xbca93914	-0.0206571
95	0x3ca5c357	0.020234747
96	0x3ccab166	0.024742793
97	0xbc7d8db8	-0.015475683
98	0xbcb7abc5	-0.022420773
99	0xbbd8c5b3	-0.0066153645
100	0xbb0b6e21	-0.0021275359
101	0x3a175180	0.00057723373
102	0xbc1b3815	-0.00947382
103	0xbc85982d	-0.016307915
104	0xbc9ba428	-0.018999174
105	0xbb5c5f0f	-0.0033625995
106	0x3c834606	0.0160246
107	0xbbca93c4	-0.006182166
108	0x3c2abf37	0.010421566
109	0x3c8eb02c	0.01741799
110	0xbc24c70e	-0.010057224
111	0x3c563faa	0.013076702
112	0x3ba5bf0b	0.0050581745
113	0xbaad7e16	-0.0013236429
114	0x3c8c8f67	0.017158223
115	0x3c4d41de	0.012527911
116	0xbbdb2227	-0.006687421
117	0x3bf14c9a	0.007363868
118	0x3cc28120	0.023743212
119	0xbc3e5800	-0.0116176605
120	0xbc9f6b5f	-0.019460378
121	0xbb8a8060	-0.0042267293
122	0x3c99fc2a	0.018796999
123	0xbc38ecb3	-0.011286902
124	0x3c83c633	0.01608572
125	0xbcb65886	-0.022259008
126	0xbc771913	-0.015081662
127	0xbba71a1e	-0.005099549

hidden2.weight f4 [34, 128]
0	0xbdefc4ab	-0.11707433
1	0xbd3d788f	-0.04625755
2	0x3ddd584b	0.10807856
3	0x3da696b3	0.08134212
4	0x3d031073	0.03199811
5	0xbd1a37e2	-0.03765095
6	0xbd906b9b	-0.07051774
7	0xbc49d112	-0.012317913
8	0xbdb3155f	-0.087443106
9	0xbd2bc9f2	-0.041940637
10	0xbcc48434	-0.02398882
11	0x3d5cbc6f	0.05389064
12	0x3d2958a9	0.04134432
13	0x3d902a41	0.07039309
14	0xbd1602fa	-0.036623932
15	0x3dbac10a	0.091188505
16	0xbddb9584	-0.10721877
17	0xbd2df359	-0.042468403
18	0x3d0cbfbd	0.034362543
19	0x3da1e730	0.07905424
20	0x3dc35aa0	0.0953877
21	0xbd2592ca	-0.040423192
22	0x3c16987a	0.009191627
23	0x3d441bb8	0.047877997
24	0x3b0f4c39	0.00218655
25	0x3da9d7b2	0.08293094
26	0x3d98fd32	0.07470168
27	0x3d9c9084	0.07644752
28	0x3d1fa203	0.038972866
29	0xbd9d6601	-0.07685471
30	0x3cefc512	0.029268775
31	0xbd73922c	-0.059465572
32	0x3d85bb66	0.06529884
33	0xbc26b9a9	-0.010176101
34	0x3d6cdc89	0.057827506
35	0xbdd0432f	-0.10169064
36	0x3dcb050d	0.09913073
37	0x3d8f9edd	0.07012723
38	0x3d2e3c76	0.04253813
39	0x3dc63a4e	0.096790895
40	0x3d48fd0b	0.049069446
41	0x3d466190	0.048432887
42	0xbd71a16c	-0.058991835
43	0xbced736e	-0.028985705
44	0x3d92011f	0.0712912
45	0xbdc0d5b6	-0.09415762
46	0xbcbbe152	-0.02293459
47	0xbd5b843b	-0.0535929
48	0xbd869e0b	-0.06573113
49	0xbd62c56a	-0.05536405
50	0xbcddff5a	-0.0270993
51	0x3d3d84a4	0.046269074
52	0x3d0f905c	0.03504978
53	0xbcc9bd99	-0.02462654
54	0xbcfe3ff6	-0.031036358
55	0x3daf5970	0.08561981
56	0xbd5ac22f	-0.053407844
57	0x3d182832	0.03714771
58	0xbdd619ef	-0.10454165
59	0xbdb8a91e	-0.090166315
60	0x3d704b8f	0.05866581
61	0xbd1c1b4d	-0.038111974
62	0xbd270b7f	-0.040782448
63	0xbd6d828e	-0.057985835
64	0xbd5718c5	-0.052513856
65	0x3bdcb5bf	0.006735533
66	0x3cb9d39d	0.022683913
67	0xbc84e1ff	-0.016221045
68	0xbdc5ee92	-0.09664644
69	0x3dba2e32	0.09090842
70	0x3dbd31ec	0.092380375
71	0x3d4a25ed	0.049352575
72	0xbacf5f22	-0.0015821198
73	0x3da4f4f8	0.080545366
74	0xbd35fddd	-0.044431556
75	0xbc57786a	-0.013151268
76	0x3d66d3d4	0.05635436
77	0xbdc5a507	-0.09650617
78	0x3d9733f0	0.07382953
79	0xbdc1d55d	-0.09464524
80	0x3ce3dce2	0.027815286
81	0xbdbb3435	-0.09140817
82	0xbc8255eb	-0.01591011
83	0x3d21d7e6	0.039512537
84	0xbdda936f	-0.10672652
85	0x3d9a2c0f	0.07527935
86	0x3dc92173	0.09820833
87	0xbd8b9fd7	-0.068175964
88	0xbc9ffb62	-0.019529048
89	0x3c5eb523	0.013592991
90	0xb9e42b4c	-0.00043519808
91	0xbd577c4c	-0.052608773
92	0xbde724c5	-0.1128631
93	0x3d319a21	0.04335988
94	0x3d93a97c	0.07210061
95	0xbde358b2	-0.11100902
96	0x3d36f847	0.04467037
97	0xbda933cb	-0.08261832
98	0x3d7cee26	0.061750554
99	0xbd9f3d3e	-0.07775353
100	0xbdaac1b7	-0.083377294
101	0xbda1a558	-0.07892865
102	0x3d5415ea	0.05177871
103	0xbbc6cf33	-0.0060671805
104	0xbc5263dc	-0.012841191
105	0xbd1b32bf	-0.037890192
106	0xbcb4f39d	-0.02208882
107	0xbddc3d90	-0.107539296
108	0x3c6081ec	0.013702851
109	0xbd26591a	-0.040612318
110	0x3da78b9a	0.08180924
111	0x3d38909a	0.045059778
112	0x3cb6c928	0.022312716
113	0x3d2e15e8	0.04250136
114	0xbd097c47	-0.033565786
115	0xbdaa5369	-0.083166905
116	0xbbfa29ca	-0.007634376
117	0xbc994122	-0.018707816
118	0x3d5d63f0	0.054050386
119	0xbda876c4	-0.08225778
120	0x3cf65504	0.030069835
121	0x3cf9e848	0.030506268
122	0xbc9ae2f9	-0.018907057
123	0xbd2aa53c	-0.041661486
124	0xbd5c4cd9	-0.053784225
125	0x3cfc902b	0.030830463
126	0x3d533c0d	0.05157094
127	0xbb6412cd	-0.0034801245
128	0xbd095c71	-0.033535425
129	0x3df108d2	0.117692605
130	0xbdbbd8aa	-0.09172185
131	0x3c406846	0.011743611
132	0x3d856118	0.0651266
133	0x3d0403e6	0.03223028
134	0x3d602127	0.054719117
135	0xbd9f026c	-0.07764134
136	0x3df7fc6b	0.12108692
137	0xbdebf447	-0.115212016
138	0xbd3f65f7	-0.0467281
139	0x3cd152ed	0.025552237
140	0xbde16c65	-0.11007003
141	0x3ca91658	0.020640537
142	0x3d1f6ca5	0.03892197
143	0x3d1ba5f1	0.03800005
144	0x3cdba2d6	0.026811045
145	0xbcaf890f	-0.02142766
146	0x3d83eeba	0.06442018
147	0x3d997de3	0.07494714
148	0xbdce61cc	-0.10077247
149	0x3d82ae61	0.063809164
150	0xbda79b9a	-0.081839755
151	0xba1e8c27	-0.0006048106
152	0x3d9fdea3	0.078061365
153	0x3c825553	0.015909826
154	0xbcb84b20	-0.02249676
155	0x3cef0e7f	0.029181717
156	0x3d16be8e	0.03680282
157	0x3c6e6c43	0.014552179
158	0xbd52aa6a	-0.05143205
159	0xbd41d061	-0.047317866
160	0x3c4e1f43	0.012580696
161	0x3da92121	0.08258272
162	0x3d9649b6	0.07338278
163	0xbdad158d	-0.08451376
164	0xbd578553	-0.052617382
165	0xbd45c4f9	-0.04828355
166	0x3d823f2a	0.06359704
167	0x3d2aa099	0.041657064
168	0x3db06c47	0.08614402
169	0xbd4b0761	-0.049567584
170	0x3d4cc1a7	0.04998937
171	0xbde77504	-0.11301616
172	0x3d88ebea	0.06685622
173	0x3d081933	0.033227157
174	0x3da4cfa6	0.08047418
175	0xbdce5adf	-0.10075926
176	0xbd3086ca	-0.043097295
177	0x3d552a29	0.05204216
178	0x3dc02f8f	0.09384071
179	0xbde5a198	-0.11212462
180	0x3d348840	0.04407525
181	0x3ddee499	0.10883445
182	0x3d3ae47d	0.04562806
183	0x3d49aff2	0.04924006
184	0x3d97ca19	0.07411594
185	0x3c18a86e	0.0093175005
186	0x3dabd226	0.08389692
187	0x3d4e8da5	0.05042805
188	0xbd40f555	-0.047108967
189	0x3db98802	0.090591446
190	0x3d1098a2	0.035301812
191	0xbd4e02f4	-0.050295785
192	0x3d7ca8dd	0.061684478
193	0xbd2bbe17	-0.04192933
194	0xbd6eda07	-0.058313396
195	0xbd7acf38	-0.061232775
196	0xbca7d4c1	-0.020487191
197	0xbc2d5389	-0.010578998
198	0x3dc2e3ea	0.095161274
199	0x3ca3a08f	0.019974021
200	0xbd9b4c2d	-0.07582889
201	0x3c95836b	0.018251142
202	0x3d1ae130	0.03781241
203	0x3d259a30	0.040430248
204	0xbd30722d	-0.043077637
205	0xbd92e96c	-0.07173428
206	0x3d71333f	0.058886763
207	0xbda48337	-0.0803284
208	0x3ca861c8	0.020554438
209	0x3d2dd3dc	0.042438373
210	0x3d78c130	0.060731113
211	0xbda6dfa5	-0.081481256
212	0x3d608e0f	0.054822978
213	0x3d7cbeb1	0.061705295
214	0x3d20829c	0.03918706
215	0xbdd34850	-0.10316527
216	0x3dabc030	0.08386266
217	0xb9c95399	-0.00038399993
218	0x3c27f4a1	0.010251195
219	0x3a97339f	0.001153577
220	0xbd1df45e	-0.038563125
221	0xbde28758	-0.11060971
222	0xbda7e1bb	-0.081973515
223	0x3d8c30c9	0.068452425
224	0x3d4a0fbc	0.04933141
225	0x3d10ff64	0.03539981
226	0xbda68960	-0.08131671
227	0x3d7ccecc	0.061720654
228	0x3cffba10	0.031216651
229	0x3d8cd851	0.068771966
230	0x3d44001e	0.047851674
231	0xbdf5d79d	-0.120040156
232	0x3cc3bd95	0.02389411
233	0xbd125cac	-0.03573291
234	0x3d781388	0.0605655
235	0xbc8c3077	-0.017112954
236	0xbd5c5cfe	-0.05379962
237	0x3d17fc97	0.037106123
238	0xbdd7956b	-0.10526546
239	0x3d572ceb	0.05253307
240	0x3da48c90	0.08034623
241	0xbc0db58b	-0.00864924
242	0xbccf7832	-0.025325868
243	0x3dc3be2e	0.09557758
244	0x3de2cde1	0.110744245
245	0x3db0ca65	0.08632354
246	0x3d79ed77	0.06101748
247	0x3cb3a19b	0.021927645
248	0x3d5c330e	0.053759627
249	0xbce52424	-0.027971335
250	0xbd8855dc	-0.066570014
251	0x3d99254e	0.074778184
252	0xbcf3bd55	-0.029753366
253	0x3db2ce95	0.08730809
254	0x3c0b92b4	0.0085188635
255	0xbd80bd67	-0.06286126

hidden2.bias f4 [34]
0	0xbdaae77a	-0.08344932
1	0xbc5c4f4e	-0.013446642
2	0xbcc37ca5	-0.023863146
3	0x3d5f4e28	0.054517895
4	0xbc7e33cd	-0.01551528
5	0x3d10caa9	0.03534952
6	0x3cd0344a	0.025415558
7	0xbd0a6258	-0.033785194
8	0xbd9709df	-0.0737493
9	0xbcd82dc0	-0.026389003
10	0x3d4ee539	0.050511573
11	0x3da4baa8	0.08043414
12	0x3cc88b29	0.02448042
13	0x3d0181c9	0.031617913
14	0x3c7d4dea	0.015460471
15	0x3d0c8a13	0.034311365
16	0xbd5e75be	-0.054311506
17	0x3c156d67	0.009120322
18	0xbc5bf9ec	-0.013426285
19	0x3d988bff	0.07448577
20	0xbd3e5fbc	-0.04647802
21	0xbd0a31c0	-0.03373885
22	0x3cc43826	0.023952555
23	0x3ce0192f	0.027355758
24	0x3c5b5f1a	0.013389373
25	0x3c98023b	0.018555751
26	0x3cdf4757	0.027255697
27	0xbdaa8ba8	-0.083274186
28	0xbd4173fa	-0.047229744
29	0x3d0e7175	0.03477617
30	0x3d8601f6	0.06543343
31	0x3d257278	0.04039237
32	0xbd270d3c	-0.040784106
33	0x3c524cb0	0.012835667
