Model/output_dir/1DCNN_0809_2e-3_4.pt (torch, 848869 bytes, 6 tensors)

conv.weight f4 [32, 1, 1, 71]
0	0x3dff5b33	0.12468567
1	0xbe61892c	-0.22024983
2	0x3db55d15	0.088556446
3	0x3e2ad361	0.16682197
4	0x3e356506	0.17714319
5	0xbd444648	-0.047918588
6	0xbe6fe767	-0.23428117
7	0xbdb90891	-0.09034837
8	0x3e040c12	0.1289523
9	0x3d980c32	0.07424201
10	0x3df02e9f	0.11727642
11	0x3de5fb9d	0.11229632
12	0x3d37f6ed	0.04491322
13	0x3ec7dbf4	0.39034998
14	0xbe457230	-0.1928184
15	0xbe0ae584	-0.13564116
16	0xbe3112ee	-0.17292377
17	0x3d0e5815	0.03475197
18	0xbe89f05d	-0.26941195
19	0xbcdc67bb	-0.026904931
20	0x3d5de87d	0.054176796
21	0x3de827f9	0.11335749
22	0xbdadc49a	-0.084847644
23	0x3d5e09be	0.05420851
24	0x3ce15048	0.027504101
25	0x3d1dfd25	0.038571496
26	0x3d6c2011	0.05764777
27	0xbe4464f2	-0.19179133
28	0x3e4be471	0.19911362
29	0x3db1652f	0.08661877
30	0x3d5e61ba	0.054292418
31	0xbe876880	-0.26446915
32	0x3e4856a3	0.195643
33	0x3d30f5ca	0.043203153
34	0x3dd199dd	0.10234425
35	0xbe5cff1d	-0.21581693
36	0x3ca53d9e	0.020170983
37	0x3d29edda	0.0414866
38	0xbd48d446	-0.049030565
39	0xbe2ea705	-0.170559
40	0xbe877c98	-0.26462245
41	0xbd820737	-0.06349032
42	0x3df9892a	0.12184365
43	0xbe18ed6d	-0.14934321
44	0xbdeeffdd	-0.11669896
45	0x3d7a9c46	0.06118419
46	0x3d63567a	0.055502392
47	0xbe27328a	-0.16327873
48	0xbe10e57a	-0.14150038
49	0xbbca2615	-0.0061690905
50	0xbdbc91fe	-0.09207533
51	0xbd2529f4	-0.040323213
52	0xbd0d779d	-0.0345379
53	0xbda98df5	-0.08279029
54	0x3d1a2621	0.03763402
55	0x3ebea59f	0.37235734
56	0x3e1cb64b	0.15303914
57	0xbd627a07	-0.055292156
58	0x3d88e7cb	0.06684836
59	0xbe017352	-0.12641647
60	0x3d423b1f	0.047419664
61	0x3d0de320	0.03464043
62	0x3e260d6e	0.1621606
63	0x3dc5ed4a	0.096644
64	0x3dcec237	0.10095637
65	0xbe1827b5	-0.14858897
66	0xbdeaec89	-0.11470897
67	0xbdbcfb79	-0.09227652
68	0xbd2125ae	-0.039342575
69	0xbe2513da	-0.16120854
70	0x3dd31fc8	0.10308796
71	0xbe804aac	-0.2505697
72	0x3d5ab5db	0.053396087
73	0x3e8baad5	0.27278772
74	0xbd8e4e27	-0.069485
75	0xbe1ca43e	-0.15297028
76	0x3e4ad814	0.1980899
77	0xbd9398c7	-0.07206874
78	0xbe638e9c	-0.2222237
79	0xbd106d6f	-0.035260614
80	0x3e5915a6	0.21199664
81	0x3e1fbdf3	0.15599804
82	0xbe9c12d6	-0.3048312
83	0x3d797587	0.0609031
84	0xbda083b3	-0.0783762
85	0x3c1d3faa	0.009597698
86	0x3e1606c6	0.14651021
87	0x3e5db30c	0.21650332
88	0x3d381e43	0.044950735
89	0xbd0755b2	-0.03304071
90	0x3ec8818e	0.39161342
91	0xbe4b1868	-0.19833529
92	0x3d2200f2	0.039551683
93	0xbe5cbf04	-0.21557242
94	0x3dc79750	0.097456574
95	0xbe038632	-0.1284416
96	0x3da37f53	0.079832695
97	0x3e9e700d	0.30944863
98	0x3c916c9e	0.017751988
99	0x3d2ef363	0.04271258
100	0x3d2d0412	0.04224021
101	0xbd7f90ec	-0.062394068
102	0xbe160982	-0.14652064
103	0x3ca4c72c	0.020114504
104	0xbe06b044	-0.13153177
105	0xbd8fe257	-0.07025593
106	0xbe355f8a	-0.17712227
107	0xbe86cb98	-0.26327205
108	0x3db99946	0.09062438
109	0xbcdd8b90	-0.027044088
110	0x3c3457c3	0.011007252
111	0x3e40d892	0.18832615
112	0xbe73f69e	-0.23824546
113	0x3c301240	0.010746539
114	0x3e3f0ee0	0.18658018
115	0x3ca2dfb4	0.01988206
116	0xbd86b0a7	-0.065766625
117	0x3dacf6a0	0.084454775
118	0xbe0c4181	-0.13696863
119	0xbd4c1574	-0.049825147
120	0x3daa0283	0.0830126
121	0xbc5880fe	-0.013214348
122	0x3db94e63	0.09048154
123	0x3e237ec8	0.15966332
124	0xbce19735	-0.027537921
125	0xbc8dd0ef	-0.017311541
126	0xbe281d42	-0.16417411
127	0x3cdd778b	0.027034542
128	0x3d259c56	0.040432297
129	0xbc319992	-0.010839837
130	0xbc5d4a42	-0.013506474
131	0xbcbd4499	-0.023103999
132	0x3df930f1	0.12167538
133	0x3e230cde	0.15922877
134	0xbe953357	-0.29140732
135	0xbd4e1029	-0.05030838
136	0xbce54efc	-0.027991764
137	0x3dfe3512	0.12412466
138	0x3e1d8a08	0.15384686
139	0x3ddf2d45	0.10897306
140	0x3d8a9b83	0.06767943
141	0xbdcab7d3	-0.09898343
142	0xbe1c5c52	-0.15269592
143	0xbb4ed020	-0.0031557158
144	0xbe157692	-0.14596012
145	0x3d213915	0.03936108
146	0xbe5e33b7	-0.21699415
147	0x3c9408c7	0.018070592
148	0xbe1ef61d	-0.15523572
149	0x3957e1f4	0.00020588172
150	0xbe8e28ed	-0.277656
151	0x3c4ada88	0.0123812035
152	0x3e40e93e	0.18838975
153	0xbe5571b4	-0.20844156
154	0x3dd7a324	0.105291635
155	0x3e163352	0.14668015
156	0xbe792e94	-0.24334174
157	0xbdc1ef89	-0.09469516
158	0xbdc31200	-0.095249176
159	0xbd5cbc32	-0.053890415
160	0x3c755a70	0.014975175
161	0xbd963975	-0.07335178
162	0x3e5118ed	0.20419665
163	0x3ded2ca9	0.11580784
164	0xbe02ebbc	-0.12785238
165	0x3e6ad98a	0.22934547
166	0x3dc53d11	0.09630788
167	0x3c74181e	0.014898328
168	0xbe572bdb	-0.21012823
169	0xbe08e698	-0.13369215
170	0x3e19cbd6	0.15019163
171	0x3cc04449	0.02347006
172	0x3d885126	0.06656103
173	0xbd9c1e7b	-0.07623001
174	0x3e1ee9f3	0.15518932
175	0x3e00061f	0.12502335
176	0xbbabc33c	-0.0052417796
177	0x3d4795c6	0.04872682
178	0x3d977e57	0.07397144
179	0xbdc10861	-0.09425426
180	0x3e15dac1	0.14634229
181	0xbc9c15ea	-0.019053418
182	0x3e1ee034	0.15515214
183	0x3db6290c	0.08894548
184	0xbdc578d3	-0.09642186
185	0xbe74ab91	-0.23893572
186	0x3dbfdda5	0.09368447
187	0x3dba3eac	0.09093985
188	0xbc47ce66	-0.012195205
189	0x3dadbbf3	0.08483114
190	0x3d7d0418	0.061771482
191	0x3d31b108	0.04338172
192	0x3d8c283a	0.0684361
193	0xbcb8aae7	-0.02254243
194	0x3e548798	0.2075485
195	0xbe24141d	-0.16023298
196	0xbbc73ef2	-0.0060805017
197	0x3d962829	0.07331879
198	0x3e82a63b	0.2551745
199	0xbd62c77a	-0.055366017
200	0xbe8aaea3	-0.27086362
201	0xbe28bbf7	-0.16477953
202	0xbdeb0b42	-0.11476757
203	0xbe2c0d96	-0.16802058
204	0xbe2ba6bb	-0.16762821
205	0xbe36695d	-0.1781363
206	0x3e8208d7	0.2539737
207	0x3e7640dd	0.24048181
208	0x3e520dcc	0.20513076
209	0x3db6dcf7	0.089288644
210	0xbe08a5f6	-0.13344559
211	0xbca9545d	-0.02067011
212	0x3cab9525	0.020945141
213	0x3da8731c	0.0822508
214	0xbe91c35c	-0.2846936
215	0x3df6e7d7	0.12055939
216	0x3d1e1995	0.038598616
217	0x3e925ff0	0.2858882
218	0x3e59e5fd	0.2127914
219	0xbe878363	-0.26467428
220	0x3bc6f4b6	0.0060716523
221	0xbe28670a	-0.16445556
222	0xbe3df247	-0.18549453
223	0x3a87a9e8	0.0010350319
224	0xbe55f1d7	-0.20893036
225	0x3e177725	0.14791544
226	0x3de2dd71	0.11077393
227	0xbdf155a7	-0.11783915
228	0xbe5b8369	-0.21436848
229	0x3e014343	0.12623315
230	0xbe0a450a	-0.13502899
231	0x3ebe6263	0.37184438
232	0xbcbad30f	-0.022805719
233	0x3c701726	0.0146539565
234	0x3d28cd88	0.041211635
235	0xbe34a6b8	-0.17641723
236	0xbdfff2d9	-0.124974914
237	0x3d9fd19e	0.07803653
238	0x3e094f9e	0.13409278
239	0xbd03defc	-0.032195076
240	0x3def9dd3	0.117000245
241	0xbe8468d7	-0.25861236
242	0x3e1ef836	0.15524372
243	0x3dfc3784	0.12315276
244	0x3e601444	0.2188273
245	0x3ca10110	0.019653827
246	0x3d2914cd	0.041279603
247	0xbe10c0d1	-0.14136054
248	0xbe165c97	-0.14683758
249	0x3b91df9c	0.004451705
250	0x3def0262	0.11670376
251	0x3e097548	0.13423645
252	0xbe1b587a	-0.1517047
253	0x3b325afa	0.002721487
254	0xbe3a32c0	-0.18183422
255	0xbe6ab49a	-0.22920457

conv.bias f4 [32]
0	0xbdddbfab	-0.108275734
1	0x3cd932c6	0.026513468
2	0xbdc03f95	-0.09387127
3	0x3ce425b6	0.027850013
4	0x3d12316d	0.035691667
5	0x3dd3cab6	0.103413984
6	0x3d85896d	0.065203525
7	0x3a8d5534	0.0010782839
8	0xbd18a955	-0.037270863
9	0x3d8f2e03	0.06991198
10	0xbd88b25a	-0.06674643
11	0xbdf22e99	-0.11825294
12	0xbde97272	-0.11398782
13	0xbd8e3ecd	-0.06945572
14	0x3c0c268e	0.008554114
15	0xbcd4c1f2	-0.025971387
16	0xbe0a90cd	-0.135318
17	0xbd1380d8	-0.036011547
18	0x3d81999e	0.06328128
19	0xbbb8003f	-0.0056152637
20	0x3dc16b52	0.09444298
21	0x3daf5cd7	0.0856263
22	0x3cae184e	0.021251824
23	0x3db84b9b	0.089987956
24	0xbd33a5c9	-0.043859277
25	0x3cc24ee1	0.023719253
26	0xbd060c85	-0.032726783
27	0x3d94dafb	0.0726833
28	0xbdfc254b	-0.123118006
29	0xbd43648e	-0.04770332
30	0xbd80dbaf	-0.06291901
31	0x3d0ce450	0.034397423

hidden1.weight f4 [128, 1600]
0	0xbbf6e21d	-0.007534279
1	0xbb92b01a	-0.0044765593
2	0x3d945547	0.07242828
3	0xbd985516	-0.07438104
4	0x3c7b7162	0.015346857
5	0x3d26f275	0.04075857
6	0xbdfa45f3	-0.12220373
7	0x3cfb66bf	0.030688642
8	0x3d88b21b	0.06674596
9	0xbd81a166	-0.063296124
10	0xbd5a3d81	-0.05328131
11	0xbc2bd4bd	-0.0104877325
12	0x3e0e0622	0.13869527
13	0x3ced1d18	0.028944537
14	0x3ccda480	0.025102854
15	0xbcd53803	-0.026027685
16	0x3df1efaf	0.11813294
17	0xbd54cb52	-0.051951714
18	0xbc96c0bc	-0.01840245
19	0xbd16fe99	-0.036863897
20	0x3d542620	0.05179417
21	0x3d8ec803	0.06971743
22	0xbcb73548	-0.022364274
23	0xbb48b0bc	-0.003062292
24	0x3d9a02bd	0.075200535
25	0x3d424a58	0.04743418
26	0xbcc6be5b	-0.02426069
27	0xbda4f5e9	-0.08054716
28	0xbda965e4	-0.08271387
29	0xbc38d576	-0.011281362
30	0xbd81f980	-0.063464165
31	0x3cd20133	0.025635337
32	0xbbddfeef	-0.006774775
33	0xbda36f93	-0.079802655
34	0x3cf61c4f	0.030042795
35	0xbb648271	-0.0034867788
36	0xbde46ccc	-0.11153564
37	0x3e305e8c	0.17223567
38	0xbd460daf	-0.048352893
39	0xbc7b5685	-0.015340452
40	0x3dab3ee8	0.08361608
41	0xbd7e0e18	-0.06202516
42	0xbd0104a1	-0.031498555
43	0xbe2069f8	-0.15665424
44	0x3db2a902	0.08723642
45	0xbc9262a2	-0.017869297
46	0x3dafd2ac	0.08585104
47	0xbd572954	-0.052529648
48	0x3c74ce08	0.0149417
49	0x3e2ba6a9	0.16762795
50	0xbd7f1d71	-0.062283937
51	0x3d92c2b9	0.07166047
52	0xbb665936	-0.0035148389
53	0xbc5cdc68	-0.013480283
54	0xbbf82f52	-0.0075740004
55	0xbd045f35	-0.03231736
56	0xbd1b0521	-0.03784669
57	0x3c5b3bdb	0.01338097
58	0x3d4f92c0	0.05067706
59	0x3c2f2bb0	0.010691568
60	0x3dd75923	0.10515048
61	0xbd2c43f4	-0.042056993
62	0x3e3761c0	0.17908382
63	0xbb8eaf27	-0.004354376
64	0x3d5f0a48	0.054453164
65	0xbbcb061b	-0.006195796
66	0x3c05a01a	0.008155847
67	0xbd62550c	-0.05525689
68	0xbd9988ef	-0.07496821
69	0xbd67283d	-0.05643486
70	0x3d8c802c	0.06860384
71	0xbc075150	-0.0082591325
72	0x3d604bb0	0.05475968
73	0xbd94e640	-0.07270479
74	0x3e2d5466	0.16926727
75	0x3d67e2d0	0.05661279
76	0x3cb26ebc	0.021781318
77	0x3c0b4021	0.008499176
78	0x3e185c8a	0.14879051
79	0x3d40378c	0.046927974
80	0x3b6796fd	0.0035337799
81	0xbd9c6bfb	-0.07637783
82	0xbd99fe75	-0.07519237
83	0xbd4c93b3	-0.049945544
84	0xbd8046d4	-0.062635094
85	0x3c9f2e3c	0.019431226
86	0xbde51cf7	-0.11187165
87	0x3c65df07	0.014030225
88	0xbc3d814e	-0.011566473
89	0x3decd93f	0.11564874
90	0x3dae64b6	0.08515303
91	0xbd825fb6	-0.06365912
92	0x3ccc56c2	0.024943713
93	0x3e0a911a	0.13531914
94	0xbd89411c	-0.06701872
95	0xbb805daa	-0.0039174156
96	0x3e55f615	0.20894654
97	0x3e04c561	0.12965919
98	0xbd6b56e5	-0.057455916
99	0xbd987c79	-0.07445616
100	0x3d7713d9	0.060321663
101	0xbe5196bd	-0.20467658
102	0xbcf3c4f3	-0.029756999
103	0xbdb6b914	-0.089220196
104	0x3cae53d9	0.021280216
105	0xbbdd4045	-0.0067520463
106	0xbd420b72	-0.047374196
107	0xbdac6344	-0.08417371
108	0xbcf89634	-0.03034506
109	0xbd9c1deb	-0.07622894
110	0xbc93517f	-0.017983196
111	0xbd12c7e7	-0.035835173
112	0xbdf8ac62	-0.121422544
113	0xbd32cc52	-0.043651886
114	0xbb0f2598	-0.0021842476
115	0xbc6cf720	-0.014463216
116	0xbe22f719	-0.15914573
117	0x3e5734ed	0.21016283
118	0x3cb713c3	0.02234829
119	0xbb9e71a2	-0.0048353234
120	0x3d9b4522	0.075815454
121	0xbcfb91e6	-0.030709218
122	0xbdf976be	-0.121808514
123	0x3c5fcb11	0.013659255
124	0x3de3cfe3	0.111236356
125	0x3c624a13	0.013811606
126	0x3dbd5b29	0.09245903
127	0x3c23888c	0.009981286
128	0xbd405d57	-0.046964016
129	0xbde12f6b	-0.109953724
130	0xbd06e6f0	-0.032935083
131	0xbc5a0bbc	-0.013308462
132	0x3d019c3f	0.03164315
133	0x3bce8cec	0.0063034203
134	0xbdc7ad14	-0.09749809
135	0xbd53e5fe	-0.05173301
136	0xbc148170	-0.009064063
137	0xbd8e4535	-0.06946794
138	0xbc830c63	-0.015997117
139	0xbe8c0aa9	-0.27351883
140	0x3a8ebd18	0.0010890095
141	0xbae65967	-0.0017574251
142	0xbcab3d2d	-0.020903194
143	0x3c49a339	0.012306982
144	0x3e888bf7	0.26669285
145	0x3e4c9c5b	0.1998152
146	0x3c575654	0.013143141
147	0x3d9c2fc2	0.076262966
148	0x3e0364d0	0.12831426
149	0x3db82748	0.08991867
150	0x3c6c930a	0.014439354
151	0x3c874a6a	0.016514976
152	0x3c03dedb	0.008048738
153	0x3d576fcf	0.052596863
154	0xbc04ceb8	-0.008105926
155	0xbb9f40da	-0.004860026
156	0x3da82861	0.08210827
157	0xbd2b58a1	-0.04183257
158	0xbbe60838	-0.0070200227
159	0xbd6c80ce	-0.057740025
160	0xbd49e47a	-0.049290158
161	0x3d090742	0.033454187
162	0x3a7d8489	0.00096709334
163	0x3dcc96f9	0.09989733
164	0x3c83253e	0.01600897
165	0xbd9ee715	-0.07758919
166	0xbd0d7dc6	-0.034543775
167	0x3c89f411	0.016840013
168	0x3e0f3897	0.13986431
169	0x3c9542b5	0.018220285
170	0x3ce29603	0.027659422
171	0xbdd7f23a	-0.10544248
172	0xbd0daa7a	-0.034586407
173	0x3d69d1fb	0.05708502
174	0x3d5a513a	0.05330012
175	0x3d9ad1f4	0.07559577
176	0x3da40411	0.08008588
177	0xbddfe175	-0.109316744
178	0xbdc5846d	-0.09644399
179	0x3c45950f	0.012059464
180	0x3d0ce4eb	0.034398
181	0xbd8fa295	-0.07013432
182	0xbd1a27bb	-0.037635546
183	0x3d1e9820	0.038719296
184	0x3d81f454	0.0634543
185	0x3c624630	0.013810679
186	0x3d727081	0.059189323
187	0x3d8179b1	0.06322039
188	0x3d30eb90	0.0431934
189	0xbdb078f8	-0.08616823
190	0x3d868c75	0.06569759
191	0xbcb2ded0	-0.02183476
192	0xbda3c3a1	-0.07996298
193	0x3d51eeb0	0.05125302
194	0xbda40f2a	-0.08010705
195	0xbd668524	-0.056279317
196	0x3b5822db	0.003297976
197	0xbe1776fc	-0.14791483
198	0xbc7db5f7	-0.015485278
199	0x3d7bd10e	0.061478667
200	0xbd9e68a7	-0.077348046
201	0xbd12600e	-0.035736136
202	0xbd022c1e	-0.031780355
203	0xbcdd50f1	-0.027016135
204	0x3d57b9e7	0.052667525
205	0xbd593549	-0.053029332
206	0x3d1ee215	0.038789827
207	0x3d03d0d8	0.03218159
208	0xbd70ecf7	-0.058819737
209	0x3cd0f159	0.025505709
210	0xbd2b0f40	-0.04176259
211	0x3cf5a501	0.029985907
212	0x3de74101	0.112916954
213	0xbd4199fe	-0.047266
214	0xbaf49d2b	-0.0018662562
215	0xbc219559	-0.009862267
216	0x3d40cd68	0.04707089
217	0x3c22f025	0.00994495
218	0xbd6d506c	-0.057938024
219	0xbda1fe16	-0.07909791
220	0x3b2b9b6f	0.0026185175
221	0x3b1a6aa2	0.0023562093
222	0xbbe03eb1	-0.006843411
223	0x3deb5a52	0.114918366
224	0x3ca5e70a	0.02025177
225	0xbcefa8f5	-0.02925537
226	0x3d875820	0.066086054
227	0x3c00c9fd	0.007860658
228	0x3ba50402	0.005035878
229	0x3db4cc3f	0.08828019
230	0xbd35e04e	-0.044403367
231	0x3cdc7bbe	0.026914474
232	0xbdfebbc9	-0.12438161
233	0x3c4adec2	0.012382211
234	0x3e5f5f25	0.21813639
235	0xbe0021bc	-0.12512869
236	0x3ca25cd6	0.019819658
237	0xbc389181	-0.01126516
238	0x3c8d5206	0.017251026
239	0x3e39417d	0.18091388
240	0xbd8a0766	-0.067396924
241	0xbc98fd33	-0.018675422
242	0x3e5edeea	0.21764722
243	0x3e375649	0.17904009
244	0xbd017c4a	-0.031612672
245	0xbdc2fca4	-0.095208436
246	0x3d83f520	0.06443238
247	0xbd399668	-0.045309454
248	0xbe0ad19b	-0.1355652
249	0x3bf13bbf	0.0073618586
250	0xbca89ca0	-0.020582497
251	0x3da57ba6	0.08080225
252	0x3d087b92	0.03332097
253	0x3d9af9e3	0.07567193
254	0x3c1ffb30	0.009764478
255	0xbca9ccf2	-0.020727608

hidden1.bias f4 [128]
0	0x3cc935d1	0.024561794
1	0xbd7c1ca7	-0.061550763
2	0xbcb17d73	-0.021666264
3	0x3cb5a7e7	0.022174789
4	0xbc68034e	-0.014160944
5	0x3c033a6d	0.008009535
6	0xbc67382f	-0.014112516
7	0xbd034c0e	-0.032054953
8	0xbcd54506	-0.02603389
9	0x3c419a6b	0.011816601
10	0x3bc31f5a	0.005954665
11	0x3b8f425e	0.0043719253
12	0x3c88935c	0.016671829
13	0xbacaa84e	-0.0015461536
14	0xbca2f557	-0.019892378
15	0xbbd075b7	-0.006361689
16	0x3a5abdc9	0.000834432
17	0xbcd93279	-0.026513325
18	0x3b8505a7	0.0040595117
19	0x3bda3057	0.0066585946
20	0xbc66ac5a	-0.014079178
21	0xbd136135	-0.035981376
22	0x3be932ad	0.0071166367
23	0xbbec5052	-0.0072117234
24	0xbc657998	-0.014006041
25	0xbc5ee24e	-0.01360376
26	0x3cf12330	0.029435724
27	0x3c26793a	0.010160739
28	0xbd1e0ca6	-0.03858628
29	0x3c2a1235	0.010380317
30	0xbc220839	-0.009889656
31	0xbbef745a	-0.0073075714
32	0xbb900c6f	-0.0043960134
33	0xbd0fe14d	-0.035126973
34	0x3b3da5f9	0.0028938039
35	0xbca2f01e	-0.019889887
36	0xbb7013bd	-0.0036632859
37	0xbc81a48b	-0.01582553
38	0x3c181d46	0.009284323
39	0xbccc1ca3	-0.024915999
40	0xbcddc2f5	-0.027070502
41	0x3ce9f7fe	0.028560635
42	0xbbbe5cf5	-0.005809421
43	0xbcf3f231	-0.029778572
44	0x3cb79ef1	0.022414656
45	0xbcdc61da	-0.026902128
46	0x3cc15b43	0.023603087
47	0x3ca7ad68	0.020468429
48	0xbb7134f2	-0.003680524
49	0x3c393317	0.011303685
50	0x3d06c7da	0.032905437
51	0x3b93c2f3	0.0045093237
52	0x3d10a732	0.0353157
53	0x3bb464cb	0.0055051795
54	0x3cf64a8e	0.030064847
55	0xb984f95c	-0.0002536279
56	0x3cc86430	0.024461836
57	0xbc291bf2	-0.010321604
58	0x3d169623	0.036764275
59	0xbd00234a	-0.031283654
60	0x3c8ed351	0.017434748
61	0xbc95c01c	-0.018280081
62	0xbd033f53	-0.032042813
63	0x3ab0573a	0.001345373
64	0x3c8ea469	0.017412381
65	0x3a198c20	0.0005857367
66	0x3c7f1d45	0.015570943
67	0x3cb566f0	0.022143811
68	0x3bafb633	0.005362296
69	0x3b80e361	0.0039333557
70	0xbc86f587	-0.016474498
71	0xbbe116d2	-0.0068691755
72	0x3c86bb1e	0.016446646
73	0xbd80a0cb	-0.06280669
74	0xbb56904f	-0.0032739823
75	0xbbaeea4f	-0.0053379904
76	0xbbbce190	-0.005764194
77	0xbc3ec553	-0.011643725
78	0xbbc4a54c	-0.0060011502
79	0x3c8bcd71	0.017065736
80	0x3c669273	0.014073002
81	0x3af52270	0.001870228
82	0x3ca06f88	0.019584432
83	0xbb249cc4	-0.0025117854
84	0xbaed30e9	-0.0018096241
85	0x3be352c3	0.006937356
86	0x3bd79d38	0.006580021
87	0xbc17a8ea	-0.009256581
88	0x3b6f0b6a	0.003647531
89	0xbd0b94c9	-0.03407744
90	0x3c4c499f	0.0124687245
91	0x3becdd52	0.007228532
92	0xba0d6bdc	-0.00053947954
93	0xbc292bd1	-0.010325388
94	0x3cb2ba11	0.021817239
95	0xbb7c96a5	-0.003854194
96	0x3c367fbd	0.011138854
97	0xbcc68584	-0.024233587
98	0x3c6e3a65	0.0145402895
99	0xbbb77da5	-0.005599695
100	0x3be59796	0.007006596
101	0x3bf842cc	0.007576322
102	0x3c3c94ac	0.0115100555
103	0x3c34bee4	0.01103184
104	0x3bf63c90	0.007514544
105	0x3c03d804	0.008047108
106	0x3b21038f	0.0024568771
107	0xbb41f8cc	-0.0029597757
108	0x3b879595	0.0041377046
109	0xbb58ca85	-0.0033079695
110	0x3c64b402	0.013958933
111	0x3bdcf491	0.006743022
112	0xbc99e969	-0.018788056
113	0x3b931a15	0.004489193
114	0xbc15d91d	-0.009146002
115	0xbc15954e	-0.009129835
116	0x3c4d4c19	0.01253035
117	0x3c90d48d	0.017679477
118	0xbcb52b64	-0.022115417
119	0xbc8ff578	-0.017573103
120	0x3c57029e	0.013123183
121	0xba2c4edc	-0.000657303
122	0x3c678885	0.01413167
123	0xba313994	-0.0006760594
124	0xbb993e02	-0.0046765814
125	0xbcec8391	-0.02887133
126	0x3ba96f91	0.0051707705
127	0xbc2a0619	-0.01037743

hidden2.weight f4 [34, 128]
0	0xbd0982bd	-0.033571947
1	0x3dd68b93	0.104758404
2	0xbe191174	-0.14948064
3	0xbce074de	-0.027399477
4	0xbd9aca36	-0.075581
5	0x3d17711e	0.03697311
6	0xbccd21e2	-0.02504057
7	0x3a896b87	0.0010484316
8	0x3d99bb54	0.07506433
9	0x3d874e93	0.06606784
10	0x3d53078a	0.05152086
11	0xbd213e42	-0.039366014
12	0x3de440b6	0.11145155
13	0xbd8fd047	-0.070221476
14	0x3c894cc0	0.01676023
15	0x3e21c9e9	0.15799679
16	0x3d146d1f	0.03623688
17	0xbd33f87a	-0.043938138
18	0x3e208bd7	0.15678345
19	0xbde355c5	-0.111003436
20	0xba5eaa36	-0.00084939913
21	0xbad7447d	-0.0016423609
22	0xbcc81b3b	-0.024427047
23	0x3de0fadc	0.10985348
24	0xbda79a94	-0.0818378
25	0xbd322f3b	-0.043502074
26	0xbd9bdd9f	-0.0761063
27	0xbd179d46	-0.037015222
28	0xbc200834	-0.009767581
29	0x3d763d32	0.060116954
30	0xbca71fd0	-0.020400912
31	0x3e275180	0.16339684
32	0x3d8c98cf	0.068650834
33	0xbd34e3ff	-0.044162747
34	0xbd4eb72a	-0.050467648
35	0x3cbb6474	0.022875048
36	0x3e038a57	0.12845741
37	0xbd44cb66	-0.04804554
38	0x3cabb4c0	0.020960212
39	0x3d0a9639	0.03383467
40	0xbd8092cd	-0.06278
41	0xbccd4eb5	-0.025061944
42	0xbd52aaeb	-0.05143253
43	0x3d38ef5f	0.045150157
44	0xbbb9d416	-0.0056710346
45	0x3c28f1ee	0.010311587
46	0xbe4e5845	-0.2015086
47	0xba330515	-0.00068290654
48	0x3c0c2605	0.008553986
49	0x3d92c2b1	0.07166041
50	0x3d3c350c	0.045949027
51	0xbdabec55	-0.08394686
52	0xbcbe3625	-0.023219177
53	0xbcb68d0c	-0.022284053
54	0x3c7f2ca0	0.015574604
55	0xbd0d72ee	-0.034533434
56	0x3d029f60	0.031890273
57	0xbd981913	-0.074266575
58	0xbddb397d	-0.107043244
59	0xbc9c65c7	-0.0190915
60	0x3b29ecff	0.0025928614
61	0xbd5e6ea2	-0.054304726
62	0x3c670ecb	0.014102648
63	0xba412e8a	-0.00073693006
64	0xbd42aea1	-0.04752982
65	0xbc39653b	-0.011315639
66	0x3cdc0d94	0.026861943
67	0x3dacd1d5	0.0843846
68	0xbd090217	-0.03344926
69	0x3da4a3eb	0.08039077
70	0xbd597b2c	-0.05309598
71	0xbda3abe4	-0.0799177
72	0x3d0d652d	0.034520317
73	0x3d820d6b	0.063502155
74	0xbdaa7505	-0.08323101
75	0x3d3bc87c	0.045845494
76	0xbd4b5a92	-0.04964692
77	0xbcbf684f	-0.023365168
78	0x3d5b210c	0.053498313
79	0xbdb2885f	-0.08717417
80	0xbd57b423	-0.052662026
81	0x3df0b6d6	0.11753623
82	0x3de3b3dc	0.1111829
83	0xbd682919	-0.05667982
84	0x3d63e654	0.05563958
85	0x3d1f0278	0.038820714
86	0x3dc77b02	0.09740259
87	0x3d977771	0.073958285
88	0xbd5acde7	-0.05341902
89	0xbccd70c8	-0.025078192
90	0xbd2fa6fb	-0.042883854
91	0xbdae61f1	-0.085147746
92	0xbc12c24e	-0.008957459
93	0xbd956c81	-0.07296086
94	0x3db50fc4	0.08840898
95	0xbd933477	-0.07187741
96	0x3d98e433	0.074654005
97	0xbc8bfb36	-0.01708756
98	0x3da1f589	0.0790816
99	0x3d618c63	0.055065524
100	0xbe07487a	-0.13211241
101	0x3d15650a	0.03647331
102	0x3dc988d1	0.09840549
103	0x3cc40b92	0.023931298
104	0xbe2959d5	-0.16538174
105	0x3d898664	0.06715086
106	0xbd1cda7a	-0.038294293
107	0x3e314902	0.17313007
108	0x3dbd7d71	0.09252442
109	0x3d16588d	0.036705542
110	0x3df67878	0.12034696
111	0xbc3e1780	-0.0116022825
112	0xbd3f9f56	-0.046782814
113	0x3d198c88	0.037487537
114	0x3d96d6e8	0.07365209
115	0x3d075079	0.03303573
116	0xbda997c0	-0.08280897
117	0x3ce2be1e	0.027678546
118	0xbd4ebad5	-0.050471146
119	0x3e08dc14	0.13365203
120	0x3d904379	0.070441194
121	0x3cb01705	0.021495352
122	0xbdd38d47	-0.10329681
123	0xbb5c920f	-0.0033656394
124	0x3ce18e1f	0.027533589
125	0xbd6d95fd	-0.058004368
126	0x3cf9e5f8	0.030505165
127	0x3c82d322	0.015969817
128	0x3ddfd3bf	0.10929059
129	0xbd55b494	-0.052174166
130	0x3e4e85cd	0.20168228
131	0x3d90411e	0.0704367
132	0x3dc8f2ec	0.09811959
133	0x3dc53dd1	0.09630931
134	0x3e7a1887	0.24423419
135	0xbd724b55	-0.059153873
136	0x3d98a76f	0.074538104
137	0xbd79fb98	-0.061030954
138	0xbe2e8d3e	-0.17046067
139	0x3cfbb21a	0.030724574
140	0x3da4ed6a	0.08053096
141	0xbd945195	-0.07242123
142	0xbd8bac48	-0.068199694
143	0x3b9f6fc0	0.0048656166
144	0xbdc9e556	-0.098581955
145	0x3b861a77	0.0040925103
146	0x3d821fd9	0.06353731
147	0x3da21397	0.07913893
148	0x3db091e8	0.086215794
149	0x3d0adce2	0.033902057
150	0x3d146c2b	0.03623597
151	0xbde7fcf3	-0.11327543
152	0x3e07d675	0.13265403
153	0xbd683bc6	-0.05669763
154	0x3d92386b	0.07139667
155	0xbdefe3fa	-0.11713405
156	0xbd702dc3	-0.05863739
157	0xbe80071c	-0.25005424
158	0x3d9b7328	0.07590324
159	0xbdce6eb1	-0.100797065
160	0x3d894ea8	0.067044556
161	0x3dae745c	0.085182875
162	0x3d4f295d	0.050576556
163	0xbd89332b	-0.06699213
164	0xbdad4bf2	-0.08461751
165	0x3d6707e9	0.056404028
166	0xbd1be676	-0.03806158
167	0xbd5ead75	-0.05436464
168	0x3c359e82	0.0110851545
169	0xbe085762	-0.13314584
170	0x3e0734d0	0.1320374
171	0x3bf45ba8	0.0074572153
172	0x3ac60da7	0.001511027
173	0x3c0193e1	0.007908792
174	0xbc8792b5	-0.016549448
175	0xbe3cb969	-0.18430103
176	0xbd401ebd	-0.046904314
177	0x3d973cb4	0.07384625
178	0x3e0405f9	0.12892903
179	0xbcef23d2	-0.029191885
180	0x3e45da14	0.19321471
181	0x3d573df8	0.052549332
182	0xbd8c71dd	-0.06857655
183	0x3d5df633	0.054189872
184	0xbd80399d	-0.06260989
185	0xbd6048c4	-0.054756895
186	0x3db35fd1	0.0875851
187	0x3cec6268	0.028855518
188	0xbe037935	-0.12839206
189	0x3d09bb34	0.033625796
190	0xbd030587	-0.031987693
191	0x3c9f2071	0.019424649
192	0x3d6d451f	0.057927247
193	0xbd5c647c	-0.053806767
194	0x3db0b430	0.08628118
195	0x3e51d8d1	0.20492865
196	0xbc94f794	-0.01818446
197	0x3d4eb081	0.050461296
198	0xbe1952fe	-0.14973065
199	0x3dc0fa4b	0.094227396
200	0x3aec4374	0.0018025474
201	0x3d10dca1	0.035366658
202	0xbe09ce34	-0.13457566
203	0xbd389fbe	-0.045074217
204	0x3cca87d9	0.02472298
205	0xbc8b5664	-0.017008968
206	0x3d7ff807	0.062492397
207	0x3d845666	0.06461792
208	0x3dc6c2de	0.09705137
209	0x3dab2a3d	0.08357666
210	0x3d060948	0.032723695
211	0xbc4e86d7	-0.0126053905
212	0xbd7f8c98	-0.06238994
213	0xbe0d8b83	-0.13822751
214	0xbd388d21	-0.045056466
215	0xbd96e18a	-0.07367237
216	0xbcf6014c	-0.030029915
217	0x3db391f8	0.08768076
218	0x3d927e13	0.07152953
219	0x3d8e3aba	0.06944795
220	0xbd88a04e	-0.06671201
221	0x3d917f35	0.07104341
222	0xbe203895	-0.15646584
223	0xbd52e369	-0.051486406
224	0xbd5f5efe	-0.05453395
225	0xbda94195	-0.08264462
226	0xbe0a42ce	-0.13502046
227	0x3c132134	0.008980084
228	0xbcbc6e5b	-0.02300184
229	0x3e1a57fa	0.15072623
230	0xbd8042df	-0.06262755
231	0xbbe74f63	-0.007059024
232	0x3d2c290e	0.04203134
233	0x3d9d7d9a	0.07689972
234	0xbd88424e	-0.066532716
235	0x3d75ecbc	0.06004022
236	0x3cc67fa9	0.024230795
237	0xbd4ad6ef	-0.049521383
238	0xbc0ddf8f	-0.008659258
239	0x3d7971ad	0.060899425
240	0x3bc32d37	0.0059563178
241	0x3d09e10e	0.033661895
242	0x3e10102c	0.14068669
243	0xbda0ee75	-0.07857982
244	0x3db68640	0.08912325
245	0x3d9896eb	0.0745066
246	0xbd0052c8	-0.031328946
247	0x3d2bf1f2	0.041978784
248	0xbd62bf4a	-0.05535821
249	0xbcc53db3	-0.024077272
250	0xbcc39e55	-0.02387921
251	0xbd48c580	-0.049016476
252	0x3d6bc1c9	0.057557855
253	0x3ce4812f	0.02789363
254	0x3d69eade	0.057108752
255	0xbe172c58	-0.1476301

hidden2.bias f4 [34]
0	0xbd1d81d7	-0.038453903
1	0xbd7b0d81	-0.061292175
2	0x3d8cda38	0.068775594
3	0xbd2adf46	-0.041716836
4	0x3d95479a	0.072890475
5	0xbd4aeee2	-0.049544223
6	0x3da28edb	0.07937404
7	0xbd9370d7	-0.07199257
8	0x3d49db76	0.04928156
9	0xbd3edff2	-0.04660029
10	0x3c9fe0ed	0.019516433
11	0x3cdcaa5c	0.026936702
12	0x3d46c2d7	0.048525658
13	0x3d1a38fa	0.037651993
14	0xbcf08e88	-0.02936484
15	0xbd5a4f7c	-0.05329846
16	0xbcd16805	-0.025562296
17	0xbd044874	-0.03229566
18	0xbd6e8ace	-0.058237843
19	0x3d6e0bca	0.05811671
20	0x3d1dae20	0.038496137
21	0x3d80a42a	0.06281312
22	0xbd8efa80	-0.06981373
23	0xbcd43ef1	-0.025908919
24	0xbdab4046	-0.083618686
25	0xbcbfcad5	-0.023412148
26	0xbb4292ee	-0.0029689628
27	0xbc797f22	-0.015228065
28	0xbd878fe1	-0.066192396
29	0x3cc28840	0.02374661
30	0x3ceaee3a	0.028678048
31	0xbd7aacb6	-0.061199866
32	0xbce77f15	-0.02825884
33	0xbd34c2c0	-0.04413104
