Model/output_dir/1DCNN_0809_2e-3_3.pt (torch, 848869 bytes, 6 tensors)

conv.weight f4 [32, 1, 1, 71]
-0.2612522 -0.07916322 0.15466274 0.254576 0.15230188 0.096480355 0.038942438 0.074650034
-0.3660603 0.13238086 -0.006592861 -0.20330626 0.08794577 0.026435861 -0.2334772 0.19329798
-0.47383323 0.068003826 0.30111977 0.45117298 0.20147824 0.175741 -0.27799377 0.18268308
-0.21843255 -0.0073787486 -0.29072154 -0.08515323 -0.11515514 0.1072523 0.064849816 0.0722676
0.2631995 -0.21185414 -0.048163343 0.0050414377 -0.10285064 0.041039523 0.053160165 0.14366859
-0.176559 -0.033755884 -0.048599955 0.101076655 0.049808517 0.23702788 0.08120901 -0.21972026
0.0029022358 -0.26839224 0.03672773 0.14193097 0.130192 0.030840108 0.14782074 -0.030847298
0.25218815 -0.011833923 -0.13415472 -0.2230877 -0.18664292 -0.15458542 0.047129802 -0.15801305
0.062372297 -0.0039677247 -0.03960211 -0.28102952 0.15700631 -0.055033516 -0.07098125 0.17479794
-0.064009026 0.17162827 -0.0315376 -0.21651265 0.15969546 0.033013612 -0.026404014 -0.4980107
-0.23795986 0.17106247 0.13720378 -0.19797072 -0.045205016 -0.09996516 -0.09287442 0.11634111
0.12128907 -0.06900118 0.33472347 -0.001493573 -0.008477927 -0.057905123 0.11026836 0.16259073
0.052468605 0.22208598 -0.08469468 -0.15307921 0.10755502 -0.16394751 0.04756141 0.10855541
0.0025893198 -0.063679144 0.06840264 -0.00992059 0.012349107 -0.037715323 -0.0073239473 0.018561352
0.008870109 -0.25888038 0.057655443 -0.0731038 0.07077926 0.23023395 -0.03976989 -0.006243838
-0.026609061 -0.12370956 -0.019342583 0.10863844 -0.1696232 0.035990357 -0.080355436 0.17073014
-0.1486625 -0.2071194 0.084690176 0.07534086 0.08190302 0.018106574 -0.14275944 0.11222543
0.10675353 0.09554891 -0.43892345 0.09055942 0.049958356 -0.1391373 0.22423589 0.07064167
0.08050678 -0.11228024 0.14115183 0.04794735 -0.25545624 0.12951146 -0.16316374 -0.196861
-0.054186326 0.21988493 0.17614165 -0.19701576 0.023725167 0.08090698 -0.098585 0.2121969
0.018378764 -0.43055353 0.068643734 -0.1372834 -0.06866974 -0.25423 -0.0028558343 -0.060563534
-0.054074556 -0.20513622 -0.022327492 0.08991656 0.016944507 -0.086314835 -0.12977292 0.0052211354
-0.08687399 -0.15633571 -0.039318915 -0.12181772 0.16929096 0.018967079 0.04711034 0.27917168
0.012529453 0.089053735 -0.17183162 -0.054766085 0.21101514 -0.05207698 0.30111906 0.09823963
-0.02800775 0.10924386 -0.049435433 -0.2439314 -0.10969248 0.12195713 0.2941546 -0.022701394
-0.088279165 -0.057190273 -0.12285263 0.08070591 0.14956766 -0.1534234 0.048046835 0.13006727
0.0638866 -0.18483299 -0.043623168 -0.16866289 0.0848686 -0.18023096 0.03228746 0.13652664
-0.055471152 0.13910298 0.01672258 -0.07787068 -0.066665806 0.090104 -0.28903612 -0.11424659
-0.12773187 -0.008154011 0.05330384 -0.064749375 0.031061253 -0.020707868 0.13443674 0.15409076
-0.38347152 -0.1665591 -0.23747513 0.026029468 -0.09944977 -0.13617243 -0.16712366 0.15775186
0.040440843 0.20107596 0.12703562 -0.044141237 0.14355531 -0.2751435 -0.19519272 -0.118151695
-0.1789229 -0.1406772 -0.083791785 0.065432854 -0.06360301 0.064067826 -0.058012452 0.21710676
00000000: d9c2 85be 5420 a2bd e95f 1e3e c957 823e
00000010: 06f5 1b3e 7e97 c53d 1b82 1f3d 1ee2 983d
00000020: 416c bbbe d98e 073e ed08 d8bb 842f 50be
00000030: e91c b43d 0590 d83c a614 6fbe e8ef 453e
00000040: 459a f2be 9745 8b3d 5f2c 9a3e 2500 e73e
00000050: 5050 4e3e 73f5 333e 3355 8ebe 4611 3b3e
00000060: c8ac 5fbe 6ec9 f1bb 74d9 94be d164 aebd
00000070: 75d6 ebbd 18a7 db3d fbcf 843d 0901 943d
00000080: 16c2 863e 4bf0 58be ed46 45bd a532 a53b
00000090: 5ba3 d2bd 0f19 283d 79be 593d dc1d 133e
000000a0: e2cb 34be 9c43 0abd bf10 47bd 4701 cf3d
000000b0: 0404 4c3d 70b7 723e e950 a63d 59fe 60be
000000c0: 7033 3e3b b56a 89be d16f 163d 5a56 113e
000000d0: 0d51 053e 65a4 fc3c 525e 173e 79b3 fcbc
000000e0: ce1e 813e 12e3 41bc db5f 09be 1a71 64be
000000f0: 521f 3fbe a44b 1ebe 2e0b 413d 2cce 21be
00000100: 187a 7f3d b003 82bb d235 22bd 1ae3 8fbe
00000110: 43c6 203e d36a 61bd 9e5e 91bd 3bfe 323e
00000120: 2a17 83bd 52bf 2f3e 922d 01bd 7eb5 5dbe
00000130: 3587 233e 4839 073d 3b4d d8bc 42fb febe
00000140: c0ab 73be 002b 2f3e 267f 0c3e d6b8 4abe
00000150: e528 39bd 89ba ccbd f234 bebd 3f44 ee3d
00000160: 6766 f83d 7e50 8dbd e060 ab3e fec3 c3ba
00000170: 01e7 0abc ec2d 6dbd 61d4 e13d 2f7e 263e
00000180: 52e9 563d 826a 633e 6874 adbd ccc0 1cbe
00000190: ce45 dc3d dbe1 27be c1cf 423d 4c52 de3d
000001a0: 94b1 293b 366a 82bd af16 8c3d f889 22bc
000001b0: e953 4a3c 627b 1abd b9fd efbb fa0d 983c
000001c0: ef53 113c f88b 84be 1d28 6c3d 72b7 95bd
000001d0: b7f4 903d 73c2 6b3e c1e5 22bd 1c99 ccbb
000001e0: 3ffb d9bc 705b fdbd 5674 9ebc d57d de3d
000001f0: b4b1 2dbe a06a 133d 6491 a4bd e2d3 2e3e
00000200: fb3a 18be 1c17 54be 0b72 ad3d 4f4c 9a3d
00000210: c5bc a73d 3d54 943c 882f 12be 72d6 e53d
00000220: 98a1 da3d 26af c33d 93ba e0be 3877 b93d
00000230: 22a1 4c3d 027a 0ebe 189e 653e 94ac 903d
00000240: bde0 a43d 2ff3 e5bd 1b8a 103e 7164 443d
00000250: 29cb 82be a79e 043e 6514 27be ee95 49be
00000260: 7bf2 5dbd 8429 613e 7a5e 343e 80be 49be
00000270: 485b c23c 8fb2 a53d efe6 c9bd 254a 593e
00000280: 108f 963c 8371 dcbe 1695 8c3d 0594 0cbe
00000290: b8a2 8cbd 6f2a 82be f328 3bbb 7811 78bd
000002a0: 487d 5dbd 3b0f 52be 25e8 b6bc 2c26 b83d
000002b0: 35cf 8a3c d5c5 b0bd 31e3 04be 0f16 ab3b
000002c0: feea b1bd 7816 20be df0c 21bd 927b f9bd
000002d0: 9c5a 2d3e d960 9b3c c6f6 403d 97ef 8e3e
000002e0: 5648 4d3c ce61 b63d a1f4 2fbe 6752 60bd
000002f0: 5a14 583e ac4e 55bd 472c 9a3e dc31 c93d
00000300: 8270 e5bc 3fbb df3d cf7c 4abd 27c9 79be
00000310: 73a6 e0bd a9c4 f93d 6f9b 963e 46f8 b9bc
00000320: b5cb b4bd 5940 6abd 299a fbbd 2449 a53d
00000330: 4428 193e 061b 1dbe c2cc 443d 5b30 053e
00000340: fad6 823d dc44 3dbe 35ae 32bd f7b5 2cbe
00000350: 97cf ad3d 778e 38be db3f 043d a4cd 0b3e
00000360: b835 63bd 0371 0e3e cbfd 883c aa7a 9fbd
00000370: 1588 88bd 7288 b83d 8bfc 93be 1efa e9bd
00000380: 25cc 02be 6798 05bc 2155 5a3d 529b 84bd
00000390: 2b74 fe3c 8ca3 a9bc c9a9 093e f8c9 1d3e
000003a0: 6156 c4be 788e 2abe ae2c 73be c03b d53c
000003b0: 52ac cbbd c970 0bbe 7722 2bbe b489 213e
000003c0: 4ca5 253d dbe6 4d3e a015 023e 71cd 34bd
000003d0: 2a00 133e 9cdf 8cbe 9ae0 47be 84f9 f1bd
000003e0: 9137 37be af0d 10be 079b abbd a901 863d
000003f0: 4b42 82bd fe35 833d 779e 6dbd 3c51 5e3e

conv.bias f4 [32]
-0.029222472 -0.06456755 -0.013491277 -0.056454796 -0.05151067 0.076159075 -0.015838811 0.014601662
0.079137154 0.1004676 0.055839512 -0.022505954 -0.048005328 0.0024238033 -0.14289859 0.035927925
0.025402578 -0.02904234 0.0109596765 -0.13549295 -0.12929969 0.0952362 -0.052560456 -0.057309575
0.12967648 0.009429357 0.050294932 0.015511652 -0.13487881 -0.062344253 -0.0323315 0.026930947
00000000: f763 efbc fe3b 84bd 840a 5dbc 253d 67bd
00000010: dafc 52bd 4af9 9b3d 65c0 81bc cf3b 6f3c
00000020: a912 a23d f5c1 cd3d f9b7 643d 685e b8bc
00000030: 3ca1 44bd acd8 1e3b 0254 12be 2929 133d
00000040: 1119 d03c 34ea edbc 3790 333c aabe 0abe
00000050: 2367 04be 320b c33d a249 57bd 72bd 6abd
00000060: e9c9 043e 977d 1a3c 0f02 4e3d 9624 7e3c
00000070: ac1d 0abe b05c 7fbd 096e 04bd 4a9e dc3c

hidden1.weight f4 [128, 1600]
-0.024713939 0.020547187 4.5466422e-05 0.022675488 -0.032305174 0.005263856 -0.023366885 -0.002483834
-0.01562541 0.002210071 0.009139123 -0.023180677 -0.030749345 -0.033034395 -0.0029282272 -0.008736673
0.00501167 0.016105149 -0.028861485 -0.0040823105 -0.021481292 0.0067895376 0.02269806 0.011830791
-0.024356483 -0.033713017 -0.005559071 -0.016088832 -0.007392015 0.005886404 0.009972838 -0.009571382
-0.021783987 0.007884382 -0.007236427 -0.035263814 0.014394498 0.0059537976 -0.032631643 -0.0057664434
-0.020035371 0.00016826767 0.0001655221 -0.008774268 -0.016829578 -0.03286678 0.0039536334 -0.0055646747
-0.013422048 -0.029966095 -0.020417335 -0.02457799 -0.0354778 -0.017992768 -0.0016345012 -0.020266088
-0.013739928 0.0002232314 -0.0020669156 0.02490837 -0.00816841 -0.026529958 0.0011274933 -0.02489076
0.012355459 -0.028841427 -0.0034200775 0.013397495 -0.0008444962 -0.026549906 0.0010800121 -0.022379814
-0.0056643384 -0.0025484134 0.0048304787 -0.021503456 0.0100659 -0.026687391 -0.0021182299 -0.0058740587
0.012339469 -0.030936962 -0.031270362 -0.029822022 -0.0067619416 -0.020953435 0.011098499 -0.033848114
0.0068337615 -0.009815636 0.008283182 -0.00059594994 -0.009040866 -0.02586363 0.008594347 -0.019975096
0.008808024 0.0037832188 -0.022160167 -0.034430947 -0.006024599 -0.004441399 -0.018827435 -0.015897024
0.008798735 -0.02625078 -0.008043406 -0.026389064 -0.01291754 -0.03142967 -0.006030625 0.00047594763
-0.025769616 -0.0072280476 -0.032571986 -0.014767873 0.005482063 -0.030418266 -0.008293283 -0.009595185
-0.015533566 -0.016552031 -0.02432691 0.0011865445 0.0102847135 0.005983758 0.0011020512 -0.001645365
0.011884305 0.008189691 0.009220854 -0.028821595 0.0078450795 -0.03528074 -0.004093527 -0.007118439
0.004652078 0.010617513 0.014088071 0.022707859 -0.008286085 -0.02407484 -0.005949369 -0.009476721
0.006677148 0.005055645 -0.02257522 -0.02668077 -0.027791906 -0.0025253296 0.011627092 -0.02071721
-0.00087570015 -0.021743223 -0.02345671 -0.004875774 0.02263738 -0.024554428 -0.0024211141 0.004007796
0.013887298 -0.0228251 -0.035471648 -0.000798437 -0.0046444586 0.0078730965 -0.007240145 -0.0225367
-0.028828414 -0.026550526 -0.004283412 -0.03338085 -0.016010182 -0.013233164 -0.01070558 0.011926818
0.009891099 0.012235752 0.0010290246 -0.024878794 0.001345554 0.006688069 -0.019265303 -0.0020996693
-0.010976553 0.0054375427 -0.013559929 0.008064664 -0.022213614 -0.03110269 -0.029242726 -0.018871268
-0.031858582 -0.005941256 0.010474886 -0.026869394 -0.028333593 0.0018918653 -0.020108301 0.009877727
-0.015145813 -0.00960241 -0.008523556 -0.01305057 -0.010769519 -0.020495774 -0.012964154 -0.014497811
-0.0040144334 -0.01160599 -0.011707713 -0.028673716 -0.0070876363 -0.0140983425 -0.010302073 0.011703847
-0.013487924 0.00039367736 -0.0053192033 0.009856158 -0.024225328 -0.029349519 -0.018968424 -0.030728593
-0.017773751 -0.0075614783 -0.024482967 -0.008980815 0.0056504 -0.027959978 -0.014785664 -0.029799964
0.0031292355 0.011467169 -0.009187392 -0.024121506 -0.020355532 0.009004242 0.013185664 -0.018835096
0.012124969 -0.0042896583 -0.014336525 -0.00082491396 0.011534962 0.00794003 -0.0005159015 0.008128496
-0.0041070967 -0.033693355 0.008408826 -0.025977997 0.00088267925 -0.020668505 -0.01266875 0.019298142
00000000: e374 cabc 9352 a83c 33b3 3e38 f2c1 b93c
00000010: 6e52 04bd 6d7c ac3b e96b bfbc d2c7 22bb
00000020: dc00 80bc d7d6 103b 43bc 153c 67e5 bdbc
00000030: 0de6 fbbc 134f 07bd 80e7 3fbb 4324 0fbc
00000040: ef38 a43b f2ee 833c ec6e ecbc e7c4 85bb
00000050: 89f9 afbc c57a de3b 48f1 b93c efd5 413c
00000060: 3f87 c7bc a916 0abd de28 b6bb bacc 83bc
00000070: b738 f2bb bce2 c03b 1d65 233c 49d1 1cbc
00000080: 5574 b2bc 7f2d 013c 8d1f edbb ca70 10bd
00000090: e7d6 6b3c 1318 c33b c2a8 05bd 6ff4 bcbb
000000a0: 3821 a4bc 0271 3039 0090 2d39 f3c1 0fbc
000000b0: 2fde 89bc 519f 06bd 7b8d 813b e057 b6bb
000000c0: 26e8 5bbc 757b f5bc 4142 a7bc c857 c9bc
000000d0: 2b51 11bd 9265 93bc c23c d6ba 1105 a6bc
000000e0: 6f1d 61bc 3913 6a39 1775 07bb a30c cc3c
000000f0: cbd4 05bc 5b55 d9bc 66c8 933a b5e7 cbbc
00000100: 8d6e 4a3c db44 ecbc 6123 60bb 2b81 5b3c
00000110: 2e61 5dba 307f d9bc 318f 8d3a df55 b7bc
00000120: ea9b b9bb 4803 27bb fe48 9e3b 0428 b0bc
00000130: 72eb 243c 849f dabc 00d2 0abb 2d7b c0bb
00000140: 7c2b 4a3c 836f fdbc 5a15 00bd 504d f4bc
00000150: 4793 ddbb 8aa6 abbc 7bd6 353c 52a4 0abd
00000160: bfed df3b c3d1 20bc 2fb6 073c 8639 1cba
00000170: 2420 14bc f7df d3bc 4ecf 0c3c d0a2 a3bc
00000180: 884f 103c e1ef 773b 3d89 b5bc 7707 0dbd
00000190: 006a c5bb 2889 91bb fe3b 9abc 7a3a 82bc
000001a0: 9228 103c e00b d7bc 7dc8 03bc e12d d8bc
000001b0: 17a4 53bc 66bc 00bd 8d9c c5bb 9c88 f939
000001c0: cd1a d3bc 42d9 ecbb 346a 05bd f3f4 71bc
000001d0: e1a2 b33b ba2f f9bc 8de0 07bc 1f35 1dbc
000001e0: 7f80 7ebc 2098 87bc 3a49 c7bc d485 9b3a
000001f0: 3781 283c 6613 c43b b472 903a 4aa9 d7ba
00000200: 63b6 423c 0e2e 063c 1113 173c 441b ecbc
00000210: a688 003c 8a82 10bd fe22 86bb cb41 e9bb
00000220: 7570 983b 14f5 2d3c a7d1 663c d505 ba3c
00000230: 5cc2 07bc 9938 c5bc edf2 c2bb 4044 1bbc
00000240: facb da3b d3a9 a53b abef b8bc a191 dabc
00000250: daab e3bc 0080 25bb 8f7f 3e3c 23b7 a9bc
00000260: 3e8f 65ba d81e b2bc 4928 c0bc f5c4 9fbb
00000270: 0772 b93c 5e26 c9bc 8eab 1ebb d453 833b
00000280: 8d87 633c b4fb babc b84a 11bd 334e 51ba
00000290: 8b30 98bb 29fe 003c bd3e edbb e39e b8bc
000002a0: 9129 ecbc 7d80 d9bc dd5b 8cbb 5cba 08bd
000002b0: c927 83bc eacf 58bc 7566 2fbc b368 433c
000002c0: 470e 223c 7778 483c 56e0 863a 9dce cbbc
000002d0: 4d5d b03a 9727 db3b 45d2 9dbc 9b9a 09bb
000002e0: 00d7 33bc 6a2d b23b 772a 5ebc a721 043c
000002f0: 53f9 b5bc 12cb febc 718e efbc eb97 9abc
00000300: 257e 02bd deae c2bb db9e 2b3c 341d dcbc
00000310: da1b e8bc 77f8 f73a 2aba a4bc 31d6 213c
00000320: 2526 78bc 6d53 1dbc 63a6 0bbc 0fd2 55bc
00000330: a372 30bc c1e6 a7bc 9a67 54bc 3a88 6dbc
00000340: 828b 83bb 0d27 3ebc b5d1 3fbc 24e5 eabc
00000350: 673f e8bb bcfc 66bc 07ca 28bc 7ec1 3f3c
00000360: 74fc 5cbc 7b66 ce39 b64c aebb b97b 213c
00000370: 3274 c6bc 676e f0bc ab63 9bbc 88ba fbbc
00000380: 429a 91bc 47c6 f7bb 8190 c8bc 4524 13bc
00000390: fe26 b93b 530c e5bc 923f 72bc 0e1f f4bc
000003a0: dc13 4d3b cbe0 3b3c b786 16bc 779a c5bc
000003b0: a5c0 a6bc 8786 133c af08 583c 0f4c 9abc
000003c0: cea7 463c 4390 8cbb bfe3 6abc 0a3f 58ba
000003d0: 23fd 3c3c e616 023c 903d 07ba 622d 053c
000003e0: d394 86bb 0b02 0abd 2cc5 093c cfcf d4bc
000003f0: 9a63 673a ff50 a9bc 9790 4fbc 2317 9e3c

hidden1.bias f4 [128]
0.0057879854 -0.033638686 -0.018456286 -0.005817583 -0.04265005 0.031238323 0.03193075 0.031368017
0.0041320627 0.0018199912 -0.031807866 -0.014931114 0.0080841575 -0.004793981 -0.03177947 -0.015816774
0.0061322586 0.011498983 -0.017501274 0.019689854 -0.020528378 -0.026647998 -0.024478614 -0.059713203
-0.010391393 -0.0003862699 -0.027378615 -0.0050366507 0.01735397 -0.038280644 -0.021315355 -0.054065544
-0.052923754 -0.014312722 -0.0075384947 0.0038905644 0.018854363 0.025496196 0.03979128 0.028516257
-0.02140863 -0.020530673 -0.02330732 -0.003694445 -0.00057118456 0.01882846 0.032015204 -0.025925469
-0.020294469 -0.008234279 0.020067848 -0.046492264 0.009612381 0.0029493612 -0.007661107 0.030228505
-0.004361693 0.0023742483 -0.0033315138 0.0007668565 -0.011176174 -0.001923138 -0.0041030725 0.030302722
0.022210553 0.034422357 -0.01336786 0.011099104 -0.007495244 0.012124653 -0.01970892 -0.010880108
0.0344072 -0.06619695 0.030450108 -0.028144402 -0.03209006 0.00918132 0.010998596 0.0066474495
-0.018791223 0.016075218 -0.013391338 -0.0017174088 -0.02283053 0.0009905088 -0.0048303492 0.0050645526
-0.002259027 -0.022830142 -0.013159159 -0.010800396 -0.0011066949 -0.006693252 -0.0007642421 0.030649263
-0.007260359 -0.022815816 -0.0012188585 0.021765612 -0.07278496 -0.0073485123 -0.0005738562 0.009201527
0.026174009 0.01154542 -0.033092882 0.020419572 -0.015820287 -0.021432703 -0.024158617 -0.0098538445
0.015633913 -0.02103163 0.037359003 0.010409643 -0.007141725 -0.0041280137 -0.023446715 0.011237394
-0.008780201 -0.006694389 -0.006073 0.027766457 -0.0049654897 -0.0008223537 -0.0057357247 -0.0030307986
00000000: 24a9 bd3b b8c8 09bd a331 97bc 6ca1 bebb
00000010: d2b1 2ebd 83e7 ff3c d1c9 023d c07b 003d
00000020: 4166 873b c58c ee3a f748 02bd a2a1 74bc
00000030: 6a73 043c d416 9dbb 312b 02bd 2e92 81bc
00000040: 1df1 c83b 3b66 3c3c d55e 8fbc 9e4c a13c
00000050: 212b a8bc e74c dabc 6087 c8bc d595 74bd
00000060: a940 2abc 4584 cab9 1e49 e0bc 7d0a a5bb
00000070: ea29 8e3c 2acc 1cbd 8a9d aebc d573 5dbd
00000080: 94c6 58bd e87f 6abc 7a05 f7bb d7f8 7e3b
00000090: 7774 9a3c 66dd d03c 2efc 223d ed9a e93c
000000a0: 2761 afbc f12f a8bc feee bebc 801e 72bb
000000b0: 8cbb 15ba 243e 9a3c 6022 033d a661 d4bc
000000c0: 9640 a6bc 12e9 06bc 5465 a43c ac6e 3ebd
000000d0: 407d 1d3c 124a 413b 060a fbbb c5a1 f73c
000000e0: 88ec 8ebb 4799 1b3b 8755 5abb de06 493a
000000f0: 451c 37bc ce11 fcba 1173 86bb 6a3d f83c
00000100: e8f2 b53c 75fe 0c3d de04 5bbc 04d9 353c
00000110: aa9a f5bb 7ba6 463c 9a74 a1bc 7b42 32bc
00000120: 90ee 0c3d 4492 87bd 8172 f93c 178f e6bc
00000130: de70 03bd 3f6d 163c 7533 343c d9d2 d93b
00000140: 0df0 99bc 2db0 833c 5867 5bbc ad1a e1ba
00000150: 1707 bbbc f6d3 813a e847 9ebb 8cf4 a53b
00000160: 2f0c 14bb 4706 bbbc 8399 57bc 25f4 30bc
00000170: 850e 91ba 1153 dbbb 6b57 48ba 2a14 fb3c
00000180: 4ee8 edbb 3ce8 babc 1bc2 9fba cc4d b23c
00000190: 4810 95bd cacb f0bb d66e 16ba 00c2 163c
000001a0: e06a d63c 0029 3d3c 678c 07bd f246 a73c
000001b0: 8c99 81bc a393 afbc 4be8 c5bc 0572 21bc
000001c0: b112 803c 864a acbc c105 193d 358d 2a3c
000001d0: 2205 eabb 4a44 87bb 5313 c0bc 0c1d 383c
000001e0: d5da 0fbc 9b5c dbbb 0400 c7bb 7b76 e33c
000001f0: 8cb5 a2bb 3993 57ba bff2 bbbb 5da0 46bb

hidden2.weight f4 [34, 128]
-0.054245166 -0.005716381 -0.038038794 0.092026524 -0.038151726 -0.04969859 -0.054253437 0.08231334
0.01058906 0.0872327 -0.00513424 -0.059160892 0.094798245 0.043306503 0.0153778875 -0.01091341
-0.02149332 0.14026225 -0.07715904 0.06952938 -0.015812702 -0.043091916 -0.050459556 -0.042468794
0.10819408 0.022022964 -0.0026321989 0.16954929 -0.11525364 0.015647154 -0.07520482 0.09209072
-0.052134518 0.0045118765 0.11234691 -0.027336877 -0.08974726 -0.2553468 -0.1462411 -0.11728401
0.015396959 -0.025171455 0.00064175273 -0.018171929 -0.14520259 0.11574489 -0.08509958 0.053637777
-0.09650891 0.04881432 -0.041849602 0.016289625 -0.05517617 -0.16501804 0.11804299 0.03590187
-0.04940791 0.14882827 -0.025533943 0.10282993 -0.04493626 0.022566646 -0.21056922 0.16328572
0.07420434 0.11987028 -0.070578896 0.07654919 -0.009881166 -0.10526057 0.08739543 -0.086695984
0.14784408 0.008689836 -0.015685057 0.014325297 -0.037813738 0.02011081 0.08611904 -0.16743807
0.1474235 -0.022924611 0.08815782 0.06567983 0.005823869 0.13138597 0.051533 0.034391668
0.06776598 -0.029342715 -0.0040040403 0.09916191 -0.04080018 -0.11087793 -0.0924338 0.10911765
0.07547099 -0.017111575 -0.056125797 -0.1989322 -0.024131868 0.111830615 -0.0773455 -0.06836351
0.07079461 0.06469258 0.054239586 -0.12928666 0.0526627 -0.05809247 0.09602959 0.13747483
0.0325681 -0.14048569 0.023122793 0.025857374 -0.013941131 -0.034218244 -0.041209735 -0.10430954
0.059875797 -0.007623703 -0.048717078 0.16795276 0.03740605 -0.043008428 -0.06115624 -0.043919623
-0.008459695 0.04602879 -0.00033153908 -0.06559073 -0.087103814 -0.15816143 -0.020771626 -0.12251199
0.07872722 -0.021303829 -0.002278992 0.14839144 0.07305236 -0.006471572 0.07161994 -0.061271824
0.008014944 -0.123861045 -0.033155944 -0.13254352 -0.05367646 0.022006953 -0.05116086 0.04306936
-0.19464192 0.061704583 0.0049980953 0.036783215 0.07389631 -0.060555812 0.01737746 -0.0010055472
-0.043130208 0.05549515 0.13787805 -0.2039812 0.0105341645 -0.06568862 0.053089805 -0.12237032
-0.060411848 -0.06286328 -0.02120341 -0.1190597 0.1404838 0.016972033 0.1373221 0.074915245
-0.09016757 -0.07901671 0.14234324 -0.022128649 -0.015753414 0.07762667 0.20608051 -0.16067985
0.24208473 -0.04630192 0.066023 0.052187122 0.06812325 0.086680055 0.10112766 0.010671378
0.07332903 0.064265996 -7.067597e-05 0.08768379 0.044726446 -0.07793801 0.024820812 0.03395959
0.0614226 0.05395559 -0.22202045 0.0031317493 0.041860767 -0.007284213 -0.14744371 -0.00090170605
-0.11563642 0.10252875 -0.21136124 -0.06473021 0.033756737 -0.0018803113 0.00021384776 -0.051967125
-0.019022474 -0.029418636 -0.017111564 -0.14671317 0.06734181 -0.1481058 0.0051767626 0.093340896
-0.088843964 -0.005603281 -0.027036924 0.09070335 -0.05976774 -0.17643 -0.015059561 0.0040527913
-0.11375943 0.070324674 -0.08536503 0.10957846 -0.07288601 0.07547028 -0.037016142 0.06735941
0.1630688 0.030088298 0.06547362 0.11656399 -0.026442118 -0.050249904 0.030389698 0.13047849
0.03282398 -0.025459683 -0.07562296 0.03232919 0.0142187495 -0.038198207 -0.09098838 -0.034961212
00000000: 2e30 5ebd 7b50 bbbb 91ce 1bbd 6778 bc3d
00000010: fc44 1cbd c090 4bbd da38 5ebd e593 a83d
00000020: bd7d 2d3c 0fa7 b23d 203d a8bb b152 72bd
00000030: 9525 c23d 2962 313d 89f3 7b3c 29ce 32bc
00000040: c212 b0bc e8a0 0f3e 8f05 9ebd 6b65 8e3d
00000050: a489 81bc 2681 30bd aeae 4ebd c2f3 2dbd
00000060: dc94 dd3d 8169 b43c f880 2cbb 549e 2d3e
00000070: 1a0a ecbd 762e 803c fc04 9abd 0f9a bc3d
00000080: 018b 55bd 5dd8 933b 2316 e63d 96f1 dfbc
00000090: 69cd b7bd d1bc 82be 3ac0 15be 9932 f0bd
000000a0: 8743 7c3c 5e34 cebc 4c3b 283a 4cdd 94bc
000000b0: fdaf 14be a80b ed3d b048 aebd 49b3 5b3d
000000c0: 77a6 c5bd 86f1 473d 7d6a 2bbd d271 853c
000000d0: 6800 62bd 7dfa 28be 86c0 f13d d70d 133d
000000e0: f35f 4abd 7066 183e 8f2c d1bc 8098 d23d
000000f0: 150f 38bd b0dd b83c 759f 57be 5f34 273e
00000100: 72f8 973d 8d7e f53d ab8b 90bd d2c5 9c3d
00000110: 9de4 21bc db92 d7bd 60fc b23d aa8d b1bd
00000120: 7064 173e d05f 0e3c f37d 80bc a7b4 6a3c
00000130: 94e2 1abd 6dbf a43c 2e5f b03d e374 2bbe
00000140: 30f6 163e 65cc bbbc 168c b43d 2683 863d
00000150: 27d6 be3b 0b8a 063e 4414 533d 47de 0c3d
00000160: e4c8 8a3d 2260 f0bc 5334 83bb 6615 cb3d
00000170: 171e 27bd f813 e3bd ef4d bdbd 1379 df3d
00000180: 8990 9a3d 932d 8cbc 2ae4 65bd e2b4 4bbe
00000190: 32b0 c5bc 7307 e53d 5167 9ebd 2b02 8cbd
000001a0: c4fc 903d 8b7d 843d 542a 5e3d b963 04be
000001b0: d8b4 573d 5ff2 6dbd 29ab c43d 34c6 0c3e
000001c0: 2166 053d 7bdb 0fbe 036c bd3c d8d2 d33c
000001d0: 5769 64bc 6e28 0cbd 8acb 28bd 3da0 d5bd
000001e0: 5340 753d 42d0 f9bb 8f8b 47bd cffb 2b3e
000001f0: 1637 193d 9b29 30bd f77e 7abd 10e5 33bd
00000200: 889a 0abc af88 3c3d 6cd2 adb9 6f54 86bd
00000210: 7c63 b2bd 12f5 21be 4229 aabc 91e7 fabd
00000220: bd3b a13d 5e85 aebc 245b 15bb edf3 173e
00000230: 7a9c 953d 7b0f d4bb 7aad 923d 2af8 7abd
00000240: 1d51 033c dcaa fdbd 87ce 07bd 7db9 07be
00000250: d9db 5bbd ed47 b43c 0d8e 51bd 7f69 303d
00000260: 3650 47be f2bd 7c3d 10c7 a33b ffa9 163d
00000270: f356 973d 5f09 78bd 2d5b 8e3c 91cc 83ba
00000280: 4da9 30bd e24e 633d e72f 0d3e 73e0 50be
00000290: 7d97 2c3c c187 86bd b274 593d 4a9d fabd
000002a0: 6a72 77bd 77be 80bd c6b2 adbc 92d5 f3bd
000002b0: fcda 0f3e ef08 8b3c 2a9e 0c3e 2a6d 993d
000002c0: c6a9 b8bd 83d3 a1bd 6dc2 113e 2447 b5bc
000002d0: 4e0d 81bc bbfa 9e3d c506 533e 4289 24be
000002e0: 0fe5 773e 15a7 3dbd 1137 873d 2ac2 553d
000002f0: 3484 8b3d 5085 b13d 051c cf3d 01d7 2e3c
00000300: 882d 963d e49d 833d df37 94b8 8f93 b33d
00000310: 1433 373d f79d 9fbd 0455 cb3c 3619 0b3d
00000320: 4496 7b3d 8900 5d3d 5459 63be 093e 4d3b
00000330: 3276 2b3d 68b0 eebb 7cfb 16be 7860 6cba
00000340: cad2 ecbd 98fa d13d 156f 58be 4691 84bd
00000350: 8144 0a3d c774 f6ba 523c 6039 7bdb 54bd
00000360: 05d5 9bbc 5aff f0bc 8d2d 8cbc fa3b 16be
00000370: 81ea 893d 0ca9 17be d5a1 a93b 8329 bf3d
00000380: d3f3 b5bd ba9b b7bb 8a7c ddbc aec2 b93d
00000390: 05cf 74bd 11aa 34be 60bc 76bc 47cd 843b
000003a0: b4fa e8bd 6206 903d dcd3 aebd ac6a e03d
000003b0: 4345 95bd 2a90 9a3d 3d9e 17bd bbf3 893d
000003c0: 82fb 263e bc7b f63c 0917 863d 1ab9 ee3d
000003d0: 249d d8bc d8d2 4dbd d1f3 f83c 279c 053e
000003e0: 7072 063d d390 d0bc 36e0 9abd 9d6b 043d
000003f0: c2f5 683c b975 1cbd 1e58 babd 7d33 0fbd

hidden2.bias f4 [34]
-0.07912296 -0.027459763 -0.05405181 -0.04408163 0.008573965 0.08626889 -0.023540786 0.08638667
0.057947963 0.074375965 0.08171132 -0.05368769 0.04247493 -0.058694705 -0.056147195 -0.00020049395
0.021980964 -0.0042225574 -0.06566175 -0.033240788 0.08697005 0.021538772 -0.01909448 -0.07750242
-0.054328896 0.10497642 0.062324077 -0.0078855315 0.058035705 -0.03316147 0.0468311 0.033076916
-0.047154512 0.05687815
00000000: 380b a2bd 4cf3 e0bc 6e65 5dbd f08e 34bd
00000010: d179 0c3c bead b03d 9bd8 c0bc 7feb b03d
00000020: d85a 6d3d 6d52 983d 4458 a73d a0e7 5bbd
00000030: 31fa 2d3d dc69 70bd 9afa 65bd af3b 52b9
00000040: 6c11 b43c 615d 8abb ab79 86bd 7e27 08bd
00000050: 5b1d b23d 1472 b03c 076c 9cbc 97b9 9ebd
00000060: fa87 5ebd e1fd d63d 8847 7f3d 5132 01bc
00000070: d9b6 6d3d 52d4 07bd f8d1 3f3d a97b 073d
00000080: 1725 41bd 10f9 683d
