Model/output_dir/1DCNN_0809_2e-3_2.pt (torch, 848869 bytes, 6 tensors)

conv.weight f4 [32, 1, 1, 71]
0.0135676125 -0.21369366 -0.10557237 -0.0415123 0.17669716 -0.12310207 -0.10050286 0.06380912
-0.2019353 0.25934333 0.09016931 0.052440204 0.0964897 0.010381326 -0.17831196 0.052957345
0.18228853 0.051851146 0.023638295 0.10174196 0.04954119 0.008668948 0.060910895 -0.14507717
-0.026059147 -0.052045055 -0.09526234 0.0533001 -0.004899135 0.04125776 -0.07902555 0.051119465
-0.1012895 -0.071951576 0.009457121 -0.017704813 0.094086796 -0.07876819 0.05660823 0.052637026
-0.19181398 -0.018136276 -0.19690071 -0.05926532 0.05057024 -0.03908966 0.08496563 -0.052988127
0.058062762 -0.07550912 -0.10001464 0.18031694 -0.094147295 -0.017451784 0.121231355 -0.13953757
0.14413483 0.11565601 0.07760585 -0.046769865 0.0975416 -0.020689506 0.10710745 -0.16933034
0.0066601248 0.04830162 0.015958862 0.033538137 -0.06246672 -0.07832284 0.040012166 -0.13927972
-0.23118652 0.11253407 -0.15295766 -0.046464335 -0.120559864 0.25488904 -0.034593247 -0.23762648
-0.103856094 -0.11361432 -0.08343665 0.12972413 -0.08153394 0.12491154 0.17299451 -0.1855069
-0.03959565 -0.030887546 0.35161415 0.15549181 -0.13372372 -0.20610642 -0.07008932 0.10225654
-0.16661948 0.011710272 0.002492783 0.07951861 0.09067009 0.062956385 -0.072499946 -0.11692591
-0.060463887 -0.026097106 -0.1586565 -0.20968808 -0.154008 0.1307135 0.022875257 0.19943595
-0.021360252 -0.08493056 0.11021099 0.26989108 0.13659242 0.27750805 0.08523659 0.12304441
-0.17949149 -0.046290763 0.09615824 -0.21642427 -0.10021846 0.19848602 0.113919094 0.09915283
-0.13630834 -0.05616278 0.14695768 0.07214209 -0.12069709 -0.25965813 0.057321463 -0.09454473
0.2226422 -0.05413532 0.13267097 0.0069655627 0.18977407 -0.021279622 0.020707464 0.0636315
-0.05657744 0.020585049 0.17549759 0.12758033 0.08789822 0.04049969 -0.22508976 -0.04543181
-0.0661252 -0.0016755332 -0.08264211 -0.043108214 0.08752627 0.052249 0.15840462 -0.05013129
-0.009647932 -0.108270824 -0.007790743 0.08707264 0.065458775 0.07038916 0.0815528 -0.017474897
-0.008907309 -0.21331781 0.12232065 -0.16393176 0.15385723 0.1082494 -0.0158653 0.05983467
-0.27271703 -0.22352786 0.10018066 0.09307627 -0.109951034 0.1128175 0.04233524 -0.14553396
-0.0106940605 0.115277514 -0.23006345 0.110463545 0.042224247 -0.09444854 -0.18793982 0.005402745
-0.14767545 -0.1044141 -0.07358605 0.081174254 0.03817362 0.13410242 -0.120306 0.10858934
0.08198257 -0.16493483 -0.1659101 -0.048426393 -0.21162136 0.001922623 -0.024668032 0.11158276
-0.010757763 0.08045177 0.024209427 0.110357486 0.046517633 0.0076822396 0.01898756 0.12487555
-0.16153416 -0.13840047 -0.07055902 -0.11979444 -0.065689765 0.04249895 0.112513974 0.0096563315
-0.034375142 -0.09894184 -0.051424302 -0.22792527 -0.2240362 -0.10114754 0.07845062 0.09856296
0.017765125 -0.017621243 -0.013001041 0.07328472 -0.009589143 0.14014609 0.21447843 0.16448964
0.14710966 -0.08436374 -0.091540456 -0.16842665 -0.12634501 -0.19517897 0.2793149 0.04946896
-0.061479274 -0.0439993 0.06377457 -0.020879358 0.07509811 0.094921015 0.1800261 -0.105752304
00000000: b14a 5e3c 83d2 5abe 5436 d8bd cd08 2abd
00000010: 1af0 343e f01c fcbd 72d4 cdbd 5bae 823d
00000020: 21c8 4ebe a6c8 843e b0aa b83d 8acb 563d
00000030: 649c c53d 7016 2a3c 6997 36be cde9 583d
00000040: d8a9 3a3e de61 543d 19a5 c13c 175e d03d
00000050: b4eb 4a3d 3408 0e3c b47d 793d 1c8f 14be
00000060: fe79 d5bc 322d 55bd e718 c3bd 3551 5a3d
00000070: ec88 a0bb e6fd 283d 26d8 a1bd a562 513d
00000080: df70 cfbd 595b 93bd 0af2 1a3c af09 91bc
00000090: 94b0 c03d 3851 a1bd 08de 673d ec99 573d
000000a0: e26a 44be 8792 94bc 57a0 49be 31c0 72bd
000000b0: bd22 4f3d 7b1c 20bd 7602 ae3d 140a 59bd
000000c0: 38d3 6d3d 87a4 9abd 7ad4 ccbd 01a5 383e
000000d0: 4cd0 c0bd 0bf7 8ebc 2548 f83d f0e2 0ebe
000000e0: 1598 133e 0fdd ec3d d1ef 9e3d c291 3fbd
000000f0: e4c3 c73d 0a7d a9bc 275b db3d ef64 2dbe
00000100: 2d3d da3b ebd7 453d 29bc 823c 495f 093d
00000110: 1add 7fbd ba67 a0bd cce3 233d 589f 0ebe
00000120: 29bc 6cbe 4378 e63d efa0 1cbe 6351 3ebd
00000130: 17e8 f6bd d180 823e a6b1 0dbd 5b54 73be
00000140: 81b2 d4bd a0ae e8bd d6e0 aabd 67d6 043e
00000150: 44fb a6bd 9fd1 ff3d 7925 313e 85f5 3dbe
00000160: 0c2f 22bd e107 fdbc c506 b43e 3f39 1f3e
00000170: dfee 08be 900d 53be fd8a 8fbd e06b d13d
00000180: 4c9e 2abe 71dc 3f3c f55d 233b a7da a23d
00000190: 3db1 b93d 47ef 803d da7a 94bd da76 efbd
000001a0: fba8 77bd 99c9 d5bc d976 22be 79b8 56be
000001b0: 46b4 1dbe c2d9 053e e464 bb3c f038 4c3e
000001c0: b2fb aebc 13f0 adbd 4db6 e13d 2a2f 8a3e
000001d0: e2de 0b3e 8915 8e3e 8590 ae3d b5fe fb3d
000001e0: 9ecc 37be 629b 3dbd 9dee c43d 539e 5dbe
000001f0: 563f cdbd eb3f 4b3e 6a4e e93d a410 cb3d
00000200: 6a94 0bbe f10a 66bd 137c 163e 3bbf 933d
00000210: 0930 f7bd e9f1 84be e9c9 6a3d aba0 c1bd
00000220: 51fc 633e ffbc 5dbd e6da 073e 603f e43b
00000230: 2254 423e 9a52 aebc b3a2 a93c 3b51 823d
00000240: bfbd 67bd faa1 a83c a4b5 333e 6ba4 023e
00000250: fb03 b43d 01e3 253d ee7d 66be b516 3abd
00000260: a66c 87bd 919d dbba 4440 a9bd 3d92 30bd
00000270: f940 b33d 0c03 563d d234 223e 7856 4dbd
00000280: 5c12 1ebc 18bd ddbd 7d49 ffbb 2453 b23d
00000290: 400f 863d 3128 903d 2805 a73d 8427 8fbc
000002a0: f6ef 11bc fc6f 5abe 4083 fa3d badd 27be
000002b0: c08c 1d3e ddb1 dd3d f2f7 81bc 3315 753d
000002c0: 91a1 8bbe 7de4 64be 852b cd3d c59e be3d
000002d0: 022e e1bd dd0c e73d b767 2d3d db06 15be
000002e0: 2436 2fbc 9e16 ec3d c195 6bbe b63a e23d
000002f0: 55f3 2c3d 3c6e c1bd 4c73 40be 8309 b13b
00000300: 3c38 17be 0fd7 d5bd 48b4 96bd b03e a63d
00000310: f15b 1c3d 2552 093e fe62 f6bd 1664 de3d
00000320: 7ae6 a73d ade4 28be 56e4 29be c15a 46bd
00000330: 45b3 58be 8600 fc3a 9d14 cabc 8185 e43d
00000340: 5441 30bc e6c3 a43d d952 c63c 1b03 e23d
00000350: 4689 3e3d 4cbb fb3b cd8b 9b3c c1be ff3d
00000360: 3669 25be dab8 0dbe 3f81 90bd ca56 f5bd
00000370: 5b88 86bd 6113 2e3d ba6d e63d 9735 1e3c
00000380: f3cc 0cbd 05a2 cabd 4aa2 52bd 3e65 69be
00000390: bf69 65be 7126 cfbd b8aa a03d 61db c93d
000003a0: 2b88 913c 6d5a 90bc 5102 55bc 4d16 963d
000003b0: c81b 1dbc 7582 0f3e 3ca0 5b3e f96f 283e
000003c0: eaa3 163e e6c6 acbd 9079 bbbd 0978 2cbe
000003d0: 9660 01be ffdc 47be 5d02 8f3e f79f 4a3d
000003e0: b1d1 7bbd 9c38 34bd 3e9c 823d 300b abbc
000003f0: 0acd 993d f365 c23d c358 383e aa94 d8bd

conv.bias f4 [32]
-0.0077217272 0.030171176 -0.0718784 -0.023670323 0.056453783 0.003849078 -0.16295658 0.025492484
-0.0072280522 -0.08061125 0.078018226 0.06560348 0.12373268 -0.03421097 0.020329481 0.07013693
-0.07141929 -0.015074454 0.11822867 -0.0204039 -0.025808103 0.06105049 0.07845297 -0.042126045
0.059440486 -0.044853482 0.118877605 -0.002973614 0.10263498 -0.09083218 0.04188946 -0.03731302
00000000: 8b06 fdbb 8b29 f73c fc34 93bd 44e8 c1bc
00000010: 153c 673d d040 7c3b 17de 26be 9dd5 d03c
00000020: 4cd9 ecbb 8317 a5bd 05c8 9f3d 1e5b 863d
00000030: 8f67 fd3d cd20 0cbd 038a a63c f3a3 8f3d
00000040: 4744 92bd d8fa 76bc df21 f23d 1426 a7bc
00000050: 846b d3bc 1410 7a3d f3ab a03d 5c8c 2cbd
00000060: de77 733d 49b8 37bd 1a76 f33d f7e0 42bb
00000070: 4a32 d23d 3906 babd 4894 2b3d 8ad5 18bd

hidden1.weight f4 [128, 1600]
0.00045359824 0.014040536 0.025269685 0.009300513 -0.00012580531 0.06392518 -0.022110552 -0.02786582
-0.008181205 0.020452294 0.013968492 0.015205667 0.01119825 0.024089687 -0.14989254 0.041215863
0.11157023 -0.07252243 0.009644054 -0.015159077 0.033716876 0.018201401 0.019232575 -0.034790624
0.059162337 -0.013613066 0.03409218 -0.005841783 0.05561301 -0.0031006164 -0.004270941 0.037492543
0.042432208 0.027205486 0.0135184545 0.11376643 0.017463373 -0.046700645 -0.012800165 -0.06320189
-0.011703708 -0.012236722 0.01347139 0.01761967 -0.08866614 -0.018421365 0.01609949 -0.00989906
-0.021227302 -0.06744565 -0.040395506 0.02486314 -0.016214993 0.14631651 0.070261344 -0.0010253902
0.05795637 0.086164474 0.008231388 -0.007589562 -0.00015856726 -0.054047316 -0.14112994 -0.005713377
-0.08598892 0.08534625 0.06498437 -0.0428914 0.06917276 0.055004887 -0.06446982 -0.033717472
0.027904099 -0.089033484 0.113568954 0.086763196 -0.1274858 -0.035661444 -0.05871753 0.12060982
-0.07516314 0.032762796 0.005939511 0.009538113 0.0031380386 -0.035210695 -0.012358405 0.005941144
0.0841918 0.10697028 -0.09176483 -0.020860866 0.031653814 -0.09863784 0.07588654 0.008439479
0.006216109 -0.09561421 0.012870951 0.12214612 0.017029632 0.0028095841 0.04734428 0.054150183
0.04963712 0.044351745 -0.023106102 -0.012498129 -0.0145158 0.050517228 0.030702649 0.0749123
-0.0015166552 0.013515036 -0.021467837 0.0055814376 0.02757739 -0.003300828 0.018518625 0.023848413
-0.0043382905 -0.041363075 0.016868053 0.018782621 0.010751118 0.01138236 0.057546835 0.043603603
0.013383517 -0.028033603 -0.025977185 -0.03593547 -0.08641738 0.01889598 0.027420474 0.019443745
-0.035043478 -0.014744956 -0.06629878 0.033883512 -0.020524682 0.020280369 0.015814409 0.039709006
-0.010547243 0.029496308 0.05826262 0.0022906505 -0.038220227 -0.07069101 0.023243433 0.043482944
-0.04004468 0.048372153 0.00072785903 -0.020787986 0.03912621 0.1756729 -0.019940052 0.033756908
-0.038732417 -0.04836076 -0.0370057 -0.08851745 -0.053561255 -0.07289517 -0.20003195 0.029611629
-0.016252942 -0.029284775 -0.017872151 -0.07126533 0.019808788 0.0031137466 0.0054153483 -0.08287051
0.013178598 -0.051702693 0.012849869 0.037560806 0.049717296 -7.691415e-05 -0.07811576 0.058070727
0.0031216326 0.06899189 0.071503565 -0.0031455497 0.01922695 -0.017343234 0.018016288 0.010850419
0.01090144 -0.010147899 0.050280854 0.17172335 0.054435495 -0.007416019 0.09200037 -0.032559272
-0.12335993 -0.09497848 0.07069099 -0.06936694 -0.100360624 0.023684165 -0.017091207 0.012227548
0.0028618895 0.05909943 0.01599123 0.035706054 0.015768867 0.0049839835 0.012304723 0.07228821
0.04801926 -0.052318484 -0.0026575443 -0.013125163 0.034218803 0.046308 0.06540435 0.043569718
-0.09021341 -0.12689535 -0.055985745 -0.08178595 0.15713899 0.049161926 -0.00050687575 -0.027994506
-0.08099494 0.0359833 0.14392912 0.023249032 0.06196811 -0.018517472 -0.020255232 0.010690927
0.009902102 0.09120627 -0.027716257 0.011233864 0.007865807 -0.045557592 0.036441132 -0.010476121
-0.013329642 -0.19268037 -0.041968457 0.061520804 0.081771694 0.057058413 0.11808761 0.019014861
00000000: edd0 ed39 470a 663c 5f02 cf3c 2e61 183c
00000010: 9bea 03b9 34eb 823d 3021 b5bc dc46 e4bc
00000020: 760a 06bc 928b a73c 1adc 643c 3121 793c
00000030: dd78 373c bc57 c53c 6e7d 19be f7d1 283d
00000040: ef7e e43d a486 94bd 1802 1e3c c75d 78bc
00000050: b51a 0a3d 1b1b 953c a28d 9d3c 9d80 0ebd
00000060: 3554 723d 5609 5fbc 3ea4 0b3d 6d6c bfbb
00000070: 78ca 633d b633 4bbb 40f3 8bbb c891 193d
00000080: 65cd 2d3d 0ade de3c 827c 5d3c 60fe e83d
00000090: 590f 8f3c 2d49 3fbd c9b7 51bc fe6f 81bd
000000a0: e9c0 3fbc 887c 48bc 1bb7 5c3c 2057 903c
000000b0: 9896 b5bd 67e8 96bc 14e3 833c ab2f 22bc
000000c0: e1e4 adbc f220 8abd c275 25bd c9ad cb3c
000000d0: 4ed5 84bc ffd3 153e 2ee5 8f3d 6366 86ba
000000e0: a963 6d3d 0077 b03d f2dc 063c dcb1 f8bb
000000f0: 1345 26b9 b860 5dbd 5e84 10be 4837 bbbb
00000100: f51a b0bd 04ca ae3d 8616 853d e5ae 2fbd
00000110: 73aa 8d3d ce4c 613d c108 84bd 551b 0abd
00000120: 2397 e43c 3057 b6bd d796 e83d e7b0 b13d
00000130: a38b 02be bc11 12bd cb81 70bd 4802 f73d
00000140: 22ef 99bd 4832 063d 3ba0 c23b bf45 1c3c
00000150: 8da7 4d3b 1739 10bd e87a 4abc eead c23b
00000160: c06c ac3d 3c13 db3d 33ef bbbd 68e4 aabc
00000170: 6ea7 013d a302 cabd 676a 9b3d be45 0a3c
00000180: 80b0 cb3b 62d1 c3bd aee0 523c bf27 fa3d
00000190: ba81 8b3c 0021 383b 13ec 413d 95cc 5d3d
000001a0: 4b50 4b3d 2daa 353d 0249 bdbc f4c4 4cbc
000001b0: aed3 6dbc 27eb 4e3d 1f84 fb3c 9f6b 993d
000001c0: 81ca c6ba 2b6e 5d3c 51dd afbc 7ee4 b63b
000001d0: fbe9 e13c b452 58bb 5fb4 973c bf5d c33c
000001e0: 3828 8ebb 546c 29bd df2e 8a3c 03de 993c
000001f0: 7525 303c 147d 3a3c 3bb6 6b3d b199 323d
00000200: 8a46 5b3c baa6 e5bc 1bce d4bc 1231 13bd
00000210: 98fb b0bd becb 9a3c e7a0 e03c 7d48 9f3c
00000220: c089 0fbd d494 71bc a8c7 87bd 70c9 0a3d
00000230: 6123 a8bc 0423 a63c 388d 813c e9a5 223d
00000240: 58ce 2cbc 3ea2 f13c c9a4 6e3d bd1e 163b
00000250: d08c 1cbd 73c6 90bd 0369 be3c 2c1b 323d
00000260: e405 24bd e121 463d cbcd 3e3a 914b aabc
00000270: ce42 203d 99e3 333e 5259 a3bc af44 0a3d
00000280: e2a5 1ebd ef15 46bd 4a93 17bd a348 b5bd
00000290: 0c63 5bbd 104a 95bd 2dd5 4cbe 1694 f23c
000002a0: e424 85bc a0e6 efbc 9e68 92bc 8ff3 91bd
000002b0: 0a46 a23c 0010 4c3b 3c73 b13b 04b8 a9bd
000002c0: 0ceb 573c 34c6 53bd 4288 523c 5cd9 193d
000002d0: 5da4 4b3d f84c a1b8 28fb 9fbd 92db 6d3d
000002e0: 4e94 4c3b 9f4b 8d3d 7670 923d 9125 4ebb
000002f0: d681 9d3c 6613 8ebc e596 933c f5c5 313c
00000300: f49b 323c 6043 26bc 4cf3 4d3d 3fd8 2f3e
00000310: c1f7 5e3d 1402 f3bb b16a bc3d df5c 05bd
00000320: 22a4 fcbd 1484 c2bd 70c6 903d 4110 8ebd
00000330: df89 cdbd 4b05 c23c dc02 8cbc 0e56 483c
00000340: 8a8e 3b3b 3e12 723d 0a00 833c 8340 123d
00000350: b62d 813c af50 a33b c099 493c d70b 943d
00000360: d8af 443d e84b 56bd 322a 2ebb ec0a 57bc
00000370: 0429 0c3d 75ad 3d3d b7f2 853d 2976 323d
00000380: cfc1 b8bd dbf0 01be 4f51 65bd 647f a7bd
00000390: 0be9 203e 045e 493d dbdf 04ba bc54 e5bc
000003a0: ade0 a5bd 3a63 133d 2862 133e c174 be3c
000003b0: 46d2 7d3d f4b1 97bc 4dee a5bc ff28 2f3c
000003c0: 6d3c 223c 5aca ba3d 340d e3bc 3e0e 383c
000003d0: 96df 003c 999a 3abd 4c43 153d 09a4 2bbc
000003e0: 9264 5abc 014e 45be 1ee7 2bbd 3dfd 7b3d
000003f0: eb77 a73d 15b6 693d ebd7 f13d 0ec5 9b3c

hidden1.bias f4 [128]
0.0023277868 0.023968361 -0.0054947087 -0.0042560142 -0.0026536048 0.0032861372 -0.02080602 -0.029419614
-0.034275483 0.0032595024 -0.005048349 -0.049461193 0.021836743 -0.023714254 0.009652711 -0.01564271
0.019567607 0.012369601 0.0062020216 -0.0075707426 -0.019566955 -0.002017717 -0.021221692 -0.014391063
-0.04430309 -0.058158588 0.015382523 -0.028017094 -0.016286012 0.011080644 -0.0075849253 -0.039514665
-0.013943208 -0.01965448 0.010715466 -0.021152865 -0.010395435 0.03808399 -0.01481061 -0.010137883
0.010905756 0.023010295 0.022181122 -0.019890267 0.006974267 -0.0022331243 0.010340636 -0.0071524074
-0.0059793196 0.0016099409 0.011810546 0.022369184 -0.0021591585 -0.024652561 -0.016267315 0.0207099
0.027469598 0.01948122 0.012974428 0.020004628 0.022391843 0.016347576 0.017361851 0.017540937
0.027235901 -0.0024538024 0.000929008 -2.5712523e-05 0.021642273 0.027380036 -0.0033645788 -0.050918948
-0.013400741 -0.025043098 9.628335e-05 0.0336901 0.009372832 0.0028906192 0.024649195 0.018542344
0.005514071 -0.00016926802 -0.0019302064 -0.03016477 -0.0031282566 0.01965861 0.008208811 -0.032407727
0.016042903 -0.008858888 -0.0020640679 0.01146 -0.012214274 -0.023194581 0.011949536 -0.011099859
-0.015069697 0.0008845983 0.005051482 0.0035564823 -0.0043267286 0.0016183901 -0.00083693606 -0.024163686
-0.007268669 -0.017397813 -0.013813164 0.02330798 0.010154536 0.012485558 0.021876538 -0.033029456
-0.011794359 0.014378017 -0.008669316 -0.022984354 -0.0034003372 -0.03585436 0.0297631 -0.03515466
0.020222714 -0.029988611 -0.0076017 0.01653688 -0.028989693 0.011799392 0.026617717 0.02188142
00000000: c88d 183b 4c59 c43c f50c b4bb 0976 8bbb
00000010: 1ae8 2dbb 3c5c 573b 6371 aabc 6701 f1bc
00000020: 7364 0cbd 609d 553b 9f6c a5bb d297 4abd
00000030: f8e2 b23c 6544 c2bc 6826 1e3c 2425 80bc
00000040: 3f4c a03c dea9 4a3c 543a cb3b fe13 f8bb
00000050: e14a a0bc ad3b 04bb 1dd9 adbc 7ec8 6bbc
00000060: 2877 35bd b337 6ebd fa06 7c3c 1b84 e5bc
00000070: 3e6a 85bc 978b 353c f78a f8bb 21da 21bd
00000080: 0e72 64bc 6f02 a1bc ec8f 2f3c c648 adbc
00000090: 9d51 2abc f5fd 1b3d 33a8 72bc 5d19 26bc
000000a0: 0eae 323c 1680 bc3c 2fb5 b53c eaf0 a2bc
000000b0: 6488 e43b 9c59 12bb c56b 293c be5e eabb
000000c0: 2bee c3bb a704 d33a 0581 413c 943f b73c
000000d0: ab80 0dbb 2bf4 c9bc 0843 85bc cfa7 a93c
000000e0: ec07 e13c 1497 9f3c b292 543c bfe0 a33c
000000f0: 196f b73c 5aeb 853c 713a 8e3c 03b2 8f3c
00000100: d31d df3c f9cf 20bb ac88 733a 39b1 d7b7
00000110: 234b b13c 194c e03c 4480 5cbb 6390 50bd
00000120: c88e 5bbc 2f27 cdbc bbeb c938 a1fe 093d
00000130: 8290 193c 8b70 3d3b 1ced c93c 1de6 973c
00000140: 61af b43b 8a7d 31b9 fbfe fcba 1c1c f7bc
00000150: 7003 4dbb 180b a13c 407e 063c f7bd 04bd
00000160: 686c 833c df24 11bc 5045 07bb b9c2 3b3c
00000170: 611e 48bc 9002 bebc fdc7 433c 2fdc 35bc
00000180: e4e6 76bc 63e4 673a e786 a53b df13 693b
00000190: 3bc7 8dbb 2920 d43a d465 5bba ecf2 c5bc
000001a0: 042e eebb dc85 8ebc 9c50 62bc 60f0 be3c
000001b0: 365f 263c 3a90 4c3c 6d36 b33c e549 07bd
000001c0: 213d 41bc c691 6b3c bf09 0ebc af49 bcbc
000001d0: 31d8 5ebb 05dc 12bd bfd1 f33c 55fe 0fbd
000001e0: 1baa a53c adaa f5bc ae17 f9bb 5a78 873c
000001f0: cb7b edbc 3d52 413c 660d da3c aa40 b33c

hidden2.weight f4 [34, 128]
0.047551803 -0.008515809 0.04001344 -0.011115068 -0.08273099 0.09396986 -0.035407797 0.07436729
0.015826952 0.056469247 -0.040046282 0.083880424 -0.067029364 -0.02408151 -0.026960233 0.0907523
0.00039173925 0.04341499 -0.007887556 0.030841662 0.019899094 -0.03721065 0.06451487 -0.120087214
0.053613555 0.053772297 0.11604411 0.026751975 -0.00042399325 -0.052974604 0.07004253 0.011342689
-0.05185727 0.03132033 0.012514862 -0.06452956 -0.07188545 0.11894553 0.0017387623 -0.0034654576
0.08267277 -0.103833474 0.13839372 0.04940409 -0.064919695 -0.015062322 -0.015198228 -0.054559574
0.064646475 -0.1437402 -0.114404306 0.13879223 -0.05864639 0.03668592 0.06145993 0.11707038
-0.0017269005 0.114184424 -0.022012193 0.1459187 0.013711329 -0.0621991 -0.0040168306 0.121047825
0.0362119 -0.05557803 0.044993833 0.01992096 0.13201803 0.048812654 -0.11669894 -0.13921736
-0.03938336 -0.013963418 0.041529216 0.081669874 -0.09186342 -0.057566818 0.0831834 -0.0220649
0.10889254 -0.038130205 -0.0818244 -0.037829712 -0.04937179 -0.045561887 0.036012795 0.017949611
-0.0884616 -0.017929213 -0.053815436 -0.02417302 0.1306537 0.08246365 0.03493464 0.08004093
-0.08014557 -0.024332274 0.037818592 0.05783946 -0.024273783 -0.046046402 -0.04587877 0.09214406
-0.02032988 -0.022228504 0.0737269 -0.111336194 -0.064923994 0.0015440813 -0.020882519 0.077406615
-0.02898077 -0.0826363 0.004707685 0.009913765 -0.04697257 0.005816776 -0.076673135 -0.060807537
-0.023007024 -0.017082103 -0.059078854 0.07063253 -0.020887094 -0.034344938 0.16209044 0.10482564
-0.1838299 -0.16632609 -0.035387896 0.022290183 0.02028201 -0.12586199 -0.041294776 0.03330937
-0.0098321745 0.061782435 -0.07213978 -0.01866053 -0.19160719 0.0006543424 0.019831015 -0.009678324
-0.08729677 -0.15407301 -0.0333684 -0.16104262 -0.03589897 0.1390329 -0.059247456 0.17098641
-0.026027821 -0.03606245 0.021080898 -0.003956983 -0.07342743 -0.0004128144 -0.02825388 -0.020556562
-0.05690209 -0.04670191 -0.059104532 -0.03004322 0.098643735 0.044449124 -0.01654196 0.00016564148
-0.063404694 -0.17230447 -0.069828 -0.040018614 0.0746087 0.0012734383 -0.0071759475 0.022282232
-0.14393592 -0.14782682 -0.17013915 -0.053818595 -0.02836 0.06824009 -0.0065909214 0.13274956
0.11512926 0.04323669 -0.05470981 0.04400941 0.0684478 0.05072136 0.07165927 -0.019772451
-0.01796977 -0.042273674 0.10758194 0.0020539036 -0.15050769 0.06366606 0.023428347 0.1284193
-0.03890712 0.0029923313 -0.06589107 0.087401785 0.10825155 0.020716622 -0.15152065 -0.04884169
-0.18405925 -0.18426414 0.08049508 0.032070383 -0.069258444 0.06382764 -0.04706655 0.019490397
0.14847977 0.1489161 0.15949854 0.011876561 -0.002144688 -0.019930895 -0.09289413 -0.056555167
0.043452553 0.028114075 -0.047376774 0.028094593 0.12549171 -0.016848601 0.04854817 0.04159769
0.09657595 0.03177056 -0.06314322 0.11738459 0.0029901846 -0.03827236 0.088375755 -0.022988545
0.04429567 -0.016946703 -0.0040642 0.038407132 0.042932484 -0.019418243 0.06279787 0.063757926
0.02233544 -0.018138878 -0.07022143 0.112048894 -0.020950954 0.036163572 0.11516914 0.06926167
00000000: aec5 423d e485 0bbc 22e5 233d f91b 36bc
00000010: de6e a9bd 4573 c03d c407 11bd e14d 983d
00000020: 86a7 813c 4c4c 673d 9207 24bd 80c9 ab3d
00000030: b146 89bd 9646 c5bc b5db dcbc 58dc b93d
00000040: 5a62 cd39 ebd3 313d cf3a 01bc a7a7 fc3c
00000050: 6d03 a33c 326a 18bd 5f20 843d 49f0 f5bd
00000060: e399 5b3d 5740 5c3d 89a8 ed3d f526 db3c
00000070: 694b deb9 e6fb 58bd 7572 8f3d b0d6 393c
00000080: 4a68 54bd bf49 003d 230b 4d3c 1328 84bd
00000090: ae38 93bd b799 f33d 2ee7 e33a bb1c 63bb
000000a0: 5750 a93d a5a6 d4bd 15b7 0d3e f15b 4a3d
000000b0: 9ef4 84bd f5c7 76bc fd01 79bc dc79 5fbd
000000c0: 5f65 843d a230 13be ce4c eabd 8d1f 0e3e
000000d0: 3237 70bd fa43 163d 68bd 7b3d 98c2 ef3d
000000e0: 2a59 e2ba 86d9 e93d ea52 b4bc b66b 153e
000000f0: 7ba5 603c 7cc4 7ebd 9e9f 83bb ece7 f73d
00000100: ee52 143d caa5 63bd 744b 383d 4831 a33c
00000110: bc2f 073e c7ef 473d dbff eebd ff8e 0ebe
00000120: 7250 21bd d2c6 64bc 8a1a 2a3d 8942 a73d
00000130: e422 bcbd 2fcb 6bbd 0f5c aa3d 73c1 b4bc
00000140: 0d03 df3d 6b2e 1cbd 8d93 a7bd 54f3 1abd
00000150: 133a 4abd 1a9f 3abd 2782 133d 100b 933c
00000160: 5b2b b5bd 49e0 92bc 936d 5cbd 7f06 c6bc
00000170: 15ca 053e b4e2 a83d a017 0f3d 80ec a33d
00000180: 5c23 a4bd 7a54 c7bc abe7 1a3d 12e9 6c3d
00000190: d0d9 c6bc 279b 3cbd 61eb 3bbd 06b6 bc3d
000001a0: d98a a6bc 8d18 b6bc 21fe 963d 3b04 e4bd
000001b0: dff6 84bd c562 ca3a d111 abbc 5c87 9e3d
000001c0: 1469 edbc 383d a9bd ed42 9a3b 586d 223c
000001d0: 4f66 40bd a79a be3b ce06 9dbd 5311 79bd
000001e0: 3a79 bcbc c4ef 8bbc abfc 71bd caa7 903d
000001f0: 691b abbc 47ad 0cbd 09fb 253e d3ae d63d
00000200: e83d 3cbe 6351 2abe e6f2 10bd e799 b63c
00000210: 7526 a63c f7e1 00be b624 29bd 686f 083d
00000220: 2117 21bc 940f 7d3d 05be 93bd f8dd 98bc
00000230: ad34 44be 2d88 2b3a a774 a23c d591 1ebc
00000240: a6c8 b2bd 51c5 1dbe 4ead 08bd 5be8 24be
00000250: cc0a 13bd a45e 0e3e 76ad 72bd 1017 2f3e
00000260: 4c38 d5bc 38b6 13bd d9b1 ac3c 94a9 81bb
00000270: 1f61 96bd 036f d8b9 ae74 e7bc 3c66 a8bc
00000280: 2a12 69bd 814a 3fbd 9817 72bd 331d f6bc
00000290: ba05 ca3d 4910 363d 0183 87bc 0cb0 2d39
000002a0: 52da 81bd 9570 30be fc01 8fbd 8fea 23bd
000002b0: 72cc 983d 80e9 a63a 3624 ebbb 3a89 b63c
000002c0: f063 13be ea5f 17be f538 2ebe e370 5cbd
000002d0: 3b53 e8bc 76c1 8b3d a8f8 d7bb 80ef 073e
000002e0: e4c8 eb3d f518 313d 6517 60bd 3643 343d
000002f0: 5c2e 8c3d 33c1 4f3d 18c2 923d d6f9 a1bc
00000300: 5735 93bc 2927 2dbd ec53 dc3d c99a 063b
00000310: b01e 1abe 5a63 823d ceec bf3c 5980 033e
00000320: 125d 1fbd fd1a 443b e6f1 86bd b5ff b23d
00000330: fdb2 dd3d e8b5 a93c 3b28 1bbe 390e 48bd
00000340: 077a 3cbe bdaf 3cbe 9bda a43d 3c5c 033d
00000350: 5fd7 8dbd 11b8 823d dbc8 40bd 53aa 9f3c
00000360: 150b 183e 767d 183e 9653 233e e895 423c
00000370: e58d 0cbb 1e46 a3bc 473f bebd 64a6 67bd
00000380: 4efb 313d 7d4f e63c 260e 42bd a226 e63c
00000390: e680 003e 1406 8abc 72da 463d 5762 2a3d
000003a0: 9dc9 c53d d921 023d 3c51 81bd 5567 f03d
000003b0: f9f6 433b 7ac3 1cbd 59fe b43d 7952 bcbc
000003c0: 606f 353d d0d3 8abc fb2c 85bb cc50 1d3d
000003d0: f9d9 2f3d 0213 9fbc 2b9c 803d 8493 823d
000003e0: d0f8 b63c fc97 94bc 41d0 8fbd e479 e53d
000003f0: 56a1 abbc 4120 143d ccdd eb3d 10d9 8d3d

hidden2.bias f4 [34]
0.025264565 -0.064035505 0.039824825 -0.039035235 0.049179822 0.0993368 -0.03517423 0.07840291
0.030593751 0.08214024 -0.059871294 -0.020437371 -0.05038085 0.039048493 -0.00019289737 0.07933462
-0.08607995 0.0071586724 0.07044306 -0.09225523 0.035511043 -0.08997338 -0.052982584 0.028905032
0.024797454 -0.015425848 0.043691795 0.049699116 0.04228547 -0.04631492 -0.0063070585 -0.07029264
0.0028841577 0.016894791
00000000: a2f7 ce3c 0c25 83bd 5b1f 233d 69e3 1fbd
00000010: c870 493d 1871 cb3d da12 10bd b491 a03d
00000020: bf9f fa3c 2439 a83d 9a3b 75bd 466c a7bc
00000030: 265c 4ebd 50f1 1f3d 7e44 4ab9 307a a23d
00000040: af4a b0bd 4c93 ea3b 7344 903d 4ff0 bcbd
00000050: 0774 113d f743 b8bd 4404 59bd 3fca ec3c
00000060: 0824 cb3c b2bc 7cbc 2bf6 323d 4d91 4b3d
00000070: 8733 2d3d b7b4 3dbd 71ab cebb 96f5 8fbd
00000080: 2304 3d3b f266 8a3c
