Model/output_dir/1DCNN_0809_2e-5.pt (torch, 848869 bytes, 6 tensors)

conv.weight f4 [32, 1, 1, 71]
0	0x3dde43e4	0.10852793
1	0xbdbb8f45	-0.09158186
2	0x3de06e45	0.10958532
3	0xbd5845c7	-0.05280092
4	0xbdb1bf9e	-0.08679126
5	0x3dbfdf0b	0.09368714
6	0x3cfcae21	0.03084475
7	0x3d8399fd	0.06425855
8	0x3d89b8d5	0.06724707
9	0x3dd93d20	0.10607362
10	0xbc31a428	-0.010842361
11	0x3d3d2ae2	0.046183474
12	0x3d9d20c8	0.07672268
13	0x3e059c1e	0.13047835
14	0x3d9503f2	0.07276143
15	0x3d859021	0.06521631
16	0x3d96c800	0.07362366
17	0x3dbeda8c	0.09319028
18	0xbd5b0781	-0.053473953
19	0x3e1b0d4b	0.1514179
20	0xbda8005d	-0.08203194
21	0xbdbddec1	-0.092710026
22	0x3e0dbff0	0.1384275
23	0x3d04cc7e	0.03242158
24	0x3c3676ed	0.011136753
25	0xbd2b12e4	-0.041766062
26	0x3e010f16	0.12603411
27	0xbd18967d	-0.03725289
28	0xbc43b66e	-0.01194535
29	0x3da36cf4	0.079797655
30	0x3da6bcf0	0.08141506
31	0x3df15be7	0.11785107
32	0xbda5dddb	-0.08098956
33	0x3dea168d	0.114300825
34	0x3c82f089	0.015983837
35	0x3dd30a74	0.10304728
36	0xbd17926d	-0.037004877
37	0xbdc00218	-0.09375399
38	0x3d9be181	0.07611371
39	0x3cc6476c	0.024203978
40	0x3db113c0	0.08646345
41	0xbc938c06	-0.018011104
42	0x3d44cb87	0.04804566
43	0xbcd65256	-0.026162308
44	0x3e09b5a4	0.13448197
45	0xbc2922f1	-0.010323272
46	0x3e0df277	0.13862024
47	0x3c9920b2	0.018692348
48	0x3da7b914	0.08189598
49	0xbd05da89	-0.032679114
50	0x3dfba47a	0.12287231
51	0x3d6fbf0c	0.058531806
52	0xbdd8acb9	-0.10579819
53	0xbd1571d1	-0.036485497
54	0xbdab8a3d	-0.08375976
55	0xbd1ae966	-0.037820242
56	0xbe049248	-0.12946427
57	0xbde9fc7f	-0.11425113
58	0x3da3e2d0	0.080022454
59	0xbe13a848	-0.14419663
60	0xbdcef048	-0.10104424
61	0x3d3b7b1b	0.0457717
62	0xbc6c52b3	-0.014424014
63	0x3d432ae4	0.047648326
64	0x3cdcbc73	0.026945328
65	0x3ca176e8	0.01971002
66	0x3df328f3	0.11873045
67	0x3cf9ad39	0.030478107
68	0xbdbea3a8	-0.09308559
69	0xbbeacea9	-0.007165749
70	0xbd107439	-0.03526709
71	0xbdc818c7	-0.09770351
72	0x3e2446cd	0.16042633
73	0xbdc9c307	-0.09851652
74	0x3c5805e5	0.013184999
75	0x3d119bee	0.035549097
76	0xbd08f53c	-0.033437
77	0x3e093b46	0.13401517
78	0xb9f8663e	-0.00047378422
79	0xbd37c371	-0.04486412
80	0x3c1662a5	0.009178792
81	0x3db0d04f	0.08633482
82	0xbdefcd24	-0.11709049
83	0x3cc76c94	0.024343766
84	0xbda65f9e	-0.08123706
85	0x3ca6422b	0.020295223
86	0xbd38ee5e	-0.0451492
87	0x3dbd05d7	0.092296295
88	0x3ba86fd0	0.005140282
89	0xbb421cb1	-0.0029619152
90	0xbdb267c9	-0.08711202
91	0xbb5e5b5c	-0.0033928966
92	0xbb1da8a1	-0.002405681
93	0xbc658e87	-0.014011032
94	0x3cd796e3	0.026317066
95	0x3de79449	0.1130758
96	0x3dfce9b9	0.123492666
97	0x3da4b352	0.08042015
98	0xbdc6c05d	-0.09704659
99	0x3e0f74e7	0.14009438
100	0x3d6de277	0.0580773
101	0xbdcc2a43	-0.09968998
102	0x3ded1414	0.11576095
103	0x3d2125cd	0.03934269
104	0x3d8bd119	0.068269916
105	0x3ce7998c	0.028271459
106	0x3c5392b2	0.012913393
107	0x3da81f39	0.0820908
108	0x3daef45f	0.08542704
109	0xbdc16c52	-0.094444886
110	0xbd9828fc	-0.07429692
111	0x3e0782c1	0.13233472
112	0xbd33e13a	-0.043915965
113	0x3cc7fbc8	0.02441205
114	0x3d45d501	0.04829884
115	0x3e1f55e7	0.15560113
116	0xbdcb5e9b	-0.09930154
117	0xbc688bca	-0.014193485
118	0xbd924706	-0.07142453
119	0x3a678a1d	0.0008832531
120	0x3cd32680	0.025775194
121	0x3da1dd0f	0.07903492
122	0x3dd16c17	0.102256946
123	0x3dbe0d5c	0.09279892
124	0xbde95f31	-0.113951094
125	0xbcd128e3	-0.025532192
126	0xbd65fc22	-0.056148656
127	0x3e3a943e	0.18220612
128	0xbc2203d7	-0.009888611
129	0x3cd67f00	0.026183605
130	0xbdded742	-0.10880901
131	0x3937bac0	0.0001752181
132	0x3e0d5e5b	0.13805525
133	0xbcbc47c4	-0.02298344
134	0x3de5cd8e	0.11220847
135	0xbd122fcf	-0.035690125
136	0x3d4b7722	0.04967416
137	0x3e03aced	0.12858935
138	0x3c31d7bc	0.010854658
139	0xbd78211f	-0.06057846
140	0x3e080173	0.13281803
141	0xbd1e9993	-0.03872068
142	0x3d94be41	0.072628506
143	0x3e151a31	0.14560772
144	0x3dc0f2ed	0.094213344
145	0xbd9de653	-0.077099465
146	0xbdb113df	-0.08646368
147	0x3dfa5160	0.12222552
148	0x3e13b36c	0.14423913
149	0x3def0e18	0.1167261
150	0xbd8f2aa8	-0.06990558
151	0x3d29c43c	0.04144691
152	0xbd720a21	-0.05909169
153	0x3c2a6505	0.0104000615
154	0xbd43daaa	-0.047815956
155	0xbdee253a	-0.11628194
156	0x3d06aa89	0.03287748
157	0xbce66176	-0.028122645
158	0xbdbea176	-0.0930814
159	0xbda3ead6	-0.08003776
160	0xbe206db5	-0.1566685
161	0x3e30e2a7	0.17273961
162	0x3e27193f	0.16318224
163	0x3e382baa	0.17985407
164	0x3da2adb9	0.07943291
165	0x3d2d39cc	0.042291448
166	0xbd408050	-0.04699737
167	0x3c8146d2	0.01578084
168	0x3d5b9b4e	0.053614907
169	0x3e0ee6c5	0.13955219
170	0xbd262899	-0.04056606
171	0xbd253d07	-0.040341403
172	0x3e0ecc79	0.13945188
173	0x3e199a15	0.15000184
174	0x3d8afa32	0.06786002
175	0x3cd1a14a	0.025589604
176	0x3e0a7fd0	0.13525319
177	0x3dde12cb	0.10843428
178	0xbdb37780	-0.08763027
179	0x3cff10d1	0.031135948
180	0xbddb4a6e	-0.10707556
181	0x3e12e8b1	0.14346577
182	0xbdb0183a	-0.08598371
183	0x3e16f983	0.14743619
184	0xbd9837af	-0.07432496
185	0x3ddbf7b5	0.10740606
186	0xbd932a45	-0.07185797
187	0x3d1c5eb8	0.03817627
188	0x3c0d8421	0.008637459
189	0x3db3d021	0.08779932
190	0x3ddf481b	0.10902425
191	0x3d3ba9dc	0.045816287
192	0x3d3cd86e	0.04610484
193	0x3e090906	0.13382348
194	0x3bdd2194	0.0067483876
195	0xbdc55e2f	-0.09637105
196	0xbd64df64	-0.055877104
197	0xbe0a8452	-0.13527039
198	0x3d8afa77	0.06786054
199	0xbe037386	-0.12837037
200	0xbe046c78	-0.12932003
201	0x3da06835	0.07832376
202	0xbda02107	-0.078187995
203	0x3d315567	0.043294337
204	0x3d34829a	0.044069864
205	0x3e206dbb	0.15666859
206	0xbc3a7216	-0.011379739
207	0xbbdca8d1	-0.0067339917
208	0xbdd92e11	-0.106044896
209	0xbdd6c051	-0.104859
210	0xbd869ae1	-0.065725096
211	0xbd413279	-0.047167275
212	0x3e1f5c24	0.15562493
213	0x3dc9ca72	0.098530665
214	0xbd948141	-0.07251216
215	0xbd18bdc7	-0.03729036
216	0x3dc1ad95	0.09456936
217	0x3d062a03	0.03275491
218	0x3e07aae4	0.13248783
219	0xbd2f719e	-0.042832963
220	0xbc2e5a52	-0.010641651
221	0x3d2dd02a	0.04243485
222	0xbddeccdf	-0.1087892
223	0x3cced831	0.025249572
224	0xbc3b966b	-0.011449437
225	0x3ade52fd	0.0016961988
226	0xbddbeb13	-0.10738196
227	0x3e219571	0.15779664
228	0xbda0a916	-0.078447506
229	0xbd88939b	-0.066687785
230	0xbcd4c285	-0.02597166
231	0xbc503c0c	-0.012709629
232	0xbd868c95	-0.06569783
233	0xbdc47afb	-0.09593769
234	0xbc95c2ef	-0.018281428
235	0x3b7cc02d	0.0038566694
236	0xbdac16eb	-0.08402809
237	0x3d9032ba	0.07040925
238	0x3dc376b6	0.09544127
239	0xbdc9c914	-0.09852806
240	0xbdce5e60	-0.10076594
241	0xbd809fcc	-0.06280479
242	0x3b65a959	0.0035043566
243	0x3d072cd1	0.033001725
244	0x3e058b75	0.1304148
245	0x3c68f5e5	0.014218782
246	0x3df0987b	0.11747833
247	0xbd82efc5	-0.06393389
248	0xbbb4095e	-0.0054942807
249	0x3c29aa57	0.010355554
250	0xbce94e2b	-0.028479656
251	0x3d2b6285	0.041842002
252	0x3d6c9a6b	0.057764452
253	0x3d0266a3	0.031836163
254	0xbdf9e5f8	-0.12202066
255	0xbdb849c3	-0.08998444

conv.bias f4 [32]
0	0xbc90dcda	-0.017683435
1	0x3c7f113b	0.015568073
2	0xbd9539ed	-0.07286439
3	0x3cf8902d	0.030342186
4	0x3cff93f5	0.031198481
5	0xbd398d2c	-0.045300648
6	0x3d66a6d8	0.05631146
7	0x3de18237	0.11011165
8	0xbd83d5a3	-0.06437232
9	0x3d662a98	0.056192964
10	0xbd7c9922	-0.061669476
11	0xbc2e5c28	-0.010642089
12	0xbd9af78b	-0.07566746
13	0x3db2c140	0.08728266
14	0x3d9a8541	0.075449474
15	0x3da6c607	0.081432395
16	0xbd4935b8	-0.049123496
17	0x3dd0dc58	0.10198277
18	0xbc246832	-0.010034608
19	0x3c29570a	0.010335693
20	0x3d7aa6da	0.06119428
21	0x3c1d7b24	0.009611879
22	0x3dfc84a0	0.12329984
23	0x3daef741	0.08543254
24	0x3e013798	0.12618864
25	0x3bb8797b	0.005629716
26	0xbd3a05d9	-0.045415733
27	0xbcf1c7df	-0.029514251
28	0x3c99411c	0.018707804
29	0xbd5cebbc	-0.05393575
30	0x3d05f429	0.032703552
31	0x3c9113b3	0.017709589

hidden1.weight f4 [128, 1600]
0	0xbbc552b5	-0.0060218223
1	0x3c110a97	0.0088526225
2	0xbb1ec372	-0.0024225381
3	0xbb4aeb49	-0.0030962995
4	0xb99455c9	-0.00028292675
5	0x3c3c7c95	0.011504312
6	0x3c6487d6	0.013948401
7	0x3c762493	0.015023368
8	0xbc682d00	-0.014170885
9	0xbca5e5e1	-0.020251216
10	0x3c1403b0	0.009034082
11	0x3bd984d2	0.006638148
12	0x3cbafcb1	0.02282557
13	0xbb0ed819	-0.0021796285
14	0xbb156d6a	-0.0022800812
15	0x3c8806a2	0.016604725
16	0x3c488d10	0.012240663
17	0xbc187c9d	-0.009307054
18	0xbcaf1f4c	-0.021377228
19	0x3c93c5b1	0.018038603
20	0x3c5dfbe2	0.013548823
21	0x3ccf4f45	0.025306353
22	0x3cc4c989	0.02402188
23	0x3c3154fe	0.010823486
24	0xbc445b05	-0.011984591
25	0xbba72238	-0.0051005147
26	0xbce0afe1	-0.027427616
27	0x3c5fe625	0.013665711
28	0x3c54a7d9	0.012979471
29	0x3a9a5db7	0.0011777197
30	0x3bc87e10	0.0061185434
31	0x3a07cfea	0.0005180823
32	0x3c1f7176	0.009731641
33	0xba04eb92	-0.0005070503
34	0x3c3afbbb	0.011412556
35	0xbccc91fd	-0.024971956
36	0x3c056005	0.008140569
37	0x3c1b8b15	0.009493609
38	0x3bd38017	0.0064544785
39	0xbc2ff02f	-0.010738417
40	0x3c3799e8	0.011206128
41	0xbbf9e8ec	-0.0076266434
42	0x3c06ff77	0.0082396185
43	0x3c993e15	0.01870636
44	0x3c2e3583	0.010632875
45	0x3c303678	0.010755174
46	0xbbab0da5	-0.0052201324
47	0x3d03d57c	0.032186016
48	0xba383d73	-0.00070281996
49	0x3ce12e01	0.027487757
50	0xbb129136	-0.0022364384
51	0x3c2f1403	0.0106859235
52	0x3cfd30aa	0.030906994
53	0xbc6922d1	-0.014229492
54	0xbca7fb94	-0.020505704
55	0xbcad181e	-0.021129664
56	0x3ca8e01e	0.02061468
57	0x3cab3066	0.020897102
58	0xbc680e7c	-0.01416361
59	0x3c512517	0.012765191
60	0xba379316	-0.00070028135
61	0x3d09eebe	0.033674948
62	0x3c8ee678	0.01744388
63	0xbb8d7c90	-0.0043178275
64	0xbc27219a	-0.010200882
65	0xbc70a898	-0.014688633
66	0xbcdbffd1	-0.026855381
67	0x3b4d09dd	0.0031286397
68	0xbc8c5a9c	-0.01713305
69	0x3c3b1b9e	0.011420159
70	0x3c3e5fd1	0.011619524
71	0x3ab8fbb7	0.0014113103
72	0x3d2447a3	0.04010738
73	0xbcae4ffa	-0.02127837
74	0xbaf3ac3f	-0.0018590762
75	0x3c8c1578	0.01710008
76	0xbcad2cb7	-0.021139486
77	0x3c5e89d8	0.013582669
78	0xbcfb0497	-0.030641837
79	0xbc7283be	-0.014801918
80	0x3c73df61	0.014884801
81	0xbcba8deb	-0.02277275
82	0x3c99abc0	0.018758655
83	0xbc94c916	-0.018162291
84	0xbbb04bd5	-0.0053801336
85	0xbc37e037	-0.011222891
86	0xbbd49332	-0.0064872736
87	0x3c22e8f5	0.009943237
88	0x3d52f933	0.051507186
89	0xbcbb9674	-0.02289889
90	0x3a9b7454	0.001186023
91	0xbca69fce	-0.020339873
92	0x3ca57c24	0.020200796
93	0x3c7a9335	0.015293886
94	0xbb0a89dd	-0.0021139302
95	0x3b983fa4	0.0046462584
96	0x3c91b6e9	0.017787414
97	0xbc9e34b7	-0.019312246
98	0x3cf44a01	0.029820444
99	0xbbf277f1	-0.007399552
100	0x3c978b02	0.018498901
101	0x3c700c94	0.014651436
102	0x3c7be61f	0.015374689
103	0xbcd8ac04	-0.026449211
104	0xbd23d7b6	-0.04000064
105	0x3aaf49d2	0.0013373441
106	0xbb72924f	-0.0037013476
107	0xbcf59ac3	-0.029981023
108	0x3c7e94c2	0.015538396
109	0x3c05f29b	0.008175517
110	0x3c08cbe7	0.008349395
111	0x3c6065ed	0.013696176
112	0xbabbccd5	-0.0014328012
113	0x3b96a879	0.00459772
114	0x3d312038	0.043243617
115	0xbc157c52	-0.009123879
116	0xbc794a8d	-0.015215528
117	0x3c1d7a8f	0.00961174
118	0xbc66be80	-0.014083505
119	0x3bb45029	0.00550272
120	0xbc900a9b	-0.017583182
121	0x3d1cab04	0.03824903
122	0x3d10891a	0.035287
123	0xbccdf0df	-0.02513927
124	0x3c753de1	0.014968366
125	0xb99572e6	-0.000285051
126	0x3c71366a	0.014722446
127	0xbcc88fab	-0.024482569
128	0xbd4d710b	-0.050156634
129	0xbc296450	-0.010338858
130	0xbbcf3fd4	-0.0063247476
131	0x3beef21a	0.0072920443
132	0xbce01932	-0.027355764
133	0x3ca559b8	0.020184383
134	0xbccaad5e	-0.024740871
135	0xbcfd8105	-0.03094531
136	0xbc2b2dae	-0.010447903
137	0xbbb86def	-0.0056283395
138	0xbb8a8d73	-0.004228288
139	0x3cb7220c	0.022355102
140	0xbc0e7bb6	-0.008696487
141	0x3c07296e	0.008249624
142	0x3d07fb6f	0.03319877
143	0xbb2058ff	-0.0024467108
144	0xbc3e7599	-0.011624717
145	0xbb6f3bdf	-0.0036504192
146	0xbb39cef9	-0.0028352125
147	0x3ae27c45	0.0017279467
148	0xbaacbfc4	-0.0013179709
149	0x3d481118	0.048844427
150	0xbcd4a3a1	-0.02595693
151	0xbba30d2f	-0.004975937
152	0xbbd6a6a1	-0.0065506254
153	0x3b0c3e0a	0.0021399283
154	0x3c30ef09	0.010799178
155	0xbcc7b72e	-0.02437934
156	0x3aabff86	0.0013122417
157	0x3c683a6d	0.014174086
158	0xbcade650	-0.021227986
159	0xbc464c73	-0.012103188
160	0xbc47d684	-0.012197141
161	0xb92409a3	-0.00015643849
162	0xbca78f50	-0.020454079
163	0xbcbb3c8b	-0.022856018
164	0xbc21d4a2	-0.009877356
165	0x3cdd0fb9	0.026985036
166	0xbc0435b5	-0.008069445
167	0xbaedd384	-0.0018144702
168	0x3c746ae6	0.014918065
169	0x3d51a563	0.051183116
170	0xbc8bc727	-0.017062737
171	0x3bfcb4bb	0.0077119744
172	0x3cbdf5c3	0.023188477
173	0xbd16dcc3	-0.03683163
174	0x3d059288	0.032610446
175	0xbc53b2cc	-0.012921046
176	0x3caa7431	0.020807358
177	0x3aecefd5	0.0018076847
178	0x3cf06458	0.029344723
179	0x3cd40041	0.025879027
180	0x3cb8a45b	0.022539308
181	0x3cb0391b	0.021511605
182	0x3ac4d0aa	0.00150158
183	0x395e0678	0.0002117398
184	0xbc24352e	-0.010022445
185	0xbac1c29d	-0.0014782731
186	0x3c82e283	0.01597715
187	0x3d253cbe	0.04034113
188	0xbb99fb2d	-0.004699132
189	0x3cd8dd04	0.026472576
190	0xbc9fd685	-0.01951147
191	0x3cf15340	0.029458642
192	0xbbc4a3c6	-0.0060009686
193	0x3d09a764	0.0336069
194	0x3ce65a18	0.028119132
195	0x3c4bc026	0.0124359485
196	0x3d0fea90	0.035135806
197	0xbc6f2c98	-0.014598034
198	0x3cda415b	0.026642492
199	0x3c84621f	0.016160069
200	0x3ceab8e5	0.028652618
201	0x3c92da59	0.017926382
202	0xbc6ccc2d	-0.014452976
203	0x3c705146	0.014667815
204	0x3cc12afc	0.023580067
205	0xbbe0d4f0	-0.0068613216
206	0xbc068f54	-0.008212883
207	0x3cb696d7	0.022288723
208	0x3c255e3f	0.010093271
209	0xba9e955d	-0.0012098957
210	0x3c713120	0.014721185
211	0x3aa056a5	0.0012232853
212	0xbc07935c	-0.008274879
213	0x3c1578b2	0.009123014
214	0x3c9c9d84	0.019118078
215	0xbacfa23d	-0.0015841197
216	0xbca5f952	-0.020260487
217	0xbb02339a	-0.0019867183
218	0x3c690fd1	0.014224962
219	0xbca599ee	-0.020215001
220	0xbca675c7	-0.020319832
221	0x3cae325b	0.021264246
222	0xbc865e49	-0.01640238
223	0xbc723ca6	-0.0147849675
224	0xbc26b1d2	-0.010174232
225	0xbc7669b8	-0.015039854
226	0xbca8643d	-0.02055561
227	0x3c877f0b	0.016540071
228	0x3d004499	0.03131542
229	0xbbeeccfd	-0.00728762
230	0x3b9fd22f	0.0048773508
231	0xbcc3e6bc	-0.023913734
232	0x3ce6318d	0.0280998
233	0xbcdeedfc	-0.02721309
234	0xbb54cbb7	-0.0032470056
235	0xbc97cdcf	-0.018530754
236	0x3cca04b9	0.024660455
237	0x3bff7147	0.007795486
238	0xb921f9d3	-0.00015447223
239	0x3cf8aff2	0.030357335
240	0xbcd613db	-0.026132515
241	0xbbace2f7	-0.0052760798
242	0xbca9329d	-0.020654017
243	0xbaa9a2c5	-0.0012942186
244	0xbc9415b4	-0.018076755
245	0x3a2674e7	0.0006349817
246	0x3c24a54c	0.0100491755
247	0xbb8dc2c9	-0.0043261987
248	0x3cc6cf57	0.02426879
249	0xbc066813	-0.008203524
250	0x3b354f74	0.0027665766
251	0x3c442413	0.011971491
252	0x3d316b2a	0.04331509
253	0x3ba42525	0.005009311
254	0xbcdff3b4	-0.027337886
255	0x3c6ab4ba	0.014325315

hidden1.bias f4 [128]
0	0x3c1fb26a	0.009747127
1	0xbcadc84e	-0.021213677
2	0x3c79e790	0.015252963
3	0x3c716d67	0.014735556
4	0x3a85b376	0.0010200578
5	0x3cb9570b	0.022624513
6	0x3c781229	0.0151410485
7	0x3c0475e5	0.008084749
8	0x3cbd7902	0.02312899
9	0xbb8b5560	-0.004252121
10	0xbb55fd8e	-0.003265235
11	0x3ad1f61c	0.0016018781
12	0xbca0743e	-0.019586679
13	0x3b47bce8	0.0030477587
14	0x3bbc1a1a	0.0057404162
15	0x3cc1648f	0.02360752
16	0xbc87ce7e	-0.016577955
17	0x3c6bc08c	0.0143891685
18	0x3ca1c9a4	0.01974947
19	0xbc5b3149	-0.01337845
20	0x3ccde88d	0.025135303
21	0x3bfeb3a9	0.007772882
22	0xbcab6c56	-0.020925682
23	0xbb2380c8	-0.0024948586
24	0x3c1d2430	0.009591147
25	0x3cb720bb	0.022354474
26	0x3bf96f07	0.0076121124
27	0xbc0bf358	-0.008541904
28	0x3c862bdf	0.016378341
29	0xbc3b33ea	-0.0114259515
30	0x3c9e5b84	0.019330747
31	0x3cc13efe	0.023589607
32	0x3c2e47d4	0.010637242
33	0x3cc0aeb2	0.023520801
34	0x3cc460f8	0.02397202
35	0x3c1d9991	0.009619133
36	0xbca744ef	-0.020418612
37	0xbc7fad86	-0.015605336
38	0xbcae6c93	-0.021292007
39	0xbc695266	-0.014240837
40	0x3c0c9daf	0.008582517
41	0x3cc2d7a9	0.023784475
42	0xbc520e0e	-0.012820734
43	0x3c827c37	0.01592837
44	0xbc70f142	-0.014705958
45	0xbbab13d1	-0.005220868
46	0x3caacc89	0.020849483
47	0xbc2d17ce	-0.0105647575
48	0x3cc57b80	0.024106741
49	0x3cc9e4b8	0.024645194
50	0xbca9520f	-0.020669011
51	0x3c0760dc	0.008262839
52	0x3ac8e722	0.0015327672
53	0x3c5805a7	0.013184941
54	0x3cb9a682	0.022662405
55	0x3b82b34d	0.0039886595
56	0xbba067a8	-0.0048951693
57	0x3c80bd36	0.015715223
58	0x3c324af5	0.010882129
59	0xbcb8aae5	-0.022542426
60	0x3cac6f8f	0.021049289
61	0xba70932a	-0.00091772026
62	0xbc307b75	-0.010771622
63	0xbc4fb4d6	-0.012677392
64	0xbc8e8e71	-0.017401906
65	0xbc465d68	-0.012107231
66	0xbb854bb0	-0.0040678605
67	0x39cf5c11	0.00039550712
68	0x3c4c5abe	0.0124728065
69	0xbc9aacfe	-0.018881317
70	0x3bc2a36c	0.0059398916
71	0xbc0937e0	-0.008375138
72	0x3aa549de	0.0012610515
73	0x3c62db0b	0.013846169
74	0x3cb04b2c	0.02152022
75	0x3c08e4f2	0.008355366
76	0x3bb6eb46	0.005582246
77	0x3b632852	0.0034661484
78	0xbc2cc41d	-0.010544804
79	0xbb5dc2aa	-0.0033837953
80	0x3a89f0ed	0.0010524072
81	0x3c6a0c9f	0.014285236
82	0xbc187f42	-0.009307684
83	0xbc552adc	-0.013010707
84	0xbc5fb39a	-0.01365366
85	0x3c9bd0d0	0.019020468
86	0x39940118	0.00028229575
87	0xbaaa74fc	-0.0013004835
88	0x3beaca34	0.007165218
89	0x3c836471	0.016039105
90	0x3a8e441a	0.0010854036
91	0xbbdbce6d	-0.0067079575
92	0x3c191aa4	0.0093447305
93	0xbc8d9675	-0.017283658
94	0xbb3a930e	-0.0028469
95	0x3c7d1d76	0.015448919
96	0xbcb13448	-0.021631375
97	0x3cabffd6	0.020996016
98	0x3c0bcb85	0.00853241
99	0x386afd7d	5.6026027e-05
100	0x3c9354ea	0.017984826
101	0x3bf2a293	0.0074046343
102	0xbb88f7db	-0.0041799373
103	0x3cbd017c	0.023071997
104	0x3c60a305	0.013710742
105	0x3c8be997	0.017079158
106	0x3c5292aa	0.01285235
107	0x3c929f9c	0.017898373
108	0x3c93f3ae	0.018060531
109	0x3ca280d8	0.019836828
110	0x3cba3b32	0.022733305
111	0xbcca88f0	-0.0247235
112	0x3caf3148	0.021385804
113	0x3c62ffa4	0.013854895
114	0x3c82d7f1	0.01597211
115	0xbcb8b20f	-0.022545842
116	0xbbf965fb	-0.007611034
117	0x3bd42dc2	0.0064751813
118	0x3a8c3362	0.0010696466
119	0xbb298469	-0.0025866276
120	0x3c5dbac7	0.013533301
121	0xbc0ad8dd	-0.008474556
122	0xbc2b6043	-0.010459962
123	0xb926b816	-0.00015899571
124	0x3aab0bc1	0.0013049768
125	0x3cc7be5a	0.024382759
126	0xbc823c29	-0.015897827
127	0x3c7a9ddf	0.015296428

hidden2.weight f4 [34, 128]
0	0x3d9c422c	0.07629809
1	0xbd3d7776	-0.046256505
2	0xbc95bc75	-0.01827834
3	0xbdf16d7d	-0.11788461
4	0x3d92feee	0.0717753
5	0xbdb11ecc	-0.08648452
6	0x3d2178a0	0.039421678
7	0x3cf25f2d	0.029586399
8	0x3dcb3240	0.09921694
9	0xbd9c06a0	-0.07618451
10	0x3d9a41f3	0.0753211
11	0x3d767943	0.060174238
12	0xbcbf0978	-0.023319945
13	0xbce9bde2	-0.028532926
14	0x3da85c1d	0.08220694
15	0xbd9cc130	-0.07654035
16	0x3d3c7935	0.04601403
17	0x3d322985	0.043496627
18	0x3c87dfbb	0.016586175
19	0x3d013984	0.03154899
20	0x3cea56de	0.028605875
21	0x3dedc863	0.11610486
22	0x3daac642	0.08338596
23	0xbd08a62a	-0.03336159
24	0xbd4bd732	-0.049765773
25	0x3c8a8787	0.016910328
26	0xbd20ad6e	-0.039227895
27	0xbd2cce83	-0.042189132
28	0xbdd02e13	-0.10165038
29	0xbced858d	-0.028994346
30	0x3d3f354c	0.046681687
31	0x3cdcd6ee	0.026957955
32	0xbd8f7220	-0.070041895
33	0x3dcc21f9	0.09967417
34	0xbd045f0a	-0.0323172
35	0x3d9455d2	0.072429314
36	0xbb9687fe	-0.0045938483
37	0xbdc0807c	-0.093995064
38	0xbd7f2da9	-0.062299404
39	0xbccc8a51	-0.024968298
40	0x3d3c943c	0.046039805
41	0x3c905bba	0.017621864
42	0xbca96197	-0.020676417
43	0xbddba336	-0.107244894
44	0xbdc350c6	-0.09536891
45	0xbd23fd70	-0.04003662
46	0x3dafe85f	0.08589243
47	0x3da84b29	0.08217461
48	0x3d9551eb	0.07291015
49	0xbdc002a7	-0.09375506
50	0xbcd1efc3	-0.025627023
51	0xbdd80341	-0.10547496
52	0x3da1b466	0.078957364
53	0xbdc4c6fa	-0.09608264
54	0xbdeb1411	-0.11478437
55	0xbb6402cd	-0.0034791708
56	0x3dcbce7c	0.09951493
57	0x3d2a4fbf	0.041579958
58	0x3cf658af	0.030071585
59	0x3c063f81	0.008193851
60	0xbd8dd382	-0.069251075
61	0xbdd4c4bb	-0.10389086
62	0x3d07a18e	0.033113055
63	0xbd697d69	-0.057004366
64	0x3db5668c	0.0885745
65	0xbcebaf89	-0.028770225
66	0x3db3b881	0.08775426
67	0xbc13b8f8	-0.009016268
68	0x3d025427	0.031818535
69	0xbcaf901d	-0.021431023
70	0x3cbf395f	0.023342786
71	0x3d936570	0.07197082
72	0x3d516585	0.051122207
73	0x3d6dfaa2	0.05810035
74	0x3d05242d	0.032505203
75	0x3cf55701	0.029948713
76	0x3d9b45ab	0.075816475
77	0xbd3ef69a	-0.046621896
78	0xbc9b5dfb	-0.018965712
79	0x3dc0b2b4	0.09409085
80	0x3b910816	0.0044260127
81	0xbc2d4913	-0.010576504
82	0x3dc64762	0.09681584
83	0x3d41662a	0.047216572
84	0x392ecb1c	0.00016669597
85	0xbdbe582c	-0.09294161
86	0xbdaad0e1	-0.08340622
87	0xbda67638	-0.08128017
88	0xbdfc13d2	-0.12308468
89	0xbd6827f2	-0.05667872
90	0xbd2f906d	-0.042862345
91	0x3dbdb215	0.09262482
92	0x3de5a7d5	0.11213652
93	0xbda00ca6	-0.078149125
94	0xbd86a6e9	-0.06574804
95	0xbddfafa5	-0.109221734
96	0xbe031873	-0.12802295
97	0xbdaad612	-0.08341612
98	0xbbe380bb	-0.006942836
99	0xbdcf9ab1	-0.10136927
100	0x3d8967f2	0.06709279
101	0xbd88b755	-0.06675593
102	0x3da295ee	0.07938753
103	0xbc1bf36d	-0.009518486
104	0xbdcc9216	-0.09988801
105	0xbd22f766	-0.03978672
106	0xbda5524d	-0.08072338
107	0xbd7ca232	-0.06167812
108	0xbcfbf189	-0.030754821
109	0x3dbec1c6	0.09314303
110	0x3d1a3596	0.03764876
111	0x3da299a3	0.0793946
112	0xbb577219	-0.0032874404
113	0x3d8fbc54	0.070183426
114	0xbd4f0685	-0.050543327
115	0x3d62d427	0.055378105
116	0x3d8ed23b	0.06973692
117	0xbd73818f	-0.05944973
118	0xbdcff95f	-0.10154986
119	0xbdcbf826	-0.0995944
120	0x3d76cd52	0.060254402
121	0x3d4c88fd	0.04993533
122	0xbc8df75f	-0.01732987
123	0x3cbfa562	0.02339429
124	0xbd67c233	-0.056581687
125	0x3dbf9b31	0.09355772
126	0xbbff8161	-0.0077974056
127	0x3d6632ae	0.056200676
128	0xbd9ed06f	-0.07754599
129	0xbd7aa053	-0.061188053
130	0x3d8dcf2a	0.06924279
131	0x3de5b4c0	0.11216116
132	0x3c3f88ae	0.011690302
133	0x3d16d472	0.036823697
134	0xbd167672	-0.036734052
135	0x3dd4635d	0.103705145
136	0x3d1062d8	0.035250515
137	0x3d9bee68	0.07613832
138	0x3dee7f3f	0.11645364
139	0xbda380d2	-0.07983555
140	0x3d5fc80a	0.05463413
141	0x3d60d504	0.054890648
142	0x3d2eb04b	0.042648595
143	0xbc8b8c4f	-0.017034678
144	0xbd8a0891	-0.06739915
145	0x3dced388	0.1009894
146	0xbd114a3d	-0.03547119
147	0xbcd7a771	-0.02632496
148	0xbd97271b	-0.07380506
149	0xbdeeeb60	-0.11665988
150	0xbd8960b0	-0.06707895
151	0x3cb27ba9	0.021787481
152	0x3db098f2	0.08622922
153	0xbd2926a2	-0.04129661
154	0x3d6263b9	0.055270884
155	0x3c16f074	0.009212602
156	0x3dde938a	0.108679846
157	0xbd81da4a	-0.063404635
158	0x3b4ffbf5	0.0031735871
159	0x3db8cf83	0.09023955
160	0x3de4ce72	0.11172189
161	0xbd8fa92f	-0.07014691
162	0x3d6230c1	0.055222277
163	0x3d924264	0.07141569
164	0x3e0159ae	0.12631866
165	0x3ddddfd1	0.10833705
166	0x3d0a16a7	0.03371301
167	0xbd151e33	-0.036405753
168	0xbce3f808	-0.027828231
169	0xbda161ec	-0.07880005
170	0xb93c2e11	-0.00017946238
171	0x3c801def	0.015639273
172	0x3d4beae0	0.04978454
173	0xbd4620b6	-0.04837104
174	0x3d83a80c	0.06428537
175	0xbdc33218	-0.09531039
176	0x3dd25bd5	0.10271422
177	0xbe059b84	-0.13047606
178	0xbcea17e0	-0.028575838
179	0x3dd4f8e6	0.10399036
180	0xbd7ca2d7	-0.061678734
181	0xbdd7c2ac	-0.105351776
182	0x3c7175ac	0.014737528
183	0xbd82b1d2	-0.06381573
184	0xbd3e8299	-0.046511266
185	0xbd9f0d3e	-0.077661976
186	0xbc2fbb43	-0.010725799
187	0xbdde6556	-0.10859172
188	0xbdaa0762	-0.083021894
189	0x3d793ed4	0.060850933
190	0xbcae4c42	-0.021276597
191	0xbd22448a	-0.039616145
192	0xbe10da1f	-0.14145707
193	0xbd3859b6	-0.04500743
194	0x3d2dbab5	0.042414386
195	0x3d381c29	0.04494873
196	0x3df693ab	0.12039884
197	0x3d32c447	0.043644216
198	0xbdf2158a	-0.118205145
199	0x3b896477	0.0041928845
200	0xbcc042e5	-0.023469398
201	0x3ca572bb	0.02019631
202	0x3c10a998	0.008829497
203	0x3dc96085	0.09832863
204	0x3da52b2a	0.080648735
205	0x3d019f7d	0.03164624
206	0x3db5c978	0.08876318
207	0x3d5ddc10	0.054164946
208	0x3d7a8955	0.061166126
209	0xbe11389b	-0.1418175
210	0xbd809f31	-0.06280363
211	0x3dbf9e64	0.093563825
212	0xbd321bfe	-0.043483727
213	0x3d8110a0	0.06301999
214	0x3c7fb637	0.015607408
215	0xbc16636d	-0.009178978
216	0x3ae306ce	0.0017320754
217	0x3dc595ec	0.09647736
218	0xbdae0e30	-0.084988
219	0x3dcf0c32	0.10109748
220	0x3cde8ea4	0.027167626
221	0x3bcca6a1	0.0062454497
222	0xbd55fd2b	-0.052243393
223	0xbd05143f	-0.03249001
224	0xbd047d98	-0.032346338
225	0xbd678c92	-0.056530543
226	0xbd0eceae	-0.034865074
227	0x3c4a710c	0.012356054
228	0xbc8e63b9	-0.017381536
229	0x3d4d8f40	0.050185442
230	0x3d886285	0.06659416
231	0xbdeba185	-0.11505417
232	0x3cbef9bb	0.02331244
233	0x3c84423c	0.016144864
234	0x3d1b7b62	0.037959464
235	0x3d378371	0.044803087
236	0x3c0d25b6	0.008614948
237	0xbddbd537	-0.10734027
238	0xbd8dc956	-0.069231674
239	0x3d7eaa71	0.062174264
240	0x3d8dfaee	0.06932627
241	0xbb10fa82	-0.002212197
242	0x3d761444	0.06007792
243	0xb9c91c31	-0.00038358712
244	0xbd1cff18	-0.038329214
245	0x3d90795e	0.07054399
246	0x3cb9ea36	0.022694688
247	0xbde4c52c	-0.1117042
248	0xbd8682a0	-0.065678835
249	0xbc3b063f	-0.011415063
250	0x3d98cb79	0.07460684
251	0xbdedf56c	-0.11619076
252	0xbd7fb781	-0.062430862
253	0x3c9c3a5b	0.019070795
254	0xbc77cff3	-0.015125263
255	0xbd887476	-0.06662838

hidden2.bias f4 [34]
0	0xbd6c600e	-0.057708792
1	0xbd7e6ec4	-0.062117353
2	0x3d27380d	0.04082494
3	0xbc9a6a69	-0.018849568
4	0xbd9ca9ea	-0.07649596
5	0x3da6ffdd	0.08154271
6	0xbcaa1ea9	-0.020766573
7	0x3d1c7a9d	0.03820287
8	0xbd971f51	-0.0737902
9	0x3da1d495	0.07901875
10	0x3c59e562	0.013299318
11	0xbcc7e75e	-0.024402317
12	0x3cbf2ec7	0.023337735
13	0xbd1b636b	-0.03793661
14	0xbda4a36e	-0.08038984
15	0x3d1decd0	0.03855592
16	0x3d8f4add	0.06996701
17	0xbd95eca3	-0.073205255
18	0x3ceaa675	0.028643826
19	0x3d62473f	0.055243727
20	0xbd569268	-0.052385718
21	0xbc962aaa	-0.01833089
22	0xbcd459c2	-0.025921706
23	0x3be7e06d	0.007076314
24	0xbd011392	-0.031512804
25	0xbd10c0cf	-0.035340127
26	0x3d3caa44	0.046060815
27	0xbc4d03e7	-0.012513137
28	0xbd7c2f42	-0.061568506
29	0xbd454413	-0.048160624
30	0x3cf78b18	0.030217692
31	0x3d516464	0.05112113
32	0xbd78c967	-0.060738947
33	0xbc3808e9	-0.011232593
